mujoco_playground/mujoco_playground/experimental/sim2sim/onnx/apollo_policy.onnx (onnx, 925143 bytes, 10 tensors)

mlp_1/sub/ReadVariableOp:0 f4 [112]
0.088218085 0.0011664056 0.035815723 -0.00016232616 -0.008293176 0.0006651611 -0.04081811 0.0018017465
-0.96278983 0.0009814998 0.00014595962 0.0015472686 0.001317494 -0.00018804867 0.01528407 0.0016946692
0.004679607 0.018179854 -0.01314674 -0.0032774159 -0.036016375 0.009311327 0.002212299 0.00848151
0.005856586 0.01748804 -0.010434203 -0.03077159 0.0076906127 -0.0021905808 0.002036783 -0.016360102
0.011563421 -0.018071799 -0.0624079 0.18581648 0.0042019733 -0.0607598 -0.005657223 0.01806977
-0.052049536 0.18525979 -0.0063116318 -0.06191926 0.0007858256 -0.00013057455 0.00012203121 -0.00017207963
-0.0011743824 0.0010817373 0.008282221 0.0010520548 0.0009412666 0.00015594004 0.0003501019 0.0011271144
0.0045209075 -0.008687657 -0.00081557996 0.0013015557 0.002113374 -0.0006011298 0.002712149 -0.0007811281
0.008939731 -0.008788896 0.0025684552 0.0020754463 -0.0026624221 0.0055104513 -0.010123676 0.0086287
0.0027284925 0.00393694 0.0040793326 0.005225944 0.0028538897 0.006651406 0.17266808 0.003034035
0.0072958935 -0.051324543 0.13818757 -0.00536901 -0.08800193 -0.0132470485 0.006282496 -0.0030717268
-0.0072377524 -0.1290639 -0.022247866 -0.07740672 -0.023086747 -0.0075045186 -0.023817291 -0.014083102
-0.04557133 0.06607311 -0.18431877 -0.21608719 0.0057902625 0.07459708 0.05201946 -0.06094046
-0.17782386 -0.20770113 -0.037004553 0.086739145 -0.01481486 -0.023408925 0.0037829573 -0.0043048337
00000000: afab b43d 14e2 983a 82b3 123d 1936 2ab9
00000010: 1ae0 07bc 355e 2e3a e430 27bd 9528 ec3a
00000020: 6579 76bf aba5 803a bd0c 1939 b8cd ca3a
00000030: c3af ac3a ee2e 45b9 096a 7a3c aa1f de3a
00000040: 6457 993b ebed 943c 6d65 57bc eac9 56bb
00000050: e885 13bd 898e 183c 38fc 103b 08f6 0a3c
00000060: 9be8 bf3b 1443 8f3c 38f4 2abc b414 fcbc
00000070: 8901 fc3b d98f 0fbb 8c7b 053b 9f05 86bc
00000080: 8174 3d3c 4f0b 94bc 6d9f 7fbd ad46 3e3e
00000090: b5b0 893b 45df 78bd 3a60 b9bb 0e07 943c
000000a0: e531 55bd beb4 3d3e ced1 cebb 0d9f 7dbd
000000b0: ddff 4d3a d7ea 08b9 02eb ff38 4670 34b9
000000c0: bced 99ba 15c9 8d3a 27b2 073c 1ae5 893a
000000d0: 55bf 763a d683 2339 e28d b739 afbb 933a
000000e0: 1f24 943b ad56 0ebc a5cc 55ba f698 aa3a
000000f0: 8880 0a3b 2395 1dba 4fbe 313b 9fc4 4cba
00000100: f377 123c 4dff 0fbc 8753 283b 3604 083b
00000110: 087c 2ebb 0491 b43b c6dd 25bc 645f 0d3c
00000120: 82d0 323b 7201 813b ecab 853b 653e ab3b
00000130: 5308 3b3b 0af4 d93b e7cf 303e a9d6 463b
00000140: 6412 ef3b af39 52bd 0b81 0d3e 85ee afbb
00000150: 5b3a b4bd 260a 59bc 65dd cd3b 064f 49bb
00000160: ab2a edbb 5429 04be 2841 b6bc 6a87 9ebd
00000170: 6b20 bdbc 77e8 f5bb 7b1c c3bc d0bc 66bc
00000180: 01a9 3abd 5751 873d 0fbe 3cbe f645 5dbe
00000190: 3ebc bd3b 5bc6 983d 5b12 553d b49c 79bd
000001a0: 7517 36be 9baf 54be 1692 17bd 4ba4 b13d
000001b0: 07ba 72bc 13c4 bfbc 7eeb 773b 900f 8dbb

mlp_1/MLP_0_1/hidden_3_1/Cast/ReadVariableOp:0 f4 [128, 64]
-0.013766466 0.021718396 0.07689081 -0.0029821217 0.04141902 0.010478012 -0.086737305 -0.03039984
-0.046958387 -0.017557135 0.01251982 0.016253382 -0.03745309 -0.07604332 -0.019231332 -0.09796446
-0.025849132 -0.011239606 0.011304242 0.06497562 -0.05866492 -0.08849315 0.3043089 -0.032223936
0.006835819 0.32584813 -0.13777411 0.05764104 -0.13398872 0.113845855 0.0015853448 0.05719841
-0.38605085 0.016258778 0.02720114 -0.0424802 0.0015071322 -0.007480792 0.028347054 -0.024800226
-0.0328474 -0.04839596 -0.0013993805 0.03806642 0.007141618 -0.029840652 -0.059218585 -0.06410228
-0.032342006 -0.009162615 -0.020451488 0.013312602 -0.11920719 -0.07222312 -0.07401423 0.04893332
-0.0051609506 -0.03426241 -0.03186749 -0.04347182 -0.003505812 -0.02033266 -0.006081471 0.029168067
-0.038471468 0.0042660227 0.04838161 -0.056807242 -0.006676086 0.029800827 -0.012889722 0.095445395
0.119021684 0.035028193 0.013166828 0.010598685 0.056888465 -0.008340876 -0.0072000776 -0.045735564
-0.035923816 0.060803186 -0.028677907 -0.03865219 0.05871247 -0.11312333 0.21236522 -0.014824842
-0.18309294 0.02108035 -0.08196572 -0.04670421 -0.16441806 0.005195739 -0.16877837 -0.0002601971
0.08324174 -0.06762348 -0.011266515 -0.041204367 0.022834666 0.039908294 -0.07380593 0.04276241
0.042690057 0.04028404 -0.08667971 0.014631195 0.051382113 -0.032115918 -0.030681385 0.02000053
0.028079703 0.042106137 -0.093721606 -0.024464056 -0.084771104 -0.036098808 -0.060045052 -0.10770959
-0.16674246 -0.038018905 -0.049246076 -0.07142962 -0.02153231 -0.02700416 -0.1256936 -0.065123305
-0.018898195 -0.09431251 0.043734815 0.026528174 0.04106824 -0.059710212 -0.02392658 -0.011244546
0.022637032 0.0127250645 0.05181185 -0.0071969545 -0.07020771 -0.029727696 0.026186846 0.058192134
0.06914357 0.001005648 0.044592258 -0.0397173 -0.013983193 0.039196126 -0.050730716 -0.054459058
0.16657571 -0.1290139 0.07591188 -0.18200769 -0.12806238 0.089494236 0.115484476 -0.14803815
0.129769 0.008881499 0.018178096 0.019516915 -0.06844714 0.018232498 0.083751455 -0.016201835
-0.08628564 -0.046059713 -0.0432484 -0.0019536815 0.032174397 -0.005859038 0.020930596 -0.026419314
-0.061575223 0.057877503 0.11637698 -0.03370235 -0.01588981 0.046455767 0.04213258 0.10592121
0.007928191 0.00769269 0.0036235028 0.075688794 0.08705797 0.09242173 -0.007970478 -0.035360534
-0.03301276 0.042360697 -0.012966346 -0.05215433 -0.06632332 0.012702919 -0.007597832 0.016413325
0.019444585 0.028590033 -0.02992002 -0.06195672 -0.0431375 0.08865751 0.047461674 -0.01654928
-0.019928394 -0.023131207 -0.03427648 -0.015479309 0.018643396 -0.066309206 0.05861607 0.06409776
-0.14914857 0.062103875 -0.2244458 0.10910703 0.0644352 -0.17930032 -0.007903386 -0.0635533
0.13529195 0.014335306 -0.0009049137 -0.014286625 -0.0016234904 -0.029521871 -0.0009741 0.029471405
-0.030656943 0.00071850786 -0.0114947865 -0.043035407 -0.051977485 0.039506394 -0.0018676546 0.038719546
-0.032487735 0.06965426 0.023947064 0.020015052 -0.067098424 0.014116435 0.02933581 -0.048287325
0.02701007 0.07669071 0.07742512 0.014270652 -0.0398318 -0.16190189 -0.05145201 -0.019104438
00000000: be8c 61bc c7ea b13c ee78 9d3d b36f 43bb
00000010: fea6 293d f8ab 2b3c 54a3 b1bd 1609 f9bc
00000020: 7057 40bd fbd3 8fbc ee1f 4d3c d025 853c
00000030: 6968 19bd 9abc 9bbd 078b 9dbc 97a1 c8bd
00000040: 8fc1 d3bc 5326 38bc 6d35 393c f011 853d
00000050: a14a 70bd e63b b5bd 60ce 9b3e 3ffd 03bd
00000060: 02ff df3b 91d5 a63e a814 0dbe 0319 6c3d
00000070: 5734 09be 0428 e93d 58cb cf3a e148 6a3d
00000080: 75a8 c5be 2131 853c edd4 de3c b8ff 2dbd
00000090: f78a c53a 6e21 f5bb 1538 e83c d829 cbbc
000000a0: ff8a 06bd d83a 46bd 6b6b b7ba 89eb 1b3d
000000b0: 3c04 ea3b 6274 f4bc 308f 72bd 0e48 83bd
000000c0: 0d79 04bd cb1e 16bc e189 a7bc 1a1d 5a3c
000000d0: e622 f4bd b7e9 93bd c694 97bd 4e6e 483d
000000e0: 311d a9bb be56 0cbd 7c87 02bd 820f 32bd
000000f0: c4c1 65bb ae90 a6bc 1447 c7bb dff1 ee3c
00000100: 4294 1dbd fec9 8b3b cc2b 463d b6ae 68bd
00000110: 12c3 dabb dd20 f43c 6a2f 53bc e078 c33d
00000120: a4c1 f33d b979 0f3d aeb9 573c 1ba6 2d3c
00000130: e103 693d 2ba8 08bc a1ee ebbb 3755 3bbd
00000140: da24 13bd c30c 793d eeed eabc c251 1ebd
00000150: 7d7c 703d 34ad e7bd 4576 593e e5e3 72bc
00000160: b77c 3bbe b3b0 ac3c a5dd a7bd ea4c 3fbd
00000170: 355d 28be 0541 aa3b 3dd4 2cbe 106b 88b9
00000180: a57a aa3d 2e7e 8abd 3097 38bc e9c5 28bd
00000190: c40f bb3c e176 233d 9027 97bd a327 2f3d
000001a0: c5db 2e3d e100 253d 2285 b1bd aeb7 6f3c
000001b0: 0d76 523d fb8b 03bd 8757 fbbc 27d8 a33c
000001c0: 6807 e63c 7c77 2c3d 1df1 bfbd d868 c8bc
000001d0: 799c adbd 58dc 13bd cdf1 75bd d896 dcbd
000001e0: 89be 2abe b6b9 1bbd 41b6 49bd b149 92bd
000001f0: 8764 b0bc d437 ddbc d3b5 00be 5e5f 85bd
00000200: 63d0 9abc eb26 c1bd 4723 333d 9d51 d93c
00000210: 2c37 283d b292 74bd ad01 c4bc 0b3b 38bc
00000220: 4c71 b93c ca7c 503c aa38 543d 6ed4 ebbb
00000230: 0fc9 8fbd 7f87 f3bc cc85 d63c e05a 6e3d
00000240: 259b 8d3d f3cf 833a 5fa6 363d 9cae 22bd
00000250: c319 65bc 1e8c 203d 03cb 4fbd 7610 5fbd
00000260: d392 2a3e 381c 04be b077 9b3d 3960 3abe
00000270: c922 03be c148 b73d 2083 ec3d 5097 17be
00000280: 2ae2 043e b583 113c 3bea 943c f0e1 9f3c
00000290: 042e 8cbd 525c 953c e285 ab3d b6b9 84bc
000002a0: 87b6 b0bd 1ca9 3cbd 3c25 31bd 5609 00bb
000002b0: 4dc9 033d 2cfd bfbb a476 ab3c 516d d8bc
000002c0: 4d36 7cbd f610 6d3d 0e57 ee3d 7a0b 0abd
000002d0: 592b 82bc 6748 3e3d 3693 2c3d 38ed d83d
000002e0: 3ee5 013c f612 fc3b 4a78 6d3b ba02 9b3d
000002f0: 734b b23d 9b47 bd3d 9c96 02bc 35d6 10bd
00000300: 6338 07bd 6982 2d3d cc70 54bc c79f 55bd
00000310: 85d4 87bd e71f 503c 3cf7 f8bb 3d75 863c
00000320: 404a 9f3c a535 ea3c d41a f5bc 54c6 7dbd
00000330: f2b0 30bd 1292 b53d 2c67 423d 5b92 87bc
00000340: df40 a3bc a87d bdbc 7f65 0cbd ed9c 7dbc
00000350: 09ba 983c 1fcd 87bd 6717 703d b045 833d
00000360: 67ba 18be a260 7e3d 1fd5 65be 8273 df3d
00000370: 9af6 833d 819a 37be 347d 01bc 3c28 82bd
00000380: f989 0a3e a2de 6a3c bb37 6dba 7312 6abc
00000390: 4ccb d4ba dad7 f1bc bf5a 7fba 046e f13c
000003a0: 4524 fbbc 3f5a 3c3a a154 3cbc e545 30bd
000003b0: 58e6 54bd 75d1 213d 17cc f4ba 6398 1e3d
000003c0: dc11 05bd e5a6 8e3d a22c c43c 9bf6 a33c
000003d0: e66a 89bd 9f48 673c a751 f03c eec8 45bd
000003e0: 3944 dd3c 0510 9d3d 1091 9e3d 74cf 693c
000003f0: ab26 23bd 9cc9 25be 58bf 52bd e980 9cbc

mlp_1/MLP_0_1/hidden_3_1/BiasAdd/ReadVariableOp:0 f4 [64]
-0.008313336 -0.03211246 0.21883348 -0.00783716 0.03283883 -0.06885958 0.12298844 -0.030802852
-0.14997226 -0.08173818 0.06299861 0.012487481 -0.024965031 -0.14253797 -0.027549163 -0.11481603
-0.05600274 -0.027590359 -0.053439748 -0.12545991 0.03085689 0.018224886 -0.16410676 -0.43650296
-0.07762506 0.044304736 0.0025227836 -0.04285913 -0.18483311 -0.356182 0.010590164 0.16790369
-1.5516417 -0.2113631 -0.32393977 0.13603798 0.08201362 0.1111894 0.03537817 -0.041795217
-0.14543732 0.160192 -0.0030157573 -0.018550096 -0.014832993 0.08472173 -0.049997233 -0.15472022
0.16579974 0.010401251 -0.022884255 0.15452436 -0.43673244 -0.3045772 -0.3271172 -0.4178356
-0.03314221 -0.09028411 -0.36831266 -0.28934836 -0.34625787 -0.41475555 -0.04151663 -0.025778372
00000000: a934 08bc 5b88 03bd e215 603e 6e67 00bc
00000010: 0282 063d 4006 8dbd 5de1 fb3d 4356 fcbc
00000020: 5492 19be 5966 a7bd 6a05 813d 4b98 4c3c
00000030: 7783 ccbc 79f5 11be c8ae e1bc ab24 ebbd
00000040: 2163 65bd 2d05 e2bc a3e3 5abd 9078 00be
00000050: 97c7 fc3c 5b4c 953c 9a0b 28be 517d dfbe
00000060: e3f9 9ebd e278 353d 4955 253b 0e8d 2fbd
00000070: e444 3dbe 7d5d b6be 5e82 2d3c f2ee 2b3e
00000080: 329c c6bf 926f 58be 6fdb a5be 8a4d 0b3e
00000090: c2f6 a73d 45b7 e33d b3e8 103d 7631 2bbd
000000a0: 85ed 14be 5f09 243e 03a4 45bb 5ff6 97bc
000000b0: 1506 73bc 9682 ad3d e6c9 4cbd fa6e 1ebe
000000c0: 68c7 293e 026a 2a3c c377 bbbc a23b 1e3e
000000d0: 659b dfbe 8bf1 9bbe e87b a7be 8cee d5be
000000e0: 20c0 07bd e0e6 b8bd 7a93 bcbe 7825 94be
000000f0: b648 b1be d75a d4be 580d 2abd 2a2d d3bc

mlp_1/MLP_0_1/hidden_2_1/Cast/ReadVariableOp:0 f4 [256, 128]
-0.033796124 -0.008466381 0.014437604 -0.06875275 -0.0660996 0.048731558 0.18554407 -0.17963225
-0.07692617 -0.0052659307 -0.14834036 0.032750517 -0.04946473 0.059250586 -0.03920987 -0.27237436
0.055516217 0.16203737 0.044962566 -0.09612141 0.08358991 0.030033845 -0.00025201062 -0.011558525
-0.12992416 -0.026663456 -0.073442705 0.006643152 0.14426534 -0.102336034 0.14074844 -0.09091466
-0.06889028 0.058494423 -0.22385634 -0.12056684 -0.051054288 -0.28678116 -0.034664847 -0.036878902
-0.04744599 0.02824767 -0.27180222 -0.11626756 -0.042209245 0.013328045 0.068804264 0.1084817
0.12444535 -0.14443366 0.05805021 -0.107759796 0.01665854 0.014431578 -0.012838484 0.0081392955
-0.033809472 0.068640135 -0.015394546 -0.08937815 0.082559414 -0.13317563 0.00071866275 -0.2113081
-0.005437441 0.08728547 -0.089797065 0.17469172 -0.09534487 0.084059164 0.07050759 0.091774315
-0.08070042 0.083944745 -0.079989605 0.018161776 0.12777218 0.04330929 -0.01503528 0.057838805
0.06439903 0.013786288 0.01242381 0.032108657 0.10830998 0.13859555 -0.14735739 -0.054835387
0.097934686 -0.18464021 0.0367871 0.017052641 -0.04230888 -0.051553495 0.3056078 -0.1778827
-0.23800953 0.032620423 -0.021216795 0.09416143 -0.24598551 0.040572163 0.06713895 0.037222624
-0.07187761 0.055065896 0.04852785 0.03719571 -0.08376519 -0.059484303 -0.100700505 0.01999482
-0.22567175 -0.21411659 -0.014372617 0.09998504 0.18049328 -0.21716632 -0.07297678 0.0042673443
0.15487696 -0.15970927 0.10189661 -0.18318081 -0.14318427 -0.26571482 0.13779134 -0.025772143
-0.17942977 -0.19661653 0.025725892 0.0037130588 -0.07023411 0.054844275 -0.08309151 -0.13912222
-0.10440782 -0.050958473 -0.03277462 0.059007905 -0.18384029 -0.017993985 0.031833716 -0.37115252
-0.05402675 -0.07888625 0.049758084 0.041188397 -0.004058558 0.05678074 0.005283074 -0.021751286
-0.06755619 -0.010018505 -0.060364738 0.077804916 0.026388066 -0.2640327 -0.020001722 -0.07991018
-0.12417345 -0.12970406 -0.047572296 0.008678152 -0.124092 0.07201969 0.0632574 0.071731225
-0.08516692 0.047907665 -0.21364532 -0.07449341 -0.54662323 -0.37667933 -0.4449234 -0.084065005
-0.19672513 -0.052834872 0.013504295 -0.085214145 -0.045254007 0.1274879 -0.061207402 0.09286257
0.0015972501 0.021794992 -0.09471318 -0.10452487 -0.0015300711 -0.02757873 0.0655278 -0.17968985
0.057625335 -0.13521951 0.051144954 -0.026456458 -0.10853179 0.105330735 -0.20862988 0.13670668
0.03762679 0.12801898 -0.07236058 0.04278667 0.13633326 -0.08266347 -0.012528808 0.11777255
-0.23371969 -0.07864905 -0.1412257 0.040772397 -0.131432 -0.14571647 0.052623395 0.023583293
-0.05807223 -0.084094964 0.15713401 0.13180819 -0.0294587 0.017450625 -0.08276774 0.00056522305
-0.026887525 0.04291377 -0.067945674 0.026139226 -0.31496662 -0.15845588 -0.10046572 -0.07458135
0.024985949 -0.04082227 0.0071735424 0.13371983 -0.045484953 -0.022975994 0.02706226 0.15131345
-0.018818524 -0.029033931 0.028617714 -0.056979004 -0.20142794 -0.16031171 -0.01726805 -0.04838812
-0.19614592 -0.048295226 -0.067403786 0.1177153 -0.16052717 -0.4594451 0.07865755 -0.12385229
00000000: ce6d 0abd 93b6 0abc b38b 6c3c 3ece 8cbd
00000010: 3a5f 87bd be9a 473d 44ff 3d3e 84f1 37be
00000020: 788b 9dbd d48d acbb 89e6 17be 6825 063d
00000030: 879b 4abd beb0 723d 879a 20bd a774 8bbe
00000040: f964 633d 20ed 253e ab2a 383d 4ddb c4bd
00000050: 3031 ab3d 8a09 f63c 4b20 84b9 f85f 3dbc
00000060: d70a 05be 526d dabc 2169 96bd ccae d93b
00000070: 4bba 133e 8e95 d1bd 5c20 103e 7731 babd
00000080: 5916 8dbd d997 6f3d 993a 65be bfeb f6bd
00000090: 4d1e 51bd fbd4 92be bafc 0dbd 550e 17bd
000000a0: ba56 42bd a867 e73c a929 8bbe b01d eebd
000000b0: 9ae3 2cbd df5d 5a3c 40e9 8c3d a72b de3d
000000c0: 34dd fe3d 6be6 13be 0fc6 6d3d 2bb1 dcbd
000000d0: 7e77 883c 6d72 6c3c 8158 52bc ae5a 053c
000000e0: cd7b 0abd 3393 8c3d 6839 7cbc e40b b7bd
000000f0: e914 a93d 315f 08be a464 3c3a 2761 58be
00000100: 902c b2bb b9c2 b23d 86e7 b7bd 63e2 323e
00000110: 2c44 c3bd 3627 ac3d 4966 903d 2cf4 bb3d
00000120: 4346 a5bd 39eb ab3d 97d1 a3bd 01c8 943c
00000130: b6d6 023e 1565 313d 8956 76bc 62e8 6c3d
00000140: a3e3 833d e2df 613c 3c8d 4b3c 5e84 033d
00000150: 9fd1 dd3d feeb 0d3e dbe4 16be 129b 60bd
00000160: fb91 c83d 5312 3dbe 12ae 163d fbb1 8b3c
00000170: 134c 2dbd c229 53bd a078 9c3e e226 36be
00000180: c5b8 73be fe9c 053d d8ce adbc b5d7 c03d
00000190: a0e3 7bbe ff2e 263d 2580 893d c076 183d
000001a0: 9234 93bd c78c 613d 24c5 463d 875a 183d
000001b0: 158d abbd d0a5 73bd 113c cebd 2dcc a33c
000001c0: 7f16 67be 6141 5bbe 207b 6bbc f5c4 cc3d
000001d0: 3bd3 383e d960 5ebe da74 95bd 14d5 8b3b
000001e0: 1198 1e3e d48a 23be 2baf d03d c093 3bbe
000001f0: e69e 12be c60b 88be 2c19 0d3e 1a20 d3bc
00000200: 70bc 37be d855 49be 1bbf d23c ca56 733b
00000210: e7d6 8fbd 64a4 603d e22b aabd 0e76 0ebe
00000220: c4d3 d5bd d5b9 50bd ae3e 06bd 46b2 713d
00000230: a140 3cbe 1f68 93bc 1264 023d b407 bebe
00000240: 274b 5dbd 1d8f a1bd 22cf 4b3d 2ab5 283d
00000250: a7fd 84bb ec92 683d a31d ad3b c12f b2bc
00000260: e65a 8abd a824 24bc 0441 77bd 2f58 9f3d
00000270: c92b d83c 4b2f 87be a7da a3bc f3a7 a3bd
00000280: a64e febd 24d1 04be 2bdb 42bd cf2e 0e3c
00000290: f223 febd 0f7f 933d 198d 813d d2e7 923d
000002a0: ff6b aebd d43a 443d d7c5 5abe 0090 98bd
000002b0: 80ef 0bbf 1ddc c0be 00cd e3be 462a acbd
000002c0: 5072 49be 6169 58bd 1e41 5d3c c184 aebd
000002d0: 445c 39bd 308c 023e 9db4 7abd bb2e be3d
000002e0: d25a d13a 698b b23c fcf8 c1bd 2311 d6bd
000002f0: ab8c c8ba caec e1bc 7033 863d 9e00 38be
00000300: 8b08 6c3d fc76 0abe 5f7d 513d 37bb d8bc
00000310: ea45 debd a4b7 d73d 12a3 55be d6fc 0b3e
00000320: 8d1e 1a3d 6817 033e c931 94bd 1341 2f3d
00000330: f29a 0b3e 774b a9bd a145 4dbc bc32 f13d
00000340: 3754 6fbe c112 a1bd 789d 10be f500 273d
00000350: 1c96 06be b336 15be a18b 573d c031 c13c
00000360: 26dd 6dbd fb39 acbd bde7 203e baf8 063e
00000370: 5f53 f1bc 9df4 8e3c 2282 a9bd 7a2b 143a
00000380: 3a43 dcbc 59c6 2f3d 1a27 8bbd ee21 d63c
00000390: 4e43 a1be 4242 22be f9c0 cdbd 1bbe 98bd
000003a0: 55af cc3c 4135 27bd 0910 eb3b daed 083e
000003b0: 6e4e 3abd 2738 bcbc acb1 dd3c eaf1 1a3e
000003c0: 4e29 9abc 91d8 edbc b26f ea3c d162 69bd
000003d0: 2043 4ebe c128 24be ba75 8dbc 9f32 46bd
000003e0: 7ada 48be 37d1 45bd ff0a 8abd b814 f13d
000003f0: 3c61 24be 633c ebbe 3617 a13d 45a6 fdbd

mlp_1/MLP_0_1/hidden_2_1/BiasAdd/ReadVariableOp:0 f4 [128]
0.15362771 -0.080418326 -0.14818084 -0.037252214 -0.45991734 -0.2246655 -0.06550454 -0.08920617
-0.15017104 -0.2894683 -0.2928305 -0.1989006 -0.12736274 -0.10414367 -0.253222 -0.08365923
-0.07069807 -0.06674232 -0.0711291 -0.21747716 -0.01899801 0.015885066 -0.17272572 -0.07139769
-0.08480477 -0.12666343 -0.12136418 -0.31036714 -0.053442445 -0.09113724 -0.1958368 -0.2018345
0.12925957 0.2851917 0.17116088 -0.5318445 -0.06649982 -0.29030034 -0.016081873 -0.1577618
0.020496383 -0.043652974 0.0424009 -0.25479716 0.071409754 -0.34004748 -0.061400764 0.052397087
-0.17565425 0.03376957 -0.33138588 -0.21945529 -0.22955987 -0.10851837 -0.18903811 -0.3314175
-0.12698428 -0.3389873 -0.016474137 -0.10584909 -0.26925617 0.050197307 -0.19887763 -0.25828022
-0.32899746 -0.32583618 -0.11170314 -0.23340385 -0.15479618 0.045299094 -0.6681768 -0.13777289
-0.16429333 -0.14733769 -0.047006443 -0.34591 -0.16424572 -0.15665746 -0.0063592396 -0.19930513
0.091050535 0.05675959 -0.22300324 -0.23437855 -0.15280965 -0.05603554 -0.11797159 -0.17709783
-0.2802477 -0.0764131 -0.05084177 -0.008829707 -0.03940431 -0.0602901 -0.10744788 -0.122553945
0.07562408 -0.04185549 -0.3182104 -0.066530354 0.047142647 0.33526516 -0.10002168 -0.36709487
-0.2222034 -0.35046202 -0.22665633 0.408124 -0.08680488 -0.14709747 -0.09951516 -0.19790177
0.011942942 -0.33554032 -0.62968814 -0.2794528 -0.22903663 0.018188596 -0.13427615 -0.20039085
-0.1522479 -0.17831363 -0.04127323 -0.17770888 -0.4639722 -0.05524054 -0.01715689 -0.018204845
00000000: 9550 1d3e 5db2 a4bd b8bc 17be c795 18bd
00000010: 497a ebbe b60e 66be 3f27 86bd b9b1 b6bd
00000020: 70c6 19be 3035 94be e1ed 95be 99ac 4bbe
00000030: 616b 02be 4749 d5bd 50a6 81be 8855 abbd
00000040: 26ca 90bd 33b0 88bd 22ac 91bd 55b2 5ebe
00000050: b7a1 9bbc 6621 823c 03df 30be f438 92bd
00000060: 20ae adbd 0fb4 01be c98d f8bd 71e8 9ebe
00000070: 77e6 5abd 29a6 babd 7189 48be b4ad 4ebe
00000080: 9f5c 043e a604 923e cc44 2f3e f626 08bf
00000090: 0f31 88bd 3fa2 94be 22be 83bc 4f8c 21be
000000a0: 08e8 a73c 76cd 32bd 91ac 2d3d c674 82be
000000b0: 473f 923d b41a aebe 5e7f 7bbd 549e 563d
000000c0: b5de 33be f651 0a3d 69ab a9be e3b8 60be
000000d0: be11 6bbe e13e debd 3593 41be 8eaf a9be
000000e0: 2b08 02be be8f adbe c5f4 86bc 68c7 d8bd
000000f0: f2db 89be b19b 4d3d 94a6 4bbe 4e3d 84be
00000100: 5b72 a8be 00d4 a6be 9ec4 e4bd 6b01 6fbe
00000110: e482 1ebe 8b8b 393d a20d 2bbf 5614 0dbe
00000120: 833c 28be b1df 16be d489 40bd 1e1b b1be
00000130: 0830 28be d06a 20be 2b61 d0bb a516 4cbe
00000140: b478 ba3d be7c 683d f65a 64be ee00 70be
00000150: 227a 1cbe 8685 65bd 179b f1bd 2259 35be
00000160: a07c 8fbe 797e 9cbd 763f 50bd 7aaa 10bc
00000170: 6a66 21bd c0f2 76bd a20d dcbd 90fd fabd
00000180: cce0 9a3d aa70 2bbd 79ec a2be 1141 88bd
00000190: a618 413d e0a7 ab3e 2bd8 ccbd dcf3 bbbe
000001a0: 4a89 63be c26f b3be 9918 68be a1f5 d03e
000001b0: c2c6 b1bd b8a0 16be 9bce cbbd c3a6 4abe
000001c0: 54ac 433c f1cb abbe 3e33 21bf 7014 8fbe
000001d0: 9488 6abe 4000 953c b07f 09be 4233 4dbe
000001e0: e0e6 1bbe d997 36be 1e0e 29bd 51f9 35be
000001f0: c48d edbe e843 62bd 9b8c 8cbc 5422 95bc

mlp_1/MLP_0_1/hidden_1_1/Cast/ReadVariableOp:0 f4 [512, 256]
-0.17439473 -0.46368387 -0.2377475 -0.13372633 -0.12553805 0.024528105 -0.1200404 -0.24524854
0.12598726 -0.34536788 -0.102795914 0.028993577 -0.05505978 -0.07163951 -0.049430396 0.01784418
0.033564344 0.09577273 -0.111551516 -0.0886083 -0.88195777 0.026072567 0.05616884 -0.022778483
-0.056249157 -0.11911147 -0.14240764 -0.04258673 -0.08551679 -0.011250244 -0.1927078 -0.029253023
0.011393444 -0.5928659 0.020596346 0.119187616 -0.4196711 -0.071387574 0.01751152 -0.28727928
-0.10131711 -0.1899169 -0.3043944 -0.13808002 0.10026055 -0.13405745 -0.096021995 0.09111701
0.03763012 -0.46999148 0.14046983 -0.12438132 -0.19563733 -0.09125514 0.08885912 -0.052610595
-0.252405 -0.086484306 -0.0047519426 -0.26622972 -0.13376297 -0.4662361 -0.18763685 -0.19418901
-0.11791971 -0.22930025 -0.16836412 -0.088480726 -0.35676226 0.046308424 -0.29477462 0.23053701
-0.0287798 -0.49307865 -0.23923983 0.04768117 0.04329516 -0.047273695 -0.08373712 -0.2627808
-0.43092224 0.0009704241 -0.044735275 -0.077569254 -0.28828618 -0.035065472 -0.12925087 -0.0065032737
-0.17760263 0.05386683 -0.19985594 0.082917154 0.04615217 0.020188423 -0.17134158 -0.033886157
0.044716258 -0.062704824 -0.033479862 -0.28639385 0.054588154 -0.43296522 -0.21330525 -0.0024699015
-0.08614531 -0.13804772 -0.16145918 -0.08791009 -0.033806384 -0.09331845 -0.01802091 0.07234568
-0.011105264 0.036695108 0.26875347 0.010286896 0.04917545 -0.075995386 -0.0027686667 -0.14533715
0.12940837 -0.046739716 0.07923025 -0.014982646 0.11594402 -0.18044114 0.03613292 -0.019403454
-0.11395969 0.13885535 -0.29831725 -0.37695077 0.016066814 0.03766737 0.045966934 -0.39686108
-0.11881492 -0.06241721 -0.38468733 -0.087067634 0.12680201 -0.104617275 -0.08356703 -0.027642982
-0.3660412 -0.37694827 -0.025376825 -0.2824282 0.16705385 -0.118246935 -0.051857885 -0.19902197
0.06840517 -0.030638322 -0.15226705 -0.17300367 -0.15111656 0.06481549 -0.5270772 -0.01209245
-0.056535408 0.06740653 -0.19010018 -0.106902346 0.10111168 -0.06562446 -0.04938037 -0.015701838
-0.00062736304 0.039458875 0.034585506 -0.014511776 -0.10953957 0.059854988 0.05011781 -0.0116661405
-0.03391393 0.0949632 0.030645855 -0.09947069 -0.027997596 -0.23175238 -0.07151035 0.12722307
0.08413088 -0.17395443 0.028266715 0.061456244 -0.058484033 -0.02029815 0.08988082 0.30610412
-0.3167545 0.029967126 0.0032756682 0.010048705 -0.049299967 -0.20613839 -0.11574578 -0.14828135
0.117701575 -0.030374216 -0.14876424 -0.17260435 -0.16051719 -0.18459676 0.08345075 -3.453387e-05
-0.15344423 -0.042099275 0.045473967 -0.08566021 -0.14291762 -0.083498664 -0.5226594 -0.109967954
0.018550871 -0.07237903 0.01706196 -0.31073043 -0.14025748 -0.2231832 -0.1278724 0.036599785
-0.10946449 0.082315154 0.15412907 0.026916241 0.107023664 -0.07085574 -0.018221859 0.10883372
-0.15329486 -0.18596566 -0.0026422916 0.08731927 0.107544474 -0.12912366 -0.097459294 -0.0644272
-0.2214545 -0.037883785 -0.13238747 -0.1813731 0.03619951 -0.1525455 0.070374034 -0.03797381
-0.008922102 -0.09420911 -0.3628851 0.07059906 -0.051910505 -0.12322326 0.006028079 -0.07277065
00000000: 8894 32be f967 edbe 1574 73be 8eef 08be
00000010: 0c8d 00be 2aef c83c bed7 f5bd 6f22 7bbe
00000020: ce02 013e 0fd4 b0be aa86 d2bd f083 ed3c
00000030: 5d86 61bd bcb7 92bd 8777 4abd f52d 923c
00000040: c47a 093d 7e24 c43d 1f75 e4bd 4578 b5bd
00000050: fcc7 61bf 2396 d53c 4c11 663d f199 babc
00000060: 8465 66bd b7f0 f3bd 4fd3 11be 6c6f 2ebd
00000070: 6d23 afbd f252 38bc 3255 45be 09a4 efbc
00000080: 91ab 3a3c 0fc6 17bf abb9 a83c a318 f43d
00000090: 21df d6be a633 92bd 5274 8f3c 4516 93be
000000a0: 587f cfbd 9379 42be 95d9 9bbe d964 0dbe
000000b0: 6755 cd3d 5b46 09be 2ea7 c4bd 8e9b ba3d
000000c0: 0a22 1a3d b9a2 f0be 53d7 0f3e a2bb febd
000000d0: 2755 48be fae3 babd c5fb b53d 357e 57bd
000000e0: 3a3b 81be af1e b1bd 2fb6 9bbb 434f 88be
000000f0: 29f9 08be 80b6 eebe e023 40be 7cd9 46be
00000100: e47f f1bd afcd 6abe a567 2cbe 6235 b5bd
00000110: 8ba9 b6be e7ad 3d3d b3ec 96be e511 6c3e
00000120: 9dc3 ebbc ce74 fcbe 49fb 74be 554d 433d
00000130: 4456 313d 10a2 41bd 5e7e abbd 348b 86be
00000140: d7a1 dcbe 0f64 7e3a 563c 37bd a1dc 9ebd
00000150: 3f9a 93be d0a0 0fbd 575a 04be 6a19 d5bb
00000160: 77dd 35be 77a3 5c3d 09a7 4cbe 78d0 a93d
00000170: 0f0a 3d3d 3162 a53c 2b74 2fbe 36cc 0abd
00000180: 6528 373d 636b 80bd 2e22 09bd 37a2 92be
00000190: d497 5f3d 9ead ddbe b16c 5abe 12de 21bb
000001a0: f46c b0bd 625c 0dbe 8e55 25be 350a b4bd
000001b0: 9078 0abd be1d bfbd 96a0 93bc f929 943d
000001c0: daf2 35bc 9c4d 163d 0e9a 893e 5e8a 283c
000001d0: 326c 493d 78a3 9bbd 8572 35bb 43d3 14be
000001e0: a183 043e 2572 3fbd 7843 a23d c679 75bc
000001f0: 0f74 ed3d 90c5 38be 1d00 143d fef3 9ebc
00000200: b363 e9bd 1930 0e3e 0abd 98be b1ff c0be
00000210: 8d9e 833c 1a49 1a3d d347 3c3d 6031 cbbe
00000220: 3d55 f3bd 30a9 7fbd bdf5 c4be 8450 b2bd
00000230: 63d8 013e 9541 d6bd 3125 abbd 8973 e2bc
00000240: c169 bbbe 5dff c0be 0fe3 cfbc 6e9a 90be
00000250: 2a10 2b3e 732b f2bd ef68 54bd 6acc 4bbe
00000260: 0318 8c3d 38fd fabc e5eb 1bbe e027 31be
00000270: 4dbe 1abe fcbd 843d 88ee 06bf 691f 46bc
00000280: ac91 67bd 6f0c 8a3d 9fa9 42be 9eef dabd
00000290: a413 cf3d 1e66 86bd 1243 4abd 24a1 80bc
000002a0: 9f75 24ba a19f 213d 88a9 0d3d cdc2 6dbc
000002b0: 4856 e0bd 812a 753d 5548 4d3d 5723 3fbc
000002c0: 55e9 0abd 117c c23d 040d fb3c 4ab7 cbbd
000002d0: 375b e5bc 7f50 6dbe 0574 92bd c446 023e
000002e0: d04c ac3d 1c21 32be 998f e73c 8bb9 7b3d
000002f0: f48c 6fbd 4e48 a6bc 6f13 b83d aeb9 9c3e
00000300: a52d a2be 9e7d f53c 98ac 563b 53a3 243c
00000310: c3ee 49bd f115 53be 200c edbd 11d7 17be
00000320: 860d f13d 59d3 f8bc a755 18be 32bf 30be
00000330: 9e5e 24be ef06 3dbe 3ae8 aa3d 76d8 10b8
00000340: 7c20 1dbe 4a70 2cbd e942 3a3d 9f6e afbd
00000350: ff58 12be 5901 abbd 02cd 05bf e136 e1bd
00000360: fff7 973c 753b 94bd 86c5 8b3c 0f18 9fbe
00000370: a89f 0fbe 238a 64be fcf0 02be a8e9 153d
00000380: eb2e e0bd d994 a83d 03d4 1d3e 737f dc3c
00000390: 392f db3d d01c 91bd 0246 95bc 37e4 de3d
000003a0: 54f9 1cbe c86d 3ebe 4c2a 2dbb 72d4 b23d
000003b0: 4740 dc3d fe38 04be bd98 c7bd 68f2 83bd
000003c0: f8c4 62be 072c 1bbd 9590 07be dfb9 39be
000003d0: f045 143d e334 1cbe 4320 903d 6d8a 1bbd
000003e0: 022e 12bc b5f0 c0bd 13cc b9be 3d96 903d
000003f0: 1ca0 54bd 7a5c fcbd 3187 c53b c708 95bd

mlp_1/MLP_0_1/hidden_1_1/BiasAdd/ReadVariableOp:0 f4 [256]
-0.27263692 -0.10958448 -0.29367724 0.16215275 -0.14714676 -0.3855427 -0.18671879 -0.31594852
-0.13582031 -0.2742913 -0.15078977 -0.1688651 -0.29224455 -0.34921974 -0.22190766 -0.17919844
-0.18877853 -0.008811634 -0.38055688 -0.35168937 -0.06557033 -0.20624347 -0.2216958 -0.29506147
-0.08871195 -0.35183838 -0.42023593 -0.5137086 -0.009016203 -0.110898085 -0.44414797 -0.3733075
-0.32971272 0.10535354 -0.48700914 -0.23463242 -0.31092805 -0.19628376 0.11313138 -0.10665008
-0.31334448 -0.48463643 -0.35841304 -0.40919685 -0.033793822 -0.45843259 -0.2812289 -0.37735447
-0.24207313 -0.1482628 0.32653624 -0.24959224 -0.26048782 -0.30864614 -0.40748617 -0.29866812
-0.08797425 -0.37511605 -0.35659397 0.05051075 -0.4116966 -0.35036695 -0.41988805 -0.44647905
-0.54691774 -0.14866394 -0.35946262 -0.31074417 -0.13001724 -0.27223593 -0.5119346 -0.34256145
-0.16456074 -0.3870361 -0.44896403 -0.38358346 -0.048813593 -0.13456719 -0.25981343 -0.3724521
-0.28504598 -0.15844098 -0.30908582 -0.26698548 -0.41538796 -0.4015081 -0.060102284 -0.17243698
-0.15021193 -0.29815486 -0.24565408 -0.06307295 -0.5032746 -0.44926187 -0.21426466 -0.26604912
-0.25171143 -0.36698702 -0.40565044 -0.29474977 -0.3807709 -0.44528913 -0.38544518 -0.026647799
-0.096793525 -0.800821 -0.3007215 -0.3388913 -0.11920138 -0.12988001 -0.3126881 -0.03231626
-0.27196017 -0.09346977 -0.23500946 -0.27528197 -0.21495506 -0.12956925 -0.03574029 -0.28591493
-0.21437562 -0.20320708 -0.41129628 -0.14883299 -0.35271657 -0.031006405 -0.20761628 -0.5572924
-0.3413872 -0.151289 -0.1466591 -0.413315 0.14717409 0.016935349 -0.16520481 -0.19203454
-0.1744596 -0.30248895 -0.38470295 -0.19145639 -0.17996874 -0.15470718 -0.36877808 -0.3761428
-0.07599454 -0.078471504 -0.21359217 -0.19748254 -0.35067824 -0.3819892 -0.42816308 -0.5063271
0.12694658 -0.30407915 -0.3534256 -0.09667162 -0.50300264 -0.32791305 -0.4092889 -0.14938533
-0.2642694 -0.22167516 -0.31055745 -0.50130266 -0.08476507 -0.33824074 0.08893803 -0.20650853
-0.309081 -0.41577128 -0.05291239 -0.14047496 -0.35063276 -0.30468372 -0.19652016 -0.12234047
-0.42836547 -0.27660686 -0.35675776 -0.3774408 -0.23495702 -0.9001636 -0.3459645 -0.38805467
-0.16996363 -0.30193204 -0.13770613 -0.23890251 -0.4518743 -0.2346585 -0.38377032 -0.23802066
-0.36921006 -0.24211833 -0.104079865 -0.38219517 -0.22093715 -0.3719722 -0.23949824 -0.08999403
-0.33453938 -0.23278965 -0.15991895 -0.41198328 -0.29331267 -0.43550608 -0.20348608 -0.23994966
-0.056042865 0.013792593 -0.018483689 -0.03688949 -0.4966835 -0.5115439 -0.33760738 -0.4123847
-0.14988303 -0.2296417 -0.40750474 -0.1078303 -0.4208081 -0.29217395 -0.17970052 -0.36333758
-0.3753134 -0.3853817 -0.1870355 -0.4182814 -0.42707768 -0.19917707 -0.3132735 -0.17154899
-0.14035052 -0.28100133 -0.18560179 -0.3731158 -0.31562883 -0.3118621 -0.3654651 -0.21204673
-0.4622625 -0.16971919 -0.30209282 -0.27222556 -0.0844789 -0.14955185 -0.2724801 -0.1683981
-0.12819543 -0.40151763 -0.14448616 -0.23018372 -0.4570668 -0.22136015 0.004660879 -0.02923363
00000000: 1197 8bbe d46d e0bd dd5c 96be 5f0b 263e
00000010: a4ad 16be da65 c5be 3633 3fbe 01c4 a1be
00000020: 7b14 0bbe e96f 8cbe a268 1abe f9ea 2cbe
00000030: 14a1 95be eecc b2be c33b 63be cc7f 37be
00000040: 294f 41be ac5e 10bc 5ad8 c2be a110 b4be
00000050: bd49 86bd 7d31 53be 3904 63be 4c12 97be
00000060: 9cae b5bd 2924 b4be 2a29 d7be 6882 03bf
00000070: b2b8 13bc 891e e3bd 5d67 e3be 2922 bfbe
00000080: 1bd0 a8be 99c3 d73d 4359 f9be 7b43 70be
00000090: f631 9fbe 9cfe 48be 6db1 e73d 5b6b dabd
000000a0: b06e a0be 4422 f8be ea81 b7be 4082 d1be
000000b0: 646b 0abd adb7 eabe 3cfd 8fbe 9b34 c1be
000000c0: 05e2 77be 34d2 17be c22f a73e 1c95 7fbe
000000d0: a95e 85be de06 9ebe 07a2 d0be 07eb 98be
000000e0: d82b b4bd 360f c0be 7c93 b6be 5ce4 4e3d
000000f0: e6c9 d2be 4c63 b3be 91fb d6be e798 e4be
00000100: cd02 0cbf 5c3b 18be 7c0b b8be dc19 9fbe
00000110: 3d23 05be 8262 8bbe 250e 03bf 3764 afbe
00000120: 9c82 28be 9829 c6be 9dde e5be 0d65 c4be
00000130: c3f0 47bd fbcb 09be 4406 85be 0bb2 bebe
00000140: 8cf1 91be 5a3e 22be 7f40 9ebe 52b2 88be
00000150: bbad d4be 7892 cdbe d02d 76bd 5293 30be
00000160: 28d1 19be c1a7 98be be8c 7bbe 642c 81bd
00000170: 9bd6 00bf a705 e6be 3268 5bbe 9737 88be
00000180: 52e0 80be b9e5 bbbe 6ab1 cfbe 71e9 96be
00000190: 67f4 c2be f0fc e3be 1259 c5be 7c4c dabc
000001a0: af3b c6bd 9b02 4dbf 2bf8 99be 2983 adbe
000001b0: da1f f4bd 44ff 04be a818 a0be 0e5e 04bd
000001c0: 5d3e 8bbe 146d bfbd 52a6 70be c2f1 8cbe
000001d0: 2e1d 5cbe cdad 04be 6964 12bd 7163 92be
000001e0: 4885 5bbe 8415 50be 6d95 d2be ad67 18be
000001f0: 4497 b4be 2501 febc 5d99 54be b7aa 0ebf
00000200: 4eca aebe 81eb 1abe ce2d 16be 069e d3be
00000210: ceb4 163e 00bc 8a3c 732b 29be b4a4 44be
00000220: 8aa5 32be d5df 9abe c9f7 c4be 250d 44be
00000230: ba49 38be 8f6b 1ebe 7bd0 bcbe ca95 c0be
00000240: 06a3 9bbd abb5 a0bd e8b7 5abe dd38 4abe
00000250: 198c b3be 1794 c3be 3138 dbbe a79e 01bf
00000260: 49fe 013e 43b0 9bbe 33f4 b4be c5fb c5bd
00000270: c8c4 00bf 38e4 a7be 518e d1be 78f8 18be
00000280: 524e 87be d0fe 62be 6301 9fbe 5f55 00bf
00000290: 4f99 adbd e42d adbe 2425 b63d f976 53be
000002a0: dd3f 9ebe f9df d4be aaba 58bd abd8 0fbe
000002b0: 2386 b3be 81ff 9bbe 953c 49be a48d fabd
000002c0: b852 dbbe 6a9f 8dbe f4a8 b6be ec3f c1be
000002d0: 9398 70be 1f71 66bf 4222 b1be 1aaf c6be
000002e0: f20a 2ebe d696 9abe d602 0dbe dca2 74be
000002f0: 115c e7be 514a 70be 8b7d c4be b0bb 73be
00000300: 1a09 bdbe deed 77be d327 d5bd 16af c3be
00000310: 593d 62be 2473 bebe 073f 75be ca4e b8bd
00000320: bf48 abbe 6960 6ebe cbc1 23be 79ef d2be
00000330: 142d 96be a7fa debe a85e 50be 5db5 75be
00000340: 348d 65bd 54fa 613c 1b6b 97bc 6f19 17bd
00000350: 4d4d febe 8bf4 02bf e0da acbe 1624 d3be
00000360: f07a 19be 3227 6bbe 76a4 d0be 22d6 dcbd
00000370: 2974 d7be d397 95be 6a03 38be 6207 babe
00000380: 1429 c0be c050 c5be 3c86 3fbe fb28 d6be
00000390: eda9 dabe 13f5 4bbe 6265 a0be 8aaa 2fbe
000003a0: 0cb8 0fbe 68df 8fbe 650e 3ebe 0909 bfbe
000003b0: 1a9a a1be 64ac 9fbe 3e1e bbbe c722 59be
000003c0: acad ecbe deca 2dbe e9ab 9abe 2661 8bbe
000003d0: 4603 adbd 1f24 19be 8382 8bbe 8d70 2cbe
000003e0: aa45 03be b893 cdbe 2ef4 13be 48b5 6bbe
000003f0: a904 eabe 3cac 62be 49ba 983b 5e7b efbc

mlp_1/MLP_0_1/hidden_0_1/Cast/ReadVariableOp:0 f4 [112, 512]
-0.99673885 -0.10724677 -1.2816339 0.048137113 -0.37529916 0.37393638 0.048226643 -0.056837607
0.021286486 -0.01730507 -0.16851036 -0.43733197 0.14674123 -0.23230061 0.42203328 -0.27289784
0.073737495 -0.07744297 0.025702205 0.4448285 0.3240307 -1.0463783 0.5541366 -0.13244183
-0.20450479 0.23045155 0.39736205 -0.13317071 -0.83846873 -0.2672871 0.17329709 0.90019053
0.326853 -0.20200197 -0.15443845 0.78694695 -0.5947379 -0.4667699 0.00821536 -0.1094653
0.051262066 0.45183143 -0.5872154 -0.023151996 -1.1983584 -0.2360254 -0.49866685 -0.085357316
0.59266895 -0.22851849 -0.124638274 0.4049876 -0.022882557 -0.109331615 0.28931937 -0.42471477
-0.096581236 -0.14909491 -0.4167672 0.06953781 0.3473289 0.166778 0.09242608 -0.09336835
-0.32488334 -0.008837456 0.33050233 -0.15350689 0.108368464 -0.5728373 0.092603385 0.33767456
-0.14862156 -0.22640005 0.27699772 -0.3115619 1.1866516 -0.024846658 -0.3174365 0.25122154
0.38757864 -0.16412947 -1.0596503 0.5883992 -1.0932654 0.617381 0.2049072 0.02275599
0.13913924 0.9152785 -0.26813683 -0.24527398 -0.046947166 -0.17871323 -0.65613467 -0.13099453
-0.34598753 0.41219643 0.08327477 0.62908626 0.22065316 0.15084183 -0.6790967 -0.23860593
-0.07644967 -0.26045147 -0.46513772 0.52007437 -0.0008050276 0.4503982 0.17337435 0.1601774
-0.1864135 -0.34720942 0.010861589 0.21491674 -0.432977 -0.13725172 0.03676373 -1.4953533
0.673955 0.08583836 -0.025301874 0.25153542 0.06092315 0.6504747 -0.14995669 0.10236773
-0.21344315 0.39765066 -0.29216686 0.06726057 -0.34445328 -0.094822966 -0.19325922 -0.034215804
0.27384263 0.3198538 -0.136871 0.24439172 0.5094689 0.22890936 0.3792052 0.25194228
0.032472726 -0.48090878 0.3613599 0.273225 0.7462555 -0.16376005 -0.34839228 -0.025930725
-0.119084254 0.6408259 1.2481614 -0.3671942 -0.3373045 1.3943243 -0.13222873 -0.46145374
-0.41229418 0.2773079 0.0127264075 -0.12500034 0.18330057 0.11761304 -0.045967612 0.46846792
-0.18658152 0.12066358 0.46752235 -0.06979114 0.027462922 0.15066011 -0.11156217 0.2654496
-0.15270792 -0.094509885 0.78688765 -0.38254368 0.73100454 -0.14136449 -0.018197592 -0.713742
-0.14549933 -0.30170402 0.5602768 0.2600522 0.26733768 0.31092522 -0.036813036 0.14120963
-0.3992266 -0.27979854 -0.012377828 -0.16356292 0.18531804 -0.6439766 -0.029447604 -0.37050727
-0.2578748 -0.4966412 0.54294944 -0.25084877 -0.22869259 -0.2599451 -0.57591283 0.9828475
-1.0253519 -0.106830865 0.02587273 -0.3381861 -0.31736717 -0.27399617 -0.20092432 0.48337626
-0.72611004 -0.07009073 -0.450973 0.46607554 0.46679854 0.05913692 0.031281386 0.9067144
0.8533122 0.08449858 -0.052664604 -0.28808057 0.29301447 0.3742534 -0.20183396 -0.8545997
0.3035451 0.23215169 -0.18252884 -0.12866598 0.30305895 0.8739857 0.28590384 0.9855023
-0.21620232 -0.49145746 -0.23353156 0.02933365 0.62311304 -0.17278059 -0.64506716 -0.22850187
0.11261618 0.088263996 -0.18438976 -0.061308578 0.4886506 0.34030595 -0.009351934 -0.50584435
00000000: 472a 7fbf 32a4 dbbd 940c a4bf 6c2b 453d
00000010: 3627 c0be 9774 bf3e 4d89 453d 8dce 68bd
00000020: ff60 ae3c 5dc3 8dbc fb8d 2cbe fae9 dfbe
00000030: 5543 163e 36e0 6dbe bf14 d83e 44b9 8bbe
00000040: af03 973d 6b9a 9ebd 6e8d d23c 90c0 e33e
00000050: 5ae7 a53e b9ef 85bf e5db 0d3f d59e 07be
00000060: b469 51be 7efb 6b3e 0a73 cb3e e75d 08be
00000070: e3a5 56bf dbd9 88be cb74 313e e372 663f
00000080: 4759 a73e 9bd9 4ebe 1d25 1ebe 5b75 493f
00000090: be40 18bf 77fc eebe b899 063c 582f e0bd
000000a0: 2cf8 513d 7356 e73e c053 16bf 41a9 bdbc
000000b0: cf63 99bf a4b0 71be 4351 ffbe d1cf aebd
000000c0: 27b9 173f c000 6abe 5a42 ffbd 895a cf3e
000000d0: 3374 bbbc 41e9 dfbd ab21 943e 3774 d9be
000000e0: 62cc c5bd 56ac 18be 8362 d5be d769 8e3d
000000f0: 18d5 b13e dac7 2a3e e249 bd3d e837 bfbd
00000100: 1c57 a6be faca 10bc 9a37 a93e e930 1dbe
00000110: 49f0 dd3d 77a5 12bf d8a6 bd3d aee3 ac3e
00000120: 4030 18be 6ad5 67be a5d2 8d3e 0b85 9fbe
00000130: 33e4 973f 388b cbbc 0987 a2be 1ca0 803e
00000140: b570 c63e 8e11 28be 9fa2 87bf 54a1 163f
00000150: 1ff0 8bbf ae0c 1e3f 31d3 513e c56a ba3c
00000160: 847a 0e3e b14f 6a3f 3b49 89be 1a29 7bbe
00000170: ac4b 40bd 9a00 37be 71f8 27bf 6e23 06be
00000180: 4725 b1be 690b d33e f68b aa3d cc0b 213f
00000190: e7f2 613e 4876 1a3e 48d9 2dbf 1d55 74be
000001a0: a591 9cbd e559 85be 8826 eebe 9823 053f
000001b0: 7d08 53ba 989a e63e 0c89 313e 8b05 243e
000001c0: 2ee3 3ebe 6fc5 b1be cef4 313c 2213 5c3e
000001d0: 29af ddbe b78b 0cbe 9195 163d bd67 bfbf
000001e0: 5188 2c3f 06cc af3d e045 cfbc 40c9 803e
000001f0: 8e8a 793d 8385 263f 3f8e 19be 2ca6 d13d
00000200: d790 5abe de98 cb3e e596 95be e9bf 893d
00000210: 2e5c b0be 8b32 c2bd bfe5 45be df25 0cbd
00000220: 1a35 8c3e e1c3 a33e e927 0cbe d341 7a3e
00000230: 8e6c 023f 3767 6a3e 2f27 c23e 94fe 803e
00000240: 1f02 053d ad39 f6be 2a04 b93e 26e4 8b3e
00000250: 9a0a 3f3f b7b0 27be 7960 b2be ac6c d4bc
00000260: 72e2 f3bd 2b0d 243f c1c3 9f3f e100 bcbe
00000270: 2db3 acbe 3879 b23f f866 07be aa43 ecbe
00000280: 3918 d3be 4dfb 8d3e 6c82 503c 1700 00be
00000290: 25b3 3b3e 1bdf f03d 8948 3cbd 07db ef3e
000002a0: 3a0f 3fbe 781e f73d 175f ef3e a8ee 8ebd
000002b0: ecf9 e03c a546 1a3e b57a e4bd 03e9 873e
000002c0: 775f 1cbe 668e c1bd 7871 493f c4dc c3be
000002d0: 1d23 3b3f dac1 10be 1e13 95bc ccb7 36bf
000002e0: c7fd 14be f378 9abe 4d6e 0f3f 9025 853e
000002f0: 7ce0 883e 9731 9f3e 44c9 16bd 4299 103e
00000300: 6e67 ccbe c141 8fbe 60cc 4abc 0a7d 27be
00000310: 03c4 3d3e a7db 24bf 1a3c f1bc 21b3 bdbe
00000320: 2a08 84be c147 febe bcfe 0a3f 406f 80be
00000330: 642e 6abe 8617 85be 066f 13bf e59b 7b3f
00000340: bb3e 83bf 24ca dabd 0cf3 d33c ba26 adbe
00000350: f37d a2be 3a49 8cbe 1bbf 4dbe 187d f73e
00000360: 59e2 39bf bb8b 8fbd efe5 e6be 74a1 ee3e
00000370: 3800 ef3e 8e39 723d e920 003d 6f1e 683f
00000380: ab72 5a3f 970d ad3d d7b6 57bd 4c7f 93be
00000390: fe05 963e 249e bf3e 90ad 4ebe 0cc7 5abf
000003a0: 436a 9b3e 2cb9 6d3e d7e8 3abe 04c1 03be
000003b0: 8b2a 9b3e 87bd 5f3f fd61 923e e149 7c3f
000003c0: 2464 5dbe 50a0 fbbe e622 6fbe 1f4d f03c
000003d0: 5684 1f3f 65ed 30be 1f23 25bf 65fc 69be
000003e0: 50a3 e63d c1c3 b43d abd0 3cbe b41e 7bbd
000003f0: 6930 fa3e 953c ae3e db38 19bc 047f 01bf

mlp_1/MLP_0_1/hidden_0_1/BiasAdd/ReadVariableOp:0 f4 [512]
-0.16665106 -1.4320687 -0.5435231 -1.3902891 -0.94332063 -0.65038675 -1.1062924 -0.9563618
-0.9988149 -1.0070765 -0.944534 -0.9610775 -0.85256076 -0.7386091 -0.78879845 -0.36073798
-0.49199393 -0.87134904 -0.76951784 -1.0202994 -0.8075387 -0.48181146 -0.93690395 -0.6799026
-1.3164669 -0.9983646 -0.43197858 -0.94101137 -0.6025382 -0.6657788 -0.90103406 -0.26259702
-0.5457917 -0.5455137 -0.825135 -0.93748254 -0.8521731 -0.29722637 -0.8027032 -0.886826
-0.68063337 -0.72667557 -1.0127165 -0.6931966 -0.21201283 -0.82150316 -1.0634607 -1.0545624
0.1953514 -1.0083054 -1.1617177 -0.82886577 -0.5926889 -0.990127 -0.25049025 -0.6891793
-0.9433736 -0.5143171 -1.01929 -0.96221596 -1.0902258 -0.7340971 -0.56208974 -1.036826
-0.7237662 -1.3975614 -1.1573374 -1.1574653 -0.9927398 -0.18440919 -1.0812405 -0.7072513
-1.2534852 -1.3016623 -1.0120164 -0.72615516 -0.3069394 -1.070306 -0.7154127 -1.1299405
-1.1941414 -1.29651 -0.833247 -1.2905442 -0.6119193 -0.63730806 -0.68372935 0.18637286
-0.8408072 -0.22758426 -0.7097557 -1.0251313 -0.31827962 -1.1516844 -0.76182115 -1.0102837
-0.98491496 -1.1266283 -1.1650662 -0.6174923 -1.0711008 -0.75841975 -0.6717938 -0.79924685
-0.025235213 -0.8684647 -0.2207665 -1.0297104 -0.89618015 -1.0819789 -0.9110979 -1.2756346
-0.8076201 -1.03754 -0.40133637 -0.86273026 -0.7869059 -0.8550587 -0.7399845 -0.057330098
-0.3940859 -0.79321194 -1.0124195 -1.1523924 -0.7208965 -0.3837054 -0.73981863 -0.53710115
-0.9003496 -0.9289999 -0.23047721 -0.7163619 -0.05533224 -1.0210816 -0.55746424 -0.7469684
-0.8912066 -0.69575423 -0.5604881 -1.0117056 -1.0099189 -1.091517 -0.7923192 -0.80178875
-0.5681442 -0.8455903 -0.89995134 -0.51182383 -0.14990623 -0.6564869 -0.62210095 -1.1235656
-0.61842775 -0.8428666 0.0834116 -0.8540328 -0.7485829 -0.31705588 -0.90242577 -0.5566914
-0.8378215 -0.58557606 -0.9540432 -0.9668249 -1.1349069 -1.1870507 -0.7433207 -0.8674657
-1.1154155 -0.78156847 -0.5231105 -0.8780518 -0.93019354 -1.2600421 -0.93378186 -1.2021209
-1.1171098 -0.64280355 -0.551373 -0.7656765 -0.59950185 -1.188327 -1.1494541 -0.23720482
-1.0177805 -0.5744507 -0.9800466 -0.6854109 -0.5714325 -0.77011424 -1.1387321 -0.9325812
-0.5559032 -0.51930565 -0.90174633 -0.6120141 -1.0052563 -0.64113396 -1.1832336 -0.9503153
-0.89664435 -0.8664475 -0.9359757 -0.5748513 -0.87438387 -0.8425724 -0.76792884 -0.21916655
-0.36253005 -1.0633568 -0.87303275 -0.93916625 -0.70230097 -0.80897856 -1.1125727 -0.74396896
-0.6786921 -1.1248379 -0.9002318 -0.8279166 -0.932124 -0.3901758 -0.66897976 -0.45179734
-0.74832666 -0.7353059 -0.88925934 -0.3920399 -0.9466109 -0.67467684 -1.4216864 -0.6450012
-1.1187909 -0.75311774 -0.98234546 -0.99158967 -0.5628009 -1.0740591 -0.76918364 -0.03217219
-1.0517899 -0.5791087 -0.5969704 -0.6705175 -0.47849777 -1.0581378 -0.57518923 -0.4551536
-0.5956523 -0.6261174 -0.86206377 -0.9215076 -1.0382351 -1.116882 -0.6449658 -0.8309709
00000000: 93a6 2abe 074e b7bf 5424 0bbf fef4 b1bf
00000010: 767d 71bf bf7f 26bf fd9a 8dbf 20d4 74bf
00000020: 55b2 7fbf e2e7 80bf fbcc 71bf 2d09 76bf
00000030: 6c41 5abf 7c15 3dbf b2ee 49bf a6b2 b8be
00000040: a1e6 fbbe bb10 5fbf 1fff 44bf 2c99 82bf
00000050: dbba 4ebf feaf f6be f0d8 6fbf 190e 2ebf
00000060: fd81 a8bf d394 7fbf 4c2c ddbe 1fe6 70bf
00000070: f23f 1abf 7b70 2abf 2baa 66bf 1e73 86be
00000080: 01b9 0bbf c9a6 0bbf 0c3c 53bf dbfe 6fbf
00000090: 0428 5abf 0e2e 98be f57d 4dbf 0707 63bf
000000a0: fd3d 2ebf 6907 3abf b2a0 81bf 5575 31bf
000000b0: e419 59be 084e 52bf 7b1f 88bf e7fb 86bf
000000c0: 330a 483e 2710 81bf 2ab3 94bf 8c30 54bf
000000d0: 76ba 17bf f778 7dbf 4240 80be 0e6e 30bf
000000e0: ef80 71bf 49aa 03bf 1878 82bf c953 76bf
000000f0: 858c 8bbf caed 3bbf 1de5 0fbf b7b6 84bf
00000100: be48 39bf 4be3 b2bf a223 94bf d327 94bf
00000110: 3224 7ebf c3d5 3cbe 1766 8abf 6c0e 35bf
00000120: 3472 a0bf df9c a6bf c189 81bf 4ee5 39bf
00000130: 2927 9dbe c9ff 88bf 4925 37bf e4a1 90bf
00000140: a0d9 98bf 0af4 a5bf ad4f 55bf 8d30 a5bf
00000150: bea6 1cbf 9f26 23bf e308 2fbf 87d8 3e3e
00000160: 243f 57bf d90b 69be 8db2 35bf 8137 83bf
00000170: 8cf5 a2be 656a 93bf b606 43bf fa50 81bf
00000180: 6323 7cbf 5b35 90bf e420 95bf fa13 1ebf
00000190: d519 89bf cc27 42bf aefa 2bbf 719b 4cbf
000001a0: 14ba cebc b453 5ebf 9d10 62be 8dcd 83bf
000001b0: 106c 65bf 497e 8abf b63d 69bf ff47 a3bf
000001c0: 31c0 4ebf 1cce 84bf f67b cdbe e4db 5cbf
000001d0: aa72 49bf 21e5 5abf a06f 3dbf f7d2 6abd
000001e0: a1c5 c9be f00f 4bbf f696 81bf 9881 93bf
000001f0: ac8c 38bf 0975 c4be c164 3dbf 767f 09bf
00000200: 507d 66bf f0d2 6dbf 3802 6cbe 7e63 37bf
00000210: 0fa4 62bd cdb2 82bf fab5 0ebf 5239 3fbf
00000220: 1e26 64bf f31c 32bf 267c 0fbf 927f 81bf
00000230: 0645 81bf d4b6 8bbf 6ed5 4abf 0742 4dbf
00000240: e671 11bf 9b78 58bf 3663 66bf e306 03bf
00000250: 0581 19be 870f 28bf 0242 1fbf ffd0 8fbf
00000260: 4851 1ebf 1bc6 57bf b3d3 aa3d e5a1 5abf
00000270: 21a3 3fbf 2655 a2be 6005 67bf 5483 0ebf
00000280: 787b 56bf 50e8 15bf 2d3c 74bf d681 77bf
00000290: a144 91bf 47f1 97bf 444a 3ebf 3b12 5ebf
000002a0: efc5 8ebf df14 48bf 92ea 05bf 01c8 60bf
000002b0: 2a21 6ebf 0f49 a1bf 540c 6fbf 19df 99bf
000002c0: 74fd 8ebf c68e 24bf c826 0dbf 6003 44bf
000002d0: f478 19bf 191b 98bf 5021 93bf d2e5 72be
000002e0: a246 82bf 330f 13bf 55e4 7abf 1777 2fbf
000002f0: 6649 12bf 3526 45bf f9c1 91bf a4bd 6ebf
00000300: ac4f 0ebf 37f1 04bf d9d8 66bf f5ac 1cbf
00000310: 3dac 80bf 5b21 24bf 3374 97bf dd47 73bf
00000320: 7c8a 65bf 81cf 5dbf 1a9c 6fbf 7429 13bf
00000330: 9fd7 5fbf d3b2 57bf fc96 44bf 326d 60be
00000340: 8a9d b9be 131c 88bf 137f 5fbf 336d 70bf
00000350: ffc9 33bf 3819 4fbf c868 8ebf c074 3ebf
00000360: c4be 2dbf b0fa 8fbf 9775 66bf 58f2 53bf
00000370: ae9f 6ebf 1fc5 c7be 4242 2bbf fb51 e7be
00000380: 5692 3fbf 023d 3cbf 80a6 63bf 74b9 c8be
00000390: 1855 72bf 9fb7 2cbf d2f9 b5bf cc1e 25bf
000003a0: 8a34 8fbf 53cc 40bf fe7a 7bbf d2d8 7dbf
000003b0: b813 10bf c57a 89bf 38e9 44bf fcc6 03bd
000003c0: 0da1 86bf 7840 14bf 0dd3 18bf 09a7 2bbf
000003d0: a9fd f4be 0f71 87bf 9a3f 13bf e509 e9be
000003e0: ab7c 18bf 3b49 20bf 36b0 5cbf ece7 6bbf
000003f0: e3e4 84bf fdf5 8ebf 7b1c 25bf 82ba 54bf

ConstantFolding/mlp_1/truediv_recip:0 f4 [112]
0.9380802 1.4315982 4.630097 1.8402491 1.612294 1.5022011 5.450545 6.727225
7.799565 1.1931561 3.0116656 1.4041592 23.52364 21.570414 25.91613 21.37868
20.876404 21.610163 21.121723 17.888374 12.50348 19.543737 16.245636 15.050213
15.648452 20.617699 18.278437 11.869546 19.757095 16.051939 15.478727 26.651163
10.07743 10.868836 6.1891613 6.4824696 11.777547 7.0695305 9.900067 11.090668
6.259961 6.452982 11.974836 7.0557923 1.3610332 1.4692929 1.4712541 0.97750604
0.8518737 0.9506151 1.3785566 0.6854964 1.179919 1.2248211 0.58992296 0.40648755
0.41088465 1.3812596 0.6928769 1.1390551 1.2259561 0.59300995 0.41276225 1.4757135
0.7411417 1.0223153 0.74081665 0.61893076 0.6856319 0.5912423 0.7298577 1.0199344
0.7550398 0.6164591 0.6916551 0.5899633 4.4880385 1.7526501 2.0502107 1.8206908
1.8278308 1.8061112 1.8354201 1.9976629 2.0778334 1.8087777 1.8908107 1.913199
1.9134513 1.836831 1.9910297 2.0527897 1.8116436 1.8967298 1.9290838 1.7947018
1.7017679 1.6742756 1.4862947 1.2458069 1.7282125 1.5257087 1.6776786 1.6516672
1.4920294 1.2432847 1.7382549 1.5307069 1.3982553 1.3987045 1.4310733 1.4310795
00000000: 0626 703f 9c3e b73f c129 9440 488d eb3f
00000010: a65f ce3f 2048 c03f dd6a ae40 6d45 d740
00000020: 0996 f940 57b9 983f 21bf 4040 7dbb b33f
00000030: 6a30 bc41 3590 ac41 3c54 cf41 8907 ab41
00000040: e002 a741 9de1 ac41 4af9 a841 641b 8f41
00000050: 410e 4841 9359 9c41 10f7 8141 accd 7041
00000060: 0f60 7a41 0cf1 a441 3d3a 9241 a9e9 3d41
00000070: 880e 9e41 5f6a 8041 dea8 7741 9535 d541
00000080: 273d 2141 c1e6 2d41 9c0d c640 6470 cf40
00000090: d570 3c41 9839 e240 ad66 1e41 6073 3141
000000a0: 9a51 c840 d47e ce40 ee98 3f41 0dc9 e140
000000b0: 5636 ae3f ca11 bc3f 0e52 bc3f d63d 7a3f
000000c0: 6514 5a3f 835b 733f 8b74 b03f b17c 2f3f
000000d0: 9607 973f f0c6 9c3f 3105 173f 231f d03e
000000e0: 795f d23e 1dcd b03f 6160 313f 8fcc 913f
000000f0: 21ec 9c3f 80cf 173f 9355 d33e 2ee4 bc3f
00000100: 76bb 3d3f 3adb 823f 29a6 3d3f 3f72 1e3f
00000110: 9285 2f3f a85b 173f f4d7 3a3f 368d 823f
00000120: 4a4a 413f 43d0 1d3f 4f10 313f d607 173f
00000130: 039e 8f40 d756 e03f a736 0340 650c e93f
00000140: 5cf6 e93f a72e e73f 0cef ea3f 6bb3 ff3f
00000150: 39fb 0440 0786 e73f 1606 f23f b4e3 f43f
00000160: f9eb f43f 471d eb3f 10da fe3f e860 0340
00000170: f0e3 e73f 0bc8 f23f 38ec f63f cab8 e53f
00000180: 88d3 d93f aa4e d63f e83e be3f 9a76 9f3f
00000190: 1136 dd3f 6c4a c33f 2cbe d63f d569 d33f
000001a0: d2fa be3f f423 9f3f 237f de3f 34ee c33f
000001b0: 08fa b23f c008 b33f 692d b73f 9d2d b73f
