mujoco_playground/mujoco_playground/experimental/sim2sim/onnx/bh_policy.onnx (onnx, 781140 bytes, 10 tensors)

mlp_1/sub/ReadVariableOp:0 f4 [52]
-0.07274054 -0.0009806149 0.014790306 -0.0007742673 -0.099532 -0.0038283062 0.0007430718 0.0035315934
-0.98105603 -0.008484227 -0.0015304465 0.002092465 -0.010368746 0.0052039903 -0.051643662 0.08823873
-0.017024662 0.024876665 0.011455352 -0.0013622189 -0.07664677 0.09688603 -0.021701766 -0.0140917385
-0.007861438 0.00075430307 0.0035730079 0.007879973 0.005095009 0.0083420705 -0.0024315957 -0.0025670126
2.3264925e-05 0.020642549 -0.0003070543 0.0050568976 0.18489026 -0.10705576 -0.12074517 -0.104127385
-0.088234544 0.017721351 -0.17346139 0.110666715 -0.17700769 -0.10705367 -0.16848476 0.027887637
0.0042568524 -0.0042569013 0.0043541053 -0.0043541053
00000000: fef8 94bd fa87 80ba 0a53 723c 33f8 4aba
00000010: 6fd7 cbbd 52e4 7abb b4ca 423a 4e72 673b
00000020: 7d26 7bbf 6d01 0bbc 4399 c8ba bd21 093b
00000030: ace1 29bc 3c86 aa3b 4e88 53bd 82b6 b43d
00000040: 4e77 8bbc 26ca cb3c 3baf 3b3c 7b8c b2ba
00000050: fbf8 9cbd 2f6c c63d e7c7 b1bc 09e1 66bc
00000060: 43cd 00bc 6cbc 453a 2029 6a3b 011b 013c
00000070: 09f4 a63b 2ead 083c 685b 1fbb 533b 28bb
00000080: 0c29 c337 901a a93c 21fc a0b9 55b4 a53b
00000090: df53 3d3e 0d40 dbbd 3e49 f7bd bd40 d5bd
000000a0: 50b4 b4bd 5e2c 913c dd9f 31be 3ba5 e23d
000000b0: 8141 35be f43e dbbd 4587 2cbe 9d74 e43c
000000c0: 117d 8b3b 7a7d 8bbb e2ac 8e3b e2ac 8ebb

mlp_1/MLP_0_1/hidden_3_1/Cast/ReadVariableOp:0 f4 [128, 24]
-0.016878208 0.015490041 0.0683175 -0.039835434 -0.024297962 -0.0397878 0.046171885 -0.0012695908
0.0988026 -0.090549454 -0.02570779 -0.06048271 -0.032650083 -0.01943535 -0.065200426 -0.032916702
-0.087489955 -0.01211739 -0.05885514 -0.039837997 -0.053333253 -0.08235073 -0.041010108 -0.061563466
-0.00514267 0.037430353 0.06062106 -0.16780446 -0.023896862 0.031953726 0.018618613 -0.0020197441
-0.0062711313 0.010868324 0.051332023 -0.19418378 -0.015221774 -0.018308343 -0.010059589 0.03795613
-0.13804539 -0.021736128 -0.015396643 0.025465952 -0.029825559 0.06377075 -0.035116617 0.017395426
0.13405402 -0.12838829 0.11871355 -0.0647093 0.063202865 0.019085543 -0.026667163 0.067530006
-0.09438642 0.2115158 -0.11420948 0.016927965 0.03195894 -0.008381325 -0.022945339 -0.05034259
-0.06463568 -0.039660063 -0.056420423 -0.036854785 -0.034119885 0.036155883 0.0591665 0.01197235
0.057230964 0.0017280579 -0.16565274 -0.057568323 0.16443364 0.026072424 0.064013116 0.10614057
0.12671882 0.030856669 0.057997063 -0.12925607 0.19783936 0.12861317 0.12661089 0.09979344
0.062385257 0.08163751 0.16202089 0.1843919 0.24928766 0.11742347 0.16590294 0.10686115
0.011719717 -0.0039964095 0.041452676 -0.03789435 -0.03779674 -0.07737768 -0.017350271 0.06444133
-0.014341269 -0.26024947 -0.0050458745 -0.0031867018 -0.07596212 -0.045893572 -0.054854237 0.0034970392
-0.04013962 -0.066515185 -0.09731097 -0.041207816 -0.05752904 0.0822328 -0.12001991 0.018340744
-0.044993497 -0.0031655207 -0.058798924 -0.22634175 -0.2183366 0.021344185 0.011466402 0.031934775
0.037861723 0.113151364 0.101800285 -0.06388988 -0.020107955 -0.0227748 0.011193393 0.038375407
0.08596556 -0.060928624 -0.053932693 -0.040837597 -0.07045041 0.038514324 -0.0045918277 0.03191644
0.02284047 0.01830021 0.07114974 -0.027961928 0.08931763 0.12589051 -0.049643703 -0.02648901
0.07056171 0.08011045 0.011953677 0.08600185 -0.07810954 -0.081037514 -0.010806447 -0.100513734
-0.023358753 -0.09011162 -0.06627542 -0.05975882 -0.06409304 -0.055986032 -0.098596565 0.021604646
-0.0037259713 0.039241064 0.07671339 0.10093424 -0.014046738 0.13996126 0.04049232 -0.03320323
0.025509149 0.0044586305 -0.083710685 0.0340277 -0.07424674 -0.057853986 -0.038034327 0.031848755
0.06457852 0.021941604 -0.0304382 -0.07684629 -0.028380005 -0.021314664 -0.015482168 -0.01036525
0.022267422 -0.009560305 -0.18303505 0.10385357 -0.02271416 -0.13259128 -0.016834823 0.0017148778
-0.046870597 -0.091065384 0.017254716 -0.05995412 0.058790475 0.02180307 0.16186178 0.08349934
0.050211355 0.019159896 0.05044965 0.03747897 -0.007847827 -0.02269328 0.009671057 0.04183909
-0.101377584 0.1477995 -0.0012460109 0.1440292 0.012001704 -0.019480463 0.016798807 -0.037916273
-0.01648163 -0.11308707 -0.11491131 0.033217326 0.11475735 0.21070181 0.06801338 0.11503201
0.009943912 0.11876138 0.067065656 0.057913266 0.087930605 0.0025709097 0.06864416 -0.056088284
0.014312404 0.031758405 0.111021 -0.027025158 0.28625956 0.020415677 0.023480069 -0.11682104
0.008290889 -0.10264186 0.037022047 0.008203109 0.060757212 0.068627596 0.21166444 -0.03424062
00000000: 2b44 8abc f1c9 7d3c 0cea 8b3d 7b2a 23bd
00000010: 850c c7bc 88f8 22bd bb1e 3d3d 6668 a6ba
00000020: 0459 ca3d fe71 b9bd 2599 d2bc b8bc 77bd
00000030: 18bc 05bd e236 9fbc cd87 85bd aad3 06bd
00000040: ef2d b3bd 0488 46bc 1612 71bd 2b2d 23bd
00000050: f873 5abd 80a7 a8bd 37fa 27bd f929 7cbd
00000060: d883 a8bb 9250 193d ca4d 783d efd4 2bbe
00000070: 5ac3 c3bc e9e1 023d 1086 983c af5d 04bb
00000080: 107e cdbb 0e11 323c 8741 523d 1dd8 46be
00000090: bf64 79bc 61fb 95bc f9d0 24bc e377 1b3d
000000a0: c55b 0dbe f70f b2bc 3442 7cbc f99d d03c
000000b0: bb54 f4bc 3d9a 823d 71d6 0fbd da80 8e3c
000000c0: 7545 093e 3878 03be 1720 f33d 4f86 84bd
000000d0: 8170 813d 4959 9c3c 1875 dabc 2c4d 8a3d
000000e0: ab4d c1bd 9997 583e a9e6 e9bd 84ac 8a3c
000000f0: 61e7 023d d351 09bc ddf7 bbbc 0834 4ebd
00000100: b65f 84bd 9772 22bd 1a19 67bd 0bf5 16bd
00000110: 4bc1 0bbd 3118 143d 9258 723d ad27 443c
00000120: 046b 6a3d 0080 e23a dfa0 29be c3cc 6bbd
00000130: 4b61 283e d695 d53c 4f19 833d 3a60 d93d
00000140: 94c2 013e 20c7 fc3c 548e 6d3d b45b 04be
00000150: 6796 4a3e 2cb3 033e 49a6 013e 8160 cc3d
00000160: af87 7f3d 9131 a73d cee8 253e 3bd1 3c3e
00000170: 4445 7f3e b77b f03d 76e2 293e 05da da3d
00000180: 0e04 403c 50f4 82bb 48ca 293d 1b37 1bbd
00000190: c1d0 1abd 3078 9ebd 2822 8ebc d1f9 833d
000001a0: a4f7 6abc 6b3f 85be dd57 a5bb fcd7 50bb
000001b0: 0792 9bbd e6fa 3bbd d6ae 60bd 952e 653b
000001c0: 7169 24bd 1d39 88bd f94a c7bd 87c9 28bd
000001d0: 92a3 6bbd ac69 a83d 00cd f5bd 543f 963c
000001e0: 1a4b 38bd a074 4fbb 24d7 70bd 22c6 67be
000001f0: a193 5fbe 00da ae3c 93dd 3b3c 0ace 023d
00000200: e514 1b3d e7bb e73d ab7c d03d b3d8 82bd
00000210: 70b9 a4bc 3892 babc 7e64 373c 882f 1d3d
00000220: b60e b03d 4b90 79bd 87e8 5cbd 5345 27bd
00000230: 4e48 90bd 32c1 1d3d 0b77 96bb d0ba 023d
00000240: f01b bb3c 52ea 953c f4b6 913d 6a10 e5bc
00000250: 29ec b63d 71e9 003e 3257 4bbd 7bff d8bc
00000260: a882 903d f310 a43d 5bd9 433c bd21 b03d
00000270: e5f7 9fbd fff6 a5bd 860d 31bc 25da cdbd
00000280: db5a bfbc 718c b8bd 68bb 87bd aac5 74bd
00000290: 3643 83bd 9c51 65bd ffec c9bd 3afc b03c
000002a0: 6d2f 74bb 3dbb 203d e91b 9d3d 9cb6 ce3d
000002b0: 4a24 66bc 0152 0f3e 46db 253d 1c00 08bd
000002c0: 90f8 d03c b419 923b 8270 abbd a160 0b3d
000002d0: ad0e 98bd 4df8 6cbd e2c9 1bbd d773 023d
000002e0: be41 843d e1be b33c 8859 f9bc 9661 9dbd
000002f0: 2f7d e8bc 179c aebc eba8 7dbc 02d3 29bc
00000300: 2b6a b63c d3a2 1cbc 8a6d 3bbe 2eb1 d43d
00000310: 0c13 babc 02c6 07be 2fe9 89bc c0c5 e03a
00000320: 62fb 3fbd 7d80 babd c359 8d3c 7492 75bd
00000330: 48ce 703d 5a9c b23c 18bf 253e b401 ab3d
00000340: 6caa 4d3d 37f5 9c3c 4ba4 4e3d 8c83 193d
00000350: 2c94 00bc 42e7 b9bc 5a73 1e3c 775f 2b3d
00000360: 0d9f cfbd c158 173e 3051 a3ba 647c 133e
00000370: cca2 443c 7e95 9fbc a79d 893c 184e 1bbd
00000380: 7c04 87bc 329a e7bd 9f56 ebbd e40e 083d
00000390: e705 eb3d 37c2 573e 994a 8b3d e795 eb3d
000003a0: caeb 223c 2b39 f33d b859 893d 7636 6d3d
000003b0: f614 b43d b57c 283b 4f95 8c3d d4bc 65bd
000003c0: 937e 6a3c 1a15 023d fa5e e33d dd63 ddbc
000003d0: 9d90 923e c73e a73c 4659 c03c df3f efbd
000003e0: 82d6 073c e535 d2bd 6ea4 173d 5566 063c
000003f0: 8edc 783d a08c 8c3d 90be 583e e43f 0cbd

mlp_1/MLP_0_1/hidden_3_1/BiasAdd/ReadVariableOp:0 f4 [24]
0.039859388 0.0036509726 -0.04068738 -0.062192705 -0.05222373 -0.017896812 -0.021206759 0.011356535
-0.065240495 -0.079133436 -0.050513104 0.03888007 -0.38423607 -0.3131642 -0.30068803 -0.09624207
-0.12583798 -0.01705265 -0.39065966 -0.34353226 -0.27387327 -0.10393741 -0.11487021 0.003964515
00000000: 9943 233d 2845 6f3b cfa7 26bd c7bd 7ebd
00000010: 8de8 55bd 569c 92bc ccb9 adbc c310 3a3c
00000020: cf9c 85bd b610 a2bd d4e6 4ebd b540 1f3d
00000030: 97ba c4be 0f57 a0be c8f3 99be 901a c5bd
00000040: acdb 00be 00b2 8bbc 8b04 c8be 76e3 afbe
00000050: 1e39 8cbe 23dd d4bd 1341 ebbd c3e8 813b

mlp_1/MLP_0_1/hidden_2_1/Cast/ReadVariableOp:0 f4 [256, 128]
0.010281907 -0.06886702 0.078347094 0.054441486 0.10347925 0.030081104 0.07146432 0.029600468
-0.069849946 0.060286254 0.08325901 0.12604956 0.1925952 0.08494633 0.09428826 -0.16111779
0.07363728 0.15469863 -0.06807727 -0.036064733 0.11125078 0.17487113 0.1656864 0.03907188
0.063938186 -0.074948706 0.074379034 0.12497495 -0.011959775 0.0858229 0.12376223 0.061976783
0.1348687 0.18421045 0.12051224 0.03991459 0.05034511 0.13595536 0.024993125 0.11390114
0.08418051 0.03200171 0.14154668 -0.01696566 0.07297255 0.13014218 0.06668335 0.07573964
-0.06490377 -0.009979865 0.14117579 0.054408934 0.18996459 0.101436265 0.09734621 0.047102
0.017983822 0.068076886 0.021912098 -0.09121052 0.056748275 -0.052874535 0.028547032 0.07375026
0.04883628 -0.027992096 -0.0984105 0.06517708 -0.08001434 0.106113926 0.078390986 0.19864991
0.094553664 0.05597949 0.14910609 -0.032121573 -0.009107105 0.06378547 -0.05211943 -0.008319465
-0.023847686 -0.035148613 0.059579924 -0.011659814 0.009833372 0.06335316 0.0915293 0.1739364
0.004304624 -0.031687252 0.032149363 -0.08525963 -0.027630044 0.09182865 0.13311209 0.08024441
-0.116093226 0.07641948 0.07981101 0.108114175 0.14584187 0.06723711 0.039143328 0.05498034
0.08170937 0.22961865 0.13516767 0.067417085 0.09752516 -0.028560506 0.09908537 0.19372036
0.14970998 0.091460474 -0.07270634 0.02050226 -0.039992012 -0.033595335 0.018295547 -0.08629569
0.16317266 0.020490082 0.08088561 -0.080995806 -0.1110613 0.14068209 0.012574287 0.055581223
-0.04038737 0.05149563 -0.071268104 0.056547385 0.083274394 0.032089796 -0.08918084 -0.11878533
0.050696816 -0.10584469 -0.02305438 -0.01058723 -0.15229155 -0.10622229 0.06599647 0.09201249
-0.022974012 -0.053184118 -4.118499e-05 -0.0026258684 -0.11367394 0.03634326 -0.062599406 -0.018035907
0.045171488 0.02561467 -0.1459069 0.021861224 -0.025219075 -0.019531552 0.049299385 -0.09135762
-0.03168726 -0.103784114 0.06286762 -0.040136088 -0.120899186 -0.09163603 0.08206183 0.053854678
0.15435655 0.011972753 -0.12641448 -0.022235474 -0.076975085 -0.019503472 -0.06736633 -0.0711601
0.09421224 -0.08379386 -0.06956114 -0.015594485 -0.0621213 0.057884127 -0.052354634 0.015941592
0.00060411793 0.033386126 0.020968903 -0.17484933 -0.053326845 0.0036094233 -0.07219763 -0.01650955
-0.17153749 0.0340586 -0.10005464 -0.22286405 0.066155985 -0.0070952526 -0.08465246 -0.2482274
-0.115848616 -0.15810026 -0.1150936 -0.020111622 0.05611046 -0.1790638 -0.1219933 0.09279349
-0.04574416 0.038436033 0.047830302 0.06259363 0.07998563 -0.09582246 -0.037846334 -0.056609508
-0.14941503 -0.12799637 -0.09632792 0.015701594 0.06059281 0.002775497 -0.034303337 -0.008474478
0.045533013 -0.09017686 -0.024384927 0.08725757 -0.025315806 0.045307603 0.015188643 -0.043596327
0.10851319 -0.008232098 -0.077878825 -0.0040275706 -0.12850365 -0.039255492 0.0063569383 -0.24601737
-0.06925649 0.0017067553 -0.083856404 -0.010990157 -0.028246965 0.053534534 -0.02671062 0.10988585
0.16462587 -0.14634752 0.028628046 0.086184464 0.06632567 0.19139117 -0.15846476 -0.23219611
00000000: 7275 283c 270a 8dbd 7174 a03d 09fe 5e3d
00000010: eeec d33d a66c f63c e35b 923d ae7c f23c
00000020: 7d0d 8fbd b8ee 763d b383 aa3d 2313 013e
00000030: ad37 453e 57f8 ad3d 341a c13d 10fc 24be
00000040: 24cf 963d 5169 1e3e 196c 8bbd 9db8 13bd
00000050: 73d7 e33d 6b11 333e b2a9 293e d609 203d
00000060: 06f2 823d b57e 99bd 0954 983d def2 ff3d
00000070: eff2 43bc ebc3 af3d 0d77 fd3d 5edb 7d3d
00000080: 051b 0a3e aaa1 3c3e 1fcf f63d 7b7d 233d
00000090: ad36 4e3d e237 0b3e 62be cc3c 0045 e93d
000000a0: d566 ac3d 3a14 033d 9df1 103e 91fb 8abc
000000b0: a272 953d fe43 053e 4891 883d 621d 9b3d
000000c0: 45ec 84bd 9682 23bc 6390 103e e7db 5e3d
000000d0: 1486 423e d1bd cf3d 735d c73d 07ee 403d
000000e0: cf52 933c e56b 8b3d 0081 b33c 95cc babd
000000f0: e170 683d f892 58bd 77db e93c 600a 973d
00000100: 8d08 483d ae4f e5bc 728b c9bd 907b 853d
00000110: 8fde a3bd 4252 d93d 748b a03d e26a 4b3e
00000120: 5aa5 c13d c04a 653d 44af 183e e991 03bd
00000130: f835 15bc f5a1 823d 2f7b 55bd 5e4e 08bc
00000140: 395c c3bc fef7 0fbd 140a 743d ce08 3fbc
00000150: 271c 213c 4dbf 813d b773 bb3d 621c 323e
00000160: ce0d 8d3b 7eca 01bd 0daf 033d 9a9c aebd
00000170: 6758 e2bc a910 bc3d 894e 083e 2e57 a43d
00000180: 49c2 edbd d181 9c3d f473 a33d f76a dd3d
00000190: 9257 153e 9cb3 893d c154 203d 1133 613d
000001a0: 3e57 a73d 2721 6b3e 6569 0a3e f811 8a3d
000001b0: 45bb c73d b9f7 e9bc 45ed ca3d a15e 463e
000001c0: 934d 193e a14f bb3d 10e7 94bd 5bf4 a73c
000001d0: aace 23bd 439b 09bd 8be0 953c cbbb b0bd
000001e0: bc16 273e d1da a73c 5ba7 a53d 21e1 a5bd
000001f0: 1b74 e3bd f70e 103e 6204 4e3c 23a9 633d
00000200: 3a6d 25bd 15ed 523d 03f5 91bd 3b9e 673d
00000210: c48b aa3d 9770 033d 72a4 b6bd b945 f3bd
00000220: 77a7 4f3d 1ac5 d8bd 8adc bcbc 1076 2dbc
00000230: 51f2 1bbe 128b d9bd 2829 873d 0b71 bc3d
00000240: ff33 bcbc 97d7 59bd 0cbe 2cb8 c316 2cbb
00000250: e2cd e8bd acdc 143d 1e34 80bd 0ac0 93bc
00000260: bd05 393d dbd5 d13c 9e68 15be 4f16 b33c
00000270: 3c98 cebc a200 a0bc 27ee 493d b419 bbbd
00000280: 80ca 01bd c48c d4bd bdc0 803d bd65 24bd
00000290: fe99 f7bd acab bbbd 0810 a83d b996 5c3d
000002a0: a50f 1e3e 5e29 443c cc72 01be 2b27 b6bc
000002b0: 1da5 9dbd bfc5 9fbc 5cf7 89bd 63bc 91bd
000002c0: 59f2 c03d 1e9c abbd 1276 8ebd 0380 7fbc
000002d0: e772 7ebd e817 6d3d d071 56bd f197 823c
000002e0: ab5d 1e3a e4bf 083d fac6 ab3c b40b 33be
000002f0: 406d 5abd 138c 6c3b 5adc 93bd 093f 87bc
00000300: 86a7 2fbe 0881 0b3d 72e9 ccbd 7936 64be
00000310: ca7c 873d 4b7f e8bb 455e adbd 532f 7ebe
00000320: 0a42 edbd 09e5 21be 31b6 ebbd 21c1 a4bc
00000330: 15d4 653d 805c 37be a0d7 f9bd 830a be3d
00000340: 3a5e 3bbd 1a6f 1d3d b5e9 433d 1731 803d
00000350: 82cf a33d 913e c4bd c204 1bbd 5fdf 67bd
00000360: 4100 19be 7b11 03be 9347 c5bd a1a0 803c
00000370: 2b30 783d 1de5 353b a881 0cbd 89d8 0abc
00000380: d380 3a3d a5ae b8bd e6c2 c7bc 19b4 b23d
00000390: 1863 cfbc 7794 393d c9d9 783c 1092 32bd
000003a0: 2a3c de3d ecdf 06bc ef7e 9fbd b6f9 83bb
000003b0: 7696 03be 5eca 20bd dd4d d03b faeb 7bbe
000003c0: 59d6 8dbd 34b5 df3a e8bc abbd 0f10 34bc
000003d0: 2e66 e7bc 0747 5b3d 3bd0 dabc d50b e13d
000003e0: af93 283e 20dc 15be 5d85 ea3c 7b81 b03d
000003f0: c1d5 873d 0cfc 433e 9644 22be d1c4 6dbe

mlp_1/MLP_0_1/hidden_2_1/BiasAdd/ReadVariableOp:0 f4 [128]
-0.029917117 0.017136207 -0.013548609 -0.19616714 0.0812347 -0.0077992626 -0.0021837144 -0.060413346
-0.07855827 -0.105018586 -0.18744709 0.025900327 0.035273686 -0.048760634 0.07278878 0.06587011
-0.34003454 -0.11397583 -0.19910255 -0.05175427 0.06696794 -0.010980151 -0.32225612 0.040091563
-0.012095951 -0.04810496 -0.18479529 0.038933173 -0.25338736 -0.077516966 -0.088900305 -0.2398889
-0.22552496 -0.1276388 -0.23997067 -0.12838587 -0.07652911 0.050972898 -0.11218831 0.0416302
-0.28300604 -0.05124382 -0.43244547 -0.024694553 -0.21516037 0.03772378 0.0032513547 -0.028499495
-0.05386525 -0.051655784 -0.21138363 -0.014895586 -0.06937678 -0.07656302 -0.10699113 -0.053303674
0.05034733 0.04775068 -0.032161754 -0.30290335 -0.05322221 0.02028153 -0.033212125 -0.2348856
-0.15956391 -0.11377887 0.11571671 -0.15120658 0.089262016 -0.008018242 -0.094777234 -0.29392886
-0.13470218 -0.06422423 -0.025518512 -0.26655644 0.06574156 -0.22856495 -0.075472824 -0.07635233
-0.10662238 -0.06914858 -0.17249925 -0.17352603 -0.047127053 0.04115953 -0.14055799 -0.19169657
0.03478637 -0.037515316 -0.049581405 -0.032311376 -0.12366244 -0.08650297 -0.13975535 -0.106451795
-0.12917882 -0.07004004 -0.17298397 -0.09293059 -0.022286251 -0.09721541 0.076269776 0.068867214
-0.13731682 -0.030173015 -0.17978844 -0.10886588 -0.07161479 -0.23551513 -0.3289705 -0.12681139
-0.036904514 -0.025412526 0.020994067 0.057408903 0.014688844 -0.08701189 -0.3010779 -0.090540506
-0.11617006 -0.11922562 -0.01645606 0.16919257 0.11681217 -0.14621612 -0.044567004 -0.022634346
00000000: be14 f5bc 3b61 8c3c fcfa 5dbc 0ae0 48be
00000010: 615e a63d f590 ffbb a61c 0fbb fc73 77bd
00000020: 29e3 a0bd fc13 d7bd 21f2 3fbe ec2c d43c
00000030: 247b 103d 3bb9 47bd 4912 953d e9e6 863d
00000040: 0219 aebe 296c e9bd 8ae1 4bbe 49fc 53bd
00000050: 7d26 893d 17e6 33bc c1fe a4be 0d37 243d
00000060: 182e 46bc b509 45bd fa3a 3dbe 6478 1f3d
00000070: fdbb 81be 37c1 9ebd 5d11 b6bd 70a5 75be
00000080: 04f0 66be bfb3 02be dfba 75be 9677 03be
00000090: 4bbb 9cbd f5c8 503d fcc2 e5bd 6e84 2a3d
000000a0: 2be6 90be 0ae5 51bd 7e69 ddbe 3b4c cabc
000000b0: 0053 5cbe 4084 1a3d ae14 553b c677 e9bc
000000c0: cfa1 5cbd 0495 53bd f374 58be 9e0c 74bc
000000d0: 6a15 8ebd 13cd 9cbd 2a1e dbbd f454 5abd
000000e0: 0039 4e3d 3896 433d 0bbc 03bd 2616 9bbe
000000f0: 88ff 59bd 7425 a63c 7009 08bd da85 70be
00000100: b964 23be e504 e9bd e2fc ec3d e6d5 1abe
00000110: 01cf b63d f25e 03bc 911a c2bd d87d 96be
00000120: 5eef 09be fe87 83bd 330c d1bc 167a 88be
00000130: 83a3 863d ee0c 6abe 7f91 9abd 9c5e 9cbd
00000140: d65c dabd c59d 8dbd a5a3 30be cfb0 31be
00000150: 4c08 41bd e596 283d 6fee 0fbe 1b4c 44be
00000160: 277c 0e3d a9a9 19bd df15 4bbd ef58 04bd
00000170: bc42 fdbd 7828 b1bd 071c 0fbe 6603 dabd
00000180: 7447 04be 2771 8fbd b622 31be 6552 bebd
00000190: a891 b6bc df18 c7bd 5433 9c3d 410a 8d3d
000001a0: c89c 0cbe 662d f7bc 761a 38be 13f5 debd
000001b0: c6aa 92bd e12a 71be d26e a8be d8da 01be
000001c0: 3029 17bd ee2d d0bc c0fb ab3c 9925 6b3d
000001d0: 7aa9 703c 4a33 b2bd e226 9abe 4d6d b9bd
000001e0: 92ea edbd 902c f4bd dcce 86bc d140 2d3e
000001f0: 383b ef3d aeb9 15be e48b 36bd aa6b b9bc

mlp_1/MLP_0_1/hidden_1_1/Cast/ReadVariableOp:0 f4 [512, 256]
-0.1976127 -0.14989099 -0.1508951 0.0063004824 -0.1739356 0.029648367 -0.21987481 0.19742846
-0.05353 0.070999525 0.07265579 0.08357703 -0.018316317 -0.08634651 -0.24788646 -0.13107185
-0.093989566 -0.113875784 -0.07019895 0.080279395 -0.14992556 0.011748457 0.04164349 0.10014099
0.023527374 -0.031090897 -0.12699361 -0.0016728885 -0.17275894 -0.08626392 -0.15455249 -0.00558048
0.076719195 -0.024084974 -0.040375464 -0.17893474 -0.016130993 -0.0023374713 0.02246998 -0.014577654
-0.12989348 0.0025652263 0.084696926 0.08988562 0.054884944 -0.020895844 -0.033064455 -0.0008121
0.029442666 0.06556552 0.042208645 0.04988773 0.022518277 -0.002939288 0.016357439 0.059758235
0.011435406 -0.06031616 -0.14910735 0.0022848782 -0.059524465 -0.10584252 -0.05050517 -0.28802356
-0.13912904 -0.08448458 -0.18657365 0.02837483 -0.13679558 -0.18869495 -0.0086306725 -0.046177037
0.11879254 0.019918367 -0.19876677 -0.08124658 -0.07537505 -0.26586437 0.16242944 -0.10222111
0.0016788122 -0.038544703 -0.11600186 -0.043523736 0.013580176 -0.107273646 -0.05962898 0.05530119
-0.0626384 -0.24505076 0.13568233 0.031184202 -0.08844611 -0.010711042 -0.061818846 -0.019608548
-0.021198645 0.060730755 -0.122338854 0.020291796 0.045384765 0.14755785 0.022843095 -0.087492
-0.035366714 0.056616314 -0.051915392 -0.30507654 -0.08663684 -0.09820778 0.036269728 0.009427179
0.043520454 0.049939007 -0.06341378 -0.11009244 0.036840964 -0.009722408 -0.034173507 0.020803144
-0.013826392 -0.012155269 -0.15069568 0.036471818 -0.1620104 -0.1690519 0.015564408 0.033685468
0.048074186 0.039017566 0.0013912832 -0.026824225 0.040248074 -0.051543973 -0.011352837 0.024809936
-0.032664414 -0.047528155 -0.14468738 -0.03564445 0.05572147 -0.023180747 -0.11314585 -0.10640912
-0.17374025 -0.11094147 -0.08192778 0.0074130674 -0.057506576 -0.033147313 0.025192907 -0.10088626
0.016026204 0.16059743 -0.04951833 -0.11741845 0.024617841 -0.069160305 -0.011211537 -0.045003545
-0.084142 -0.25686863 0.11384623 0.014495246 -0.111401044 -0.06180842 -0.17351593 -0.013080615
0.19694886 0.087500796 -0.10445096 -0.24458101 0.08965227 -0.1119573 0.03357962 -0.14464812
-0.04824767 -0.14678879 0.040467013 0.03399436 -0.15687928 -0.104448445 -0.09363584 0.020046582
-0.02984277 -0.06386497 0.042288 -0.044973157 0.06938272 -0.004645967 0.08848394 -0.13631855
0.0051207603 -0.017657874 -0.077846706 -0.047201224 -0.046853323 -0.013292054 -0.0864675 -0.032684524
0.06762314 0.043316133 -0.22609699 0.199907 0.09694902 -0.16408356 0.03277759 0.0499481
0.02195467 -0.08913578 0.10313159 -0.0027394905 -0.20009232 -0.01543738 -0.030325321 -0.31568468
0.215729 0.012650116 -0.033848014 -0.19116588 0.049586978 -0.13783458 -0.076631196 0.06024505
0.09247579 -0.10159398 -0.18186237 0.08588165 -0.038607303 -0.03292295 0.123443805 -0.068853736
-0.04609489 -0.022656491 -0.18986298 -0.1807532 0.084024146 0.11843361 0.033172496 0.028099785
0.12830536 0.026922652 -0.047545306 -0.05950789 -0.21451169 -0.055445455 0.010532121 0.011725435
0.0073576863 0.10962486 -0.18879393 0.1001564 -0.17908646 -0.2120642 -0.24222706 0.055832256
00000000: fc5a 4abe 067d 19be 3f84 1abe 4774 ce3b
00000010: 2d1c 32be 22e1 f23c dd26 61be b02a 4a3e
00000020: 4642 5bbd 3368 913d 8fcc 943d 6f2a ab3d
00000030: 1a0c 96bc 70d6 b0bd f3d5 7dbe b337 06be
00000040: 9a7d c0bd b537 e9bd 78c4 8fbd 8669 a43d
00000050: 1686 19be 9a7c 403c 5d92 2a3d b816 cd3d
00000060: 7bbc c03c 56b2 febc 9d0a 02be d344 dbba
00000070: b8e7 30be 23ab b0bd 0243 1ebe 76dc b6bb
00000080: f41e 9d3d da4d c5bc be60 25bd ab3a 37be
00000090: 2525 84bc 4330 19bb f712 b83c 1dd7 6ebc
000000a0: cc02 05be 5b1d 283b 9575 ad3d f415 b83d
000000b0: 09cf 603d c32d abbc 986e 07bd 1ce3 54ba
000000c0: bf31 f13c 3747 863d f9e2 2c3d 1457 4c3d
000000d0: 4078 b83c 12a1 40bb 0900 863c 0dc5 743d
000000e0: 925b 3b3c 140e 77bd 99af 18be e5bd 153b
000000f0: edcf 73bd f7c3 d8bd 82de 4ebd d377 93be
00000100: d877 0ebe 4006 adbd 2a0d 3fbe 5572 e83c
00000110: 2414 0cbe 4039 41be aa67 0dbc 2224 3dbd
00000120: 8149 f33d d82b a33c 8489 4bbe 9b64 a6bd
00000130: 3c5e 9abd 601f 88be e753 263e 4d59 d1bd
00000140: 970b dc3a 0de1 1dbd 6292 edbd f245 32bd
00000150: 637f 5e3c 49b2 dbbd 843d 74bd 8083 623d
00000160: 9048 80bd 96ee 7abe 4ff0 0a3e 0376 ff3c
00000170: 3c23 b5bd 5e7d 2fbc c235 7dbd 1ba2 a0bc
00000180: c8a8 adbc d0c0 783d cb8c fabd fb3a a63c
00000190: 60e5 393d 6819 173e 7121 bb3c 012f b3bd
000001a0: b0dc 10bd 82e6 673d 3ca5 54bd fe32 9cbe
000001b0: a86e b1bd 2921 c9bd 918f 143d 7474 1a3c
000001c0: 8142 323d d88c 4c3d 15df 81bd 2578 e1bd
000001d0: 8de6 163d bc4a 1fbc 85f9 0bbd 5b6b aa3c
000001e0: 1788 62bc e526 47bc f84f 1abe 7963 153d
000001f0: 0ee6 25be f11b 2dbe dc01 7f3c c6f9 093d
00000200: 70e9 443d e2d0 1f3d b85b b63a 7abe dbbc
00000210: 2adb 243d c61f 53bd 4001 3abc 353e cb3c
00000220: 1fcb 05bd e2ac 42bd ee28 14be eaff 11bd
00000230: 323c 643d 8de5 bdbc 03b9 e7bd 06ed d9bd
00000240: f7e8 31be 4835 e3bd c0c9 a7bd 51e9 f23b
00000250: 048c 6bbd 7ac5 07bd 5b61 ce3c 759d cebd
00000260: 6349 833c a773 243e bbd3 4abd 1679 f0bd
00000270: 5bab c93c eba3 8dbd 98b0 37bc a355 38bd
00000280: a452 acbd 4984 83be 3628 e93d 787d 6d3c
00000290: 3b26 e4bd d32a 7dbd 29ae 31be 1350 56bc
000002a0: f6ac 493e 9e33 b33d 63ea d5bd 7273 7abe
000002b0: 9c9b b73d de49 e5bd c98a 093d a31e 14be
000002c0: 599f 45bd cd4f 16be bdc0 253d ac3d 0b3d
000002d0: f6a4 20be 11e9 d5bd 26c4 bfbd bb38 a43c
000002e0: d378 f4bc a3cb 82bd 2f36 2d3d c635 38bd
000002f0: 8718 8e3d 323d 98bb 1137 b53d 1797 0bbe
00000300: 0dcc a73b 3fa7 90bc 186e 9fbd 1256 41bd
00000310: 45e9 3fbd eac6 59bc df15 b1bd 35e0 05bd
00000320: 007e 8a3d 426c 313d f885 67be 6cb4 4c3e
00000330: 358d c63d 8505 28be cb41 063d 6196 4c3d
00000340: 48da b33c d28c b6bd a836 d33d 0689 33bb
00000350: 00e5 4cbe 11ed 7cbc cf6c f8bc 6ca1 a1be
00000360: 10e8 5c3e 6f42 4f3c 37a4 0abd fdc0 43be
00000370: b71b 4b3d 8224 0dbe d1f0 9cbd 83c3 763d
00000380: f263 bd3d 8110 d0bd 213a 3abe b8e2 af3d
00000390: b122 1ebd 37da 06bd 1bd0 fc3d 3003 8dbd
000003a0: ffcd 3cbd 1b9a b9bc 716b 42be 5e17 39be
000003b0: da14 ac3d 528d f23d e2df 073d 8531 e63c
000003c0: 7b62 033e e58c dc3c debe 42bd 8cbe 73bd
000003d0: f4a8 5bbe c61a 63bd eb8e 2c3c 0a1c 403c
000003e0: bf18 f13b 0083 e03d 3253 41be cc1e cd3d
000003f0: 7162 37be 5c27 59be 5f0a 78be 5db0 643d

mlp_1/MLP_0_1/hidden_1_1/BiasAdd/ReadVariableOp:0 f4 [256]
-0.1820659 -0.074191324 -0.19745873 -0.118385606 -0.24018237 -0.15769124 -0.19990224 -0.10029437
-0.20780472 -0.12553853 -0.12521333 -0.18667369 -0.14808762 -0.23294802 -0.08785378 -0.01024228
-0.110738106 -0.07074756 -0.03717135 -0.16723081 -0.21587312 -0.03622055 0.03047809 -0.25283796
-0.25796658 -0.07872526 -0.08900628 -0.13444209 -0.25922638 0.040930122 -0.13631482 -0.20510904
-0.123477 -0.35542664 -0.13692749 -0.2980798 -0.0731139 -0.053323187 -0.022786962 -0.18936673
-0.08640261 -0.12976119 0.041162007 -0.16219611 0.060293075 -0.088972434 -0.2328575 -0.06003165
-0.05917047 -0.22422567 -0.21945992 -0.16084947 -0.1994339 -0.15101972 -0.29960603 -0.11293917
-0.103445806 -0.061624672 -0.218623 -0.041816052 -0.15297975 -0.11995436 -0.08324768 -0.17180401
-0.035899486 -0.22459318 -0.14193286 -0.10021239 -0.011860537 -0.34617725 -0.08522771 -0.07913687
-0.056999583 -0.21394308 -0.09007928 -0.12287049 -0.12856312 -0.07719023 -0.13405448 -0.2057228
-0.10144236 -0.08706566 -0.2331359 -0.06949497 -0.042070918 -0.10790399 -0.0039401744 -0.09881351
-0.13871713 -0.19641808 0.094580196 0.031750817 -0.14358778 -0.19629641 -0.14367643 0.024507895
-0.09918389 -0.15463379 -0.17340906 -0.09856677 -0.040402636 -0.111853905 -0.046053205 -0.071209945
-0.14765425 -0.08959461 -0.061917007 -0.2008114 -0.2481926 -0.2405576 0.05482946 -0.040491477
0.026132684 -0.2646883 -0.10802835 -0.17510915 -0.06338065 -0.17512819 -0.083420925 -0.08376714
-0.18935412 -0.20486644 -0.18039154 -0.106172934 -0.119182475 -0.04736115 -0.20398112 -0.047025185
-0.14369006 -0.1637541 0.019968066 -0.26123685 -0.19473554 -0.09176549 -0.06459342 -0.1512008
-0.1457935 0.055108845 -0.09492942 -0.19010726 0.08320281 -0.093056895 -0.01586042 -0.0631227
-0.13065016 -0.21635322 -0.17716333 -0.045578726 0.08996321 0.09116259 0.002165616 -0.0073050596
-0.10684568 -0.18590626 -0.268738 -0.16196626 -0.19294669 -0.1900684 -0.1427133 -0.18079129
-0.024144098 -3.464902e-05 -0.08798088 -0.08920724 -0.069779895 -0.014262564 -0.24694668 -0.19650671
-0.038256966 -0.22449335 -0.11870655 0.016454924 -0.0865059 -0.058224455 -0.03940413 -0.255812
-0.13948132 -0.124928646 -0.08059743 -0.06985785 -0.1711448 -0.06806923 -0.10963119 -0.07368481
-0.067801066 -0.24227409 -0.13956703 -0.07102163 -0.19882444 0.0038904622 -0.11516713 -0.053611875
-0.0962548 -0.2576674 -0.09097573 -0.21905504 -0.20909205 -0.10569123 -0.16392288 -0.095979445
0.16047595 -0.09069211 -0.16646782 -0.09737758 -0.20403695 -0.050248515 -0.08494113 -0.16190073
-0.06227818 -0.16480243 -0.060614783 0.10798954 -0.074714474 -0.1218763 -0.137795 -0.076474905
-0.09739612 -0.096637666 -0.07641629 -0.21265101 -0.11017949 -0.07534311 -0.30969632 -0.03709875
-0.11026033 -0.21165258 -0.084890395 -0.101014085 0.027739637 -0.17930733 -0.16020645 0.01640519
-0.09868976 -0.06923054 -0.116606854 0.031567026 -0.09679495 -0.07984903 -0.10941562 -0.14306402
-0.1623492 -0.027727623 0.04827905 -0.48181182 -0.09320223 -0.047485422 -0.16885054 -0.10608729
-0.12898901 -0.14218117 -0.12265338 -0.21218395 -0.26736757 -0.19599244 -0.19635865 -0.12950411
00000000: 7c6f 3abe 9ff1 97bd 9f32 4abe 2774 f2bd
00000010: 5ef2 75be d079 21be 2cb3 4cbe 2267 cdbd
00000020: c3ca 54be 2c8d 00be ec37 00be 6327 3fbe
00000030: 48a4 17be ed89 6ebe afec b3bd 3ccf 27bc
00000040: a9ca e2bd 19e4 90bd fc40 18bd 8e3e 2bbe
00000050: d80d 5dbe 005c 14bd 30ad f93c fa73 81be
00000060: 3214 84be b63a a1bd ed48 b6bd 30ab 09be
00000070: 52b9 84be 58a6 273d 1d96 0bbe 1b08 52be
00000080: 82e1 fcbd 7bfa b5be b836 0cbe ea9d 98be
00000090: bebc 95bd 6a69 5abd b9ab babc 5ae9 41be
000000a0: daf3 b0bd 1ee0 04be 7e99 283d bd16 26be
000000b0: dff5 763d 2e37 b6bd 3272 6ebe bfe3 75bd
000000c0: bc5c 72bd 6a9b 65be 1aba 60be b9b5 24be
000000d0: 6638 4cbe eaa4 1abe f665 99be a74c e7bd
000000e0: 65db d3bd 276a 7cbd b5de 5fbe 4f47 2bbd
000000f0: b9a6 1cbe a2aa f5bd c27d aabd 64ed 2fbe
00000100: 570b 13bd c1fb 65be d956 11be 273c cdbd
00000110: b352 42bc 253e b1be de8b aebd 8312 a2bd
00000120: 6578 69bd e513 5bbe 7c7b b8bd 86a3 fbbd
00000130: 0da6 03be e915 9ebd 9445 09be ffa8 52be
00000140: 03c1 cfbd 7b4f b2bd 2dbb 6ebe 6153 8ebd
00000150: 8e52 2cbd c4fc dcbd 941c 81bb bd5e cabd
00000160: dd0b 0ebe d221 49be 43b3 c13d 250d 023d
00000170: ad08 13be ed01 49be ea1f 13be c8c4 c83c
00000180: ec20 cbbd 5258 1ebe 2592 31be 60dd c9bd
00000190: 3c7d 25bd a913 e5bd 49a2 3cbd 85d6 91bd
000001a0: ad32 17be 617d b7bd b09c 7dbd 81a1 4dbe
000001b0: 3326 7ebe bb54 76be db94 603d 64da 25bd
000001c0: 3614 d63c 3a85 87be f83d ddbd d04f 33be
000001d0: b7cd 81bd ce54 33be 97d8 aabd 1b8e abbd
000001e0: 0ce6 41be 82c8 51be 8fb8 38be 3271 d9bd
000001f0: f115 f4bd c4fd 41bd 6de0 50be 7b9d 40bd
00000200: 7d23 13be 28af 27be 1294 a33c d6c0 85be
00000210: c168 47be 8cef bbbd 8e49 84bd 62d4 1abe
00000220: e44a 15be d0b9 613d 5b6a c2bd 7aab 42be
00000230: 3c66 aa3d 9d94 bebd b6ed 81bc 7946 81bd
00000240: 28c9 05be b38b 5dbe 4e6a 35be c2b0 3abd
00000250: a23e b83d 74b3 ba3d 02ed 0d3b 485f efbb
00000260: e8d1 dabd 365e 3ebe 0798 89be 7cda 25be
00000270: d193 45be 4aa1 42be 6f23 12be 5a21 39be
00000280: d8c9 c5bc 1a54 11b8 522f b4bd 49b2 b6bd
00000290: c3e8 8ebd 87ad 69bc 97df 7cbe 0e39 49be
000002a0: 56b3 1cbd 96e1 65be 6b1c f3bd 7acc 863c
000002b0: 012a b1bd c47c 6ebd 3a66 21bd caf9 82be
000002c0: 31d4 0ebe 97da ffbd 4410 a5bd a211 8fbd
000002d0: 9540 2fbe e167 8bbd 5186 e0bd 10e8 96bd
000002e0: 49db 8abd b316 78be a9ea 0ebe ca73 91bd
000002f0: a298 4bbe 20f7 7e3b bfdc ebbd 2098 5bbd
00000300: 3d21 c5bd fbec 83be 7c51 babd f74f 60be
00000310: 3a1c 56be a574 d8bd 66db 27be df90 c4bd
00000320: cf53 243e c9bc b9bd 8a76 2abe e66d c7bd
00000330: 10ef 50be 63d1 4dbd 9df5 adbd 4ec9 25be
00000340: 6817 7fbd f8c1 28be 3547 78bd 9f29 dd3d
00000350: e703 99bd 489a f9bd 221a 0dbe e09e 9cbd
00000360: 9e77 c7bd f8e9 c5bd 2580 9cbd 30c1 59be
00000370: c9a5 e1bd 7d4d 9abd 8490 9ebe dcf4 17bd
00000380: 2bd0 e1bd 74bb 58be 04db adbd 79e0 cebd
00000390: 3c3e e33c 579c 37be 290d 24be 2d64 863c
000003a0: db1d cabd bec8 8dbd 93cf eebd 6d4c 013d
000003b0: 6e3c c6bd e387 a3bd 4c15 e0bd 607f 12be
000003c0: de3e 26be 0a25 e3bc 41c0 453d 0ab0 f6be
000003d0: d0e0 bebd 1380 42bd 28e7 2cbe 4b44 d9bd
000003e0: b215 04be f197 11be b231 fbbd c046 59be
000003f0: 67e4 88be 3eb2 48be 3e12 49be ba9c 04be

mlp_1/MLP_0_1/hidden_0_1/Cast/ReadVariableOp:0 f4 [52, 512]
-0.4967343 0.40365228 -0.50221586 -0.023879418 0.01992367 0.10330901 0.5522813 0.052506678
0.3054697 -0.6887684 0.046953373 -0.30730572 -0.034366284 -0.3649419 -0.08659227 -0.059102405
-0.10251367 -0.0022301471 0.28067866 0.13459146 0.27351704 0.09181838 0.2503903 0.21516126
-0.12733836 -0.28606972 -0.36735418 -0.41106308 -0.28071275 0.15347557 0.00585562 -0.038320344
-0.28056046 -0.17600267 0.24283211 -0.11795528 0.2002123 -0.30094698 -0.0670103 0.35014975
0.0038502687 0.40492097 0.22148728 -0.061680354 0.10083338 -0.007829576 -0.3846683 -0.48745912
-0.14299582 0.104907855 -0.055334624 -0.0827398 -0.15025617 0.26388317 0.30309004 0.2791302
-0.5100098 0.39678568 -0.2203941 -0.39334708 0.12646566 0.25844768 0.044196803 0.09243936
-0.30076715 0.38290238 -0.2597955 -0.09308802 -0.030161556 -0.084237136 0.35216558 -0.2522292
0.2134192 -0.26960385 0.5238236 -0.4327837 -0.30329424 -0.29210824 -0.24770048 0.18459947
0.3416683 -0.14361371 -0.14217757 -0.10789839 -0.50240195 -0.46642855 0.08248536 -0.22270288
0.35379767 -0.16488747 -0.26205 -0.22891347 -0.045361243 -0.26752606 -0.10588322 -0.259445
-0.36467066 0.29195067 0.38873607 0.1749411 0.1355684 -0.12298378 0.38107273 0.28727186
-0.21257943 0.08533947 -0.018014548 0.1564932 -0.25759476 -0.3969655 -0.15658996 -0.6304186
0.17908922 0.21223477 0.19843888 0.13529333 0.00079223723 -0.14392969 -0.034096465 -0.2271303
0.0067919376 0.1667023 0.24333921 -0.2499808 0.058739122 0.20957007 -0.2709848 0.2996078
-0.16895415 0.31358916 0.13425705 0.3023449 -0.1952531 0.32278123 -0.13816269 0.22024667
0.08855293 0.06133392 0.39208898 -0.52008927 -0.2880204 -0.033929214 0.109894656 -0.157499
0.023917256 0.29373756 -0.29354784 0.058808003 -0.41767055 0.35015896 -0.27232367 0.088243425
0.19914079 0.36154193 -0.023299534 -0.3632175 0.11456322 0.005351019 0.08602271 -0.33023518
-0.33332676 0.25569305 0.07300638 -0.48167455 -0.35441566 0.44864225 -0.16120748 -0.12190724
0.13041922 -0.36245137 -0.05452467 -0.27626908 -0.37764984 0.12144497 0.2937951 -0.040692937
0.51875335 0.03715624 -0.32104027 -0.27317822 -0.047239885 0.091149636 -0.30592832 0.56173986
-0.5519401 -0.13627434 -0.30999455 0.16359156 -0.26597968 -0.1295392 0.4075464 0.08965129
0.1658725 -0.37638223 -0.19526684 -0.00561919 0.06711842 -0.16660531 0.10510242 0.4019081
0.28060058 -0.47350138 -0.03566432 -0.36069053 0.14550678 -0.091171175 0.1461762 -0.035814147
0.0150188655 -0.33445308 0.5002379 -0.2796115 -0.22653377 -0.36953205 0.14889878 0.5060815
0.43669856 0.11421872 -0.10253646 -0.12837133 -0.091608144 -0.517875 -0.4623991 -0.30833906
0.51501757 -0.019136693 0.13745643 -0.17655256 -0.05509072 0.052816477 0.23067138 -0.12148833
-0.30831012 0.2869293 -0.025406023 -0.3202059 0.2686118 -0.2984075 -0.066743955 -0.13889039
0.17928852 -0.024283513 0.12638912 -0.14971875 -0.31853947 -0.010319411 0.05235457 0.20498544
0.48326382 -0.1634366 0.11828192 0.0807446 -0.108675204 -0.22564106 -0.13665481 -0.46732426
00000000: f553 febe 83ab ce3e 3891 00bf c59e c3bc
00000010: f736 a33c ad93 d33d 4f62 0d3f 3e11 573d
00000020: 8666 9c3e 2053 30bf 2e52 403d 2d57 9dbe
00000030: a9c3 0cbd aad9 babe 4a57 b1bd 5d15 72bd
00000040: b0f2 d1bd a927 12bb 1db5 8f3e 58d2 093e
00000050: 6d0a 8c3e 460b bc3d 2833 803e 3c53 5c3e
00000060: fd64 02be bb77 92be d915 bcbe dc76 d2be
00000070: 95b9 8fbe b328 1d3e 80e0 bf3b cbf5 1cbd
00000080: 9fa5 8fbe 0b3a 34be fba8 783e 8a92 f1bd
00000090: 7404 4d3e b915 9abe b23c 89bd d446 b33e
000000a0: ca54 7c3b cd51 cf3e 90cd 623e 8aa4 7cbd
000000b0: bb81 ce3d 9f47 00bc 3ef3 c4be 3e94 f9be
000000c0: 7f6d 12be eed9 d63d 8fa6 62bd 7c73 a9bd
000000d0: c1dc 19be b21b 873e 9e2e 9b3e 27ea 8e3e
000000e0: 0190 02bf 7e27 cb3e feae 61be ca64 c9be
000000f0: 3780 013e 4153 843e b507 353d d950 bd3d
00000100: 27fe 99be c80b c43e ea03 85be efa4 bebd
00000110: 5e15 f7bc 8584 acbd 0c4f b43e 3024 81be
00000120: 908a 5a3e 8409 8abe 4e19 063f d395 ddbe
00000130: 6249 9bbe 368f 95be 32a5 7dbe a507 3d3e
00000140: 26ef ae3e 790f 13be ff96 11be d5f9 dcbd
00000150: 6a9d 00bf b9cf eebe 16ee a83d 390c 64be
00000160: f824 b53e 43d8 28be 6b2b 86be 4b68 6abe
00000170: b6cc 39bd 2df9 88be 4dd9 d8bd fad5 84be
00000180: 1db6 babe 8f7a 953e 6a08 c73e c223 333e
00000190: 71d2 0a3e ecde fbbd f71b c33e 4c15 933e
000001a0: 6cae 59be 76c6 ae3d 3f93 93bc c13f 203e
000001b0: 76e3 83be 103f cbbe 1e59 20be 1d63 21bf
000001c0: 2a63 373e 1254 593e 9033 4b3e 568a 0a3e
000001d0: 24ae 4f3a 4e62 13be bca8 0bbd d894 68be
000001e0: e78e de3b 02b4 2a3e ea2d 793e f8fa 7fbe
000001f0: 6f98 703d 8999 563e 85be 8abe 3266 993e
00000200: 5102 2dbe c28e a03e ae7a 093e f3cc 9a3e
00000210: 6ef0 47be 9543 a53e 857a 0dbe 5888 613e
00000220: 3d5b b53d 4739 7b3d e3bf c83e 9224 05bf
00000230: 6977 93be 5cf9 0abd 7310 e13d 6b47 21be
00000240: 1fee c33c c564 963e e74b 96be a9e0 703d
00000250: ead8 d5be 0948 b33e 026e 8bbe f8b8 b43d
00000260: 90eb 4b3e 061c b93e aade bebc a5f7 b9be
00000270: 1fa0 ea3d 9a57 af3b ad2c b03d 9614 a9be
00000280: cea9 aabe 33ea 823e 5e84 953d 0c9e f6be
00000290: f875 b5be 70b4 e53e 9313 25be 81aa f9bd
000002a0: 9e8c 053e 3a93 b9be 4355 5fbd 2473 8dbe
000002b0: 525b c1be 24b8 f83d 506c 963e a3ad 26bd
000002c0: 05cd 043f 2431 183d 645f a4be 04de 8bbe
000002d0: 9c7e 41bd a9ac ba3d a3a2 9cbe 2fce 0f3f
000002e0: f24b 0dbf 808b 0bbe 9bb7 9ebe 8c84 273e
000002f0: 7d2e 88be eda5 04be eca9 d03e 189b b73d
00000300: 7bda 293e 2cb5 c0be 08f4 47be 2f21 b8bb
00000310: 6275 893d 959a 2abe f03f d73d e6c6 cd3e
00000320: e1aa 8f3e c66e f2be c014 12bd 6eac b8be
00000330: bbff 143e f4b7 babd 37af 153e dbb1 12bd
00000340: b011 763c 6f3d abbe 970f 003f 3d29 8fbe
00000350: 78f8 67be 4e33 bdbe ec78 183e 8f8e 013f
00000360: f496 df3e 81eb e93d a3fe d1bd c673 03be
00000370: 0d9d bbbd 7593 04bf 93bf ecbe 9ede 9dbe
00000380: 31d8 033f 8ec4 9cbc 61c1 0c3e 32ca 34be
00000390: cfa6 61bd 1756 583d 1e35 6c3e e0ce f8bd
000003a0: d3da 9dbe 66e8 923e 4b20 d0bc 07f2 a3be
000003b0: 7c87 893e dec8 98be 0eb1 88bd 4839 0ebe
000003c0: 6997 373e 38ee c6bc 266c 013e df4f 19be
000003d0: 9b17 a3be bf12 29bc bf71 563d b4e7 513e
000003e0: 5b6e f73e ed5b 27be cb3d f23d 6d5d a53d
000003f0: 1b91 debd 730e 67be 3def 0bbe 2045 efbe

mlp_1/MLP_0_1/hidden_0_1/BiasAdd/ReadVariableOp:0 f4 [512]
-0.11278516 -0.25209987 -0.30717248 -0.18386717 -0.30485958 -0.23291661 -0.10735665 -0.13987435
-0.1392401 0.0037478753 -0.24554896 -0.080488294 -0.4499531 -0.14883931 -0.25875774 0.022367029
-0.079066664 -0.09924901 0.15020666 -0.15849312 -0.22646055 -0.1337963 -0.26877576 -0.3759254
0.0009119572 -0.23429744 -0.22941469 -0.43142387 -0.45180103 -0.40022513 -0.51218516 -0.31383398
-0.19538906 0.004544557 -0.24817453 -0.06334332 -0.09507009 -0.18783523 0.055447903 -0.140891
-0.039324522 -0.045337748 -0.13030942 -0.21598236 -0.07174702 -0.15374418 0.018657079 -0.032521185
-0.1737396 -0.2023794 -0.25754333 -0.12913077 0.05262478 -0.121285714 -0.15919611 0.01993355
-0.055844404 -0.024981216 -0.27266476 -0.35165066 -0.0863133 -0.07904748 -0.10705136 -0.18430473
-0.26148072 -0.12606142 -0.24806452 -0.30589098 -0.11939901 0.00027922812 0.061261166 -0.024283389
-0.24973589 -0.059048057 -0.0039609587 -0.11341116 -0.06834336 -0.24514365 -0.04479884 -0.29676747
-0.1529766 -0.14512771 -0.033386648 -0.15746023 -0.10752474 -0.11476084 -0.21263821 -0.43025044
-0.28376803 -0.17028286 -0.21397647 -0.020476587 -0.19707398 -0.075359724 -0.28786772 -0.023906201
-0.49376667 -0.14439906 -0.20156825 -0.19474596 -0.29025257 -0.24107099 -0.15439214 -0.033640187
-0.25501218 0.007646351 0.13436857 -0.21686508 -0.0025850132 -0.3237639 -0.17346612 -0.023714231
-0.2515319 -0.23400533 -0.043719318 -0.24136068 -0.35424626 -0.08183583 -0.24239647 -0.0508593
-0.05845977 -0.22321916 -0.3506746 -0.061106026 -0.050035216 0.022712339 -0.080192894 -0.22997141
-0.082889184 -0.20258655 -0.06788508 -0.1402985 -0.18966483 -0.20374161 0.19101329 -0.13421649
-0.083731614 -0.32015744 0.0052979644 -0.044561844 -0.4009454 -0.0931924 -0.26891667 0.10048413
-0.21528895 -0.29058582 -0.06311896 0.09541903 -0.04230073 -0.18174948 -0.13451971 -0.31020913
-0.21789174 -0.23590389 -0.0333357 0.0024773849 -0.09140023 -0.30124915 -0.28504407 0.07243531
-0.10494 -0.13233657 -0.10973996 0.13151781 -0.25358695 -0.110764295 -0.01487352 -0.26048768
-0.22855513 -0.16912243 -0.3260906 -0.16346622 -0.0016403679 -0.06566404 0.00070864 -0.008483323
-0.2449615 -0.35678822 -0.149786 -0.17431709 -0.006314234 -0.21205379 -0.044224497 -0.15549594
-0.081099294 -0.21253724 -0.25001085 -0.18129525 -0.26142395 -0.15995173 -0.07753545 -0.32503074
-0.3006 -0.049224734 -0.21793118 -0.3046139 0.017308218 -0.06167949 -0.15260045 -0.082687505
-0.060038254 -0.30813786 -0.36539286 -0.21710916 -0.043223973 -0.07998048 -0.1614089 -0.37210336
0.06881068 -0.001648684 -0.26923767 -0.080372006 -0.065340474 -0.23700693 -0.21188532 -0.0595722
0.026689392 -0.19719109 -0.326123 -0.13514563 -0.3825305 -0.11760093 -0.03710179 -0.19007654
-0.24452811 -0.16059858 -0.19008158 -0.2823774 -0.15381029 -0.26070616 -0.09086574 -0.15907887
-0.112575844 -0.12911326 -0.47706625 -0.28116155 0.037931368 -0.101342864 -0.15906113 -0.19333437
-0.22846183 -0.044940393 -0.04364885 -0.17559223 -0.30311137 -0.16915818 -0.25859746 -0.4398319
-0.10805863 -0.4525493 -0.2580626 0.13207518 -0.05636221 -0.014666425 -0.18378866 0.04631865
00000000: e8fb e6bd 3c13 81be b645 9dbe ad47 3cbe
00000010: 8e16 9cbe b181 6ebe cedd dbbd 393b 0fbe
00000020: f594 0ebe ea9e 753b 3071 7bbe 0cd7 a4bd
00000030: 4160 e6be 5569 18be e57b 84be 0f3b b73c
00000040: b4ed a1bd 1143 cbbd c6cf 193e 054c 22be
00000050: 46e5 67be e601 09be fa9c 89be 4b79 c0be
00000060: 6910 6f3a abeb 6fbe afeb 6abe 97e3 dcbe
00000070: 7752 e7be 4fea ccbe 911e 03bf d9ae a0be
00000080: 1214 48be 82ea 943b 7721 7ebe 24ba 81bd
00000090: 1bb4 c2bd e157 40be 571d 633d bb45 10be
000000a0: c012 21bd 13b4 39bd d56f 05be 7b2a 5dbe
000000b0: 1af0 92bd 1d6f 1dbe bbd6 983c ef34 05bd
000000c0: cbe8 31be 8c3c 4fbe b8dc 83be db3a 04be
000000d0: 158d 573d a564 f8bd 4e04 23be af4b a33c
000000e0: 1abd 64bd 68a5 ccbc b79a 8bbe 8e0b b4be
000000f0: 07c5 b0bd a5e3 a1bd be3d dbbd 61ba 3cbe
00000100: cde0 85be 3f16 01be a004 7ebe be9d 9cbe
00000110: 7887 f4bd 5d65 9239 fdec 7a3d f5ed c6bc
00000120: c4ba 7fbe 60dc 71bd eeca 81bb 1c44 e8bd
00000130: 9bf7 8bbd f006 7bbe fd7e 37bd e8f1 97be
00000140: e6a5 1cbe 5c9c 14be 70c0 08bd 413d 21be
00000150: ee35 dcbd bb07 ebbd d5bd 59be c949 dcbe
00000160: 0b4a 91be a15e 2ebe a61c 5bbe 84be a7bc
00000170: c3cd 49be 3356 9abd 6663 93be f0d6 c3bc
00000180: fcce fcbe 59dd 13be e867 4ebe 7c6b 47be
00000190: fc9b 94be 50db 76be f918 1ebe 4bca 09bd
000001a0: f590 82be 3e8e fa3b ea97 093e e111 5ebe
000001b0: 5369 29bb 62c4 a5be 1aa1 31be 5944 c2bc
000001c0: cac8 80be 189f 6fbe 0713 33bd 4127 77be
000001d0: c45f b5be 8b99 a7bd c836 78be d751 50bd
000001e0: 8373 6fbd 9093 64be 9f8b b3be 504a 7abd
000001f0: baf1 4cbd 3a0f ba3c 2c3c a4bd a07d 6bbe
00000200: cec1 a9bd d972 4fbe 5507 8bbd 69aa 0fbe
00000210: 7f37 42be a4a1 50be fd98 433e 0c70 09be
00000220: 7b7b abbd adeb a3be 8c9a ad3b 7b86 36bd
00000230: b748 cdbe a8db bebd 72af 89be a0ca cd3d
00000240: b574 5cbe aac7 94be 8344 81bd 0d6b c33d
00000250: 8843 2dbd 891c 3abe 89bf 09be bbd3 9ebe
00000260: 031f 5fbe ca90 71be 048b 08bd 9f5b 223b
00000270: 0b30 bbbd 543d 9abe 4cf1 91be f758 943d
00000280: c8ea d6bd 3d83 07be 58bf e0bd 9bac 063e
00000290: 26d6 81be 64d8 e2bd 10b0 73bc a45e 85be
000002a0: 5b0a 6abe 6e2e 2dbe 59f5 a6be b063 27be
000002b0: 9d01 d7ba de7a 86bd 06c4 393a a3fd 0abc
000002c0: 30d7 7abe f2ac b6be 8061 19be 2e80 32be
000002d0: a2e7 cebb a124 59be bf24 35bd 543a 1fbe
000002e0: 6317 a6bd 5da3 59be 6c01 80be 76a5 39be
000002f0: 5cd9 85be 63ca 23be e8ca 9ebd 6e6a a6be
00000300: 3ee8 99be e09f 49bd 5a29 5fbe 5af6 9bbe
00000310: f7c9 8d3c a2a3 7cbd 4b43 1cbe 1158 a9bd
00000320: acea 75bd 3fc4 9dbe c614 bbbe dd51 5ebe
00000330: 9f0b 31bd cecc a3bd 6048 25be 5584 bebe
00000340: 9dec 8c3d a818 d8ba 85d9 89be 149a a4bd
00000350: 3ad1 85bd f2b1 72be 77f8 58be fb01 74bd
00000360: b6a3 da3c 76ec 49be 98f9 a6be 9e63 0abe
00000370: 0adb c3be c2d8 f0bd 0cf8 17bd 6da3 42be
00000380: 9465 7abe f473 24be bfa4 42be c593 90be
00000390: 7280 1dbe 477b 85be d117 babd 92e5 22be
000003a0: 2a8e e6bd 4436 04be 0742 f4be 68f4 8fbe
000003b0: ec5d 1b3d d98c cfbd ece0 22be 72f9 45be
000003c0: e6f1 69be 6b13 38bd 23c9 32bd 73ce 33be
000003d0: 6a31 9bbe cd37 2dbe e366 84be a631 e1be
000003e0: d84d ddbd 8bb4 e7be c820 84be b73e 073e
000003f0: 10dc 66bd 724b 70bc 1833 3cbe a0b8 3d3d

ConstantFolding/mlp_1/truediv_recip:0 f4 [52]
1.8315561 2.6114256 5.05678 1.3895587 1.0507938 1.3446523 7.1182947 9.413101
10.545583 1.8033428 1.8027842 1.8130411 12.0991125 13.372934 5.070681 4.7840333
10.097188 9.267976 12.612137 12.964298 5.3294706 4.7336864 10.336778 9.210476
0.6618959 0.5671723 0.46725824 0.32983974 0.41768867 0.4207282 0.6790116 0.54707134
0.4608113 0.32293937 0.42539427 0.41185576 3.0717142 3.629108 2.0979865 1.3629613
1.8588184 1.9829658 3.29589 3.470817 2.1613472 1.3129278 1.9114151 1.8997048
1.4113821 1.4113821 1.4171144 1.4171144
00000000: 6e70 ea3f 9921 2740 24d1 a140 0fdd b13f
00000010: 6980 863f 911d ac3f 12c9 e340 109c 1641
00000020: b5ba 2841 f0d3 e63f a2c1 e63f bb11 e83f
00000030: f795 4141 8af7 5541 0543 a240 cd16 9940
00000040: 158e 2141 a149 1441 50cb 4941 c46d 4f41
00000050: 068b aa40 5c7a 9740 7163 2541 1c5e 1341
00000060: 0272 293f 3432 113f 793c ef3e c1e0 a83e
00000070: 4adb d53e b069 d73e b4d3 2d3f de0c 0c3f
00000080: 75ef eb3e 4f58 a53e 47cd d93e c2de d23e
00000090: f796 4440 4e43 6840 6945 0640 8475 ae3f
000000a0: c3ed ed3f d3d1 fd3f ddef 5240 de21 5e40
000000b0: 8353 0a40 050e a83f 40a9 f43f 8729 f33f
000000c0: 2ba8 b43f 2ba8 b43f 0164 b53f 0164 b53f
