mujoco_playground/mujoco_playground/experimental/sim2sim/onnx/g1_policy.onnx (onnx, 903543 bytes, 10 tensors)

mlp_1/sub/ReadVariableOp:0 f4 [103]
000000 99 3f 17 bd f1 9a b0 3b f5 b5 ca 3c a4 22 0a ba
       -0.036925886 0.005389564 0.024744967 -0.0005269444
000010 2f e4 15 bd 2f e8 94 bb 08 4f fe bc 56 56 70 ba
       -0.036594566 -0.00454428 -0.031043544 -0.00091681385
000020 45 dd 77 bf a7 3a cd ba 40 c1 4b 39 28 dd 2f 3b
       -0.96822006 -0.0015657739 0.0001943158 0.00268347
000030 61 81 1b bb 4b b1 af bb a2 5b 13 3b ca 2a 02 3e
       -0.002372824 -0.005361711 0.0022485037 0.12711635
000040 2a 3e b9 3c 17 b7 d5 3b d3 14 77 3b ed b9 d0 3b
       0.02261265 0.00652207 0.0037701621 0.0063698203
000050 ba 6d 0d 3b 27 61 f9 3d 4a c5 c2 3c 1e 6d 01 bc
       0.0021580295 0.121767335 0.023775715 -0.007899551
000060 61 af 7e bc 4c 2d dd bb c7 ef 2e bd b8 9b 6b 3b
       -0.015544743 -0.0067497846 -0.04270914 0.003595097
000070 79 f4 cf 3c c4 0d 41 3c b4 17 96 bc 47 24 bb bb
       0.025385128 0.011783067 -0.01832185 -0.0057111117
000080 6a 01 27 3d 3a 0b 91 ba c5 61 32 3c 1b 26 a9 bc
       0.040772833 -0.0011065968 0.010887568 -0.020648053
000090 ed 59 69 bc 95 2f a1 b9 38 fd 5e 3b 74 c6 a8 3c
       -0.014242631 -0.00030743764 0.0034025442 0.020602442
0000a0 0d 6b cf 3c fa 4a cd 3b 5d 55 35 bc 07 53 de 3a
       0.0253196 0.0062650414 -0.0110677155 0.0016962
0000b0 35 9d fa 3c 87 06 51 3c 03 66 02 bc 74 a6 2b 3c
       0.03059254 0.012757904 -0.007958892 0.010476697
0000c0 f9 8c 89 38 3f 6c 58 bc 1a 3d 87 3a 1a 27 7f 3c
       6.558927e-05 -0.013209402 0.0010317892 0.015573287
0000d0 7d f6 67 3b 98 d4 51 bb 37 eb bb 3b c8 d6 77 bc
       0.0035394721 -0.0032017585 0.005734827 -0.015126891
0000e0 87 07 3b bd 25 c7 0f 3c c9 41 4b 3b 92 be 89 3c
       -0.045661476 0.008775507 0.0031014553 0.016814504
0000f0 8b 06 97 3a ce e9 02 bc 7f 1a 47 ba b8 4b 35 bd
       0.0011522336 -0.007990314 -0.0007595196 -0.044261664
000100 be 23 33 bc dd 0e 06 bc fa 8f b5 3c 9a 3d b7 3a
       -0.010933815 -0.008182255 0.02216338 0.0013980151
000110 1b 08 fe bb 5b f1 f4 bb 7b 3f d8 3b 2e a8 49 3e
       -0.007752431 -0.007475061 0.0065993643 0.19693062
000120 ed f3 d8 bd e7 ab dc 3b d0 aa 71 bd cb 6b 27 bd
       -0.105934 0.0067343595 -0.05900079 -0.040874284
000130 d0 31 cf 3b e0 74 4d be 8b 31 ef 3d 74 f1 8c bb
       0.006323077 -0.20064116 0.116793714 -0.0043012444
000140 95 27 7b bd 48 53 e4 3c 3a fe fc bc b8 18 00 bc
       -0.061317045 0.027871743 -0.030882943 -0.007818393
000150 92 ac f9 bd a5 0b 8d bb ae 17 a3 3d 2d 26 ff 3c
       -0.12191118 -0.0043043667 0.07963501 0.031146133
000160 10 54 84 bd 52 0e 49 bc b0 4e 03 be 66 04 76 3c
       -0.06461346 -0.012271481 -0.12822986 0.015015697
000170 f3 d3 46 3c 7e 6d 91 bd 44 92 14 bd e2 11 e5 bc
       0.012135494 -0.07100962 -0.036272302 -0.027962629
000180 a9 09 57 3c ca 80 2b be 40 93 0e 3d 80 c1 27 3b
       0.013124862 -0.16748348 0.034808397 0.0025597513
000190 38 c2 27 bb 9f 7b 77 3a a1 85 77 ba
       -0.002559794 0.0009440723 -0.00094422145

mlp_1/MLP_0_1/hidden_3_1/Cast/ReadVariableOp:0 f4 [128, 58]
000000 93 6e 1e bc 67 4b ee bc 65 32 9b bc 65 b7 36 be
       -0.009669918 -0.029088689 -0.018944928 -0.17843397
000010 e7 cb e3 bc f2 e6 6d 3c a0 da 9a bb e1 3f 8f bd
       -0.02780719 0.014520394 -0.004725769 -0.06994606
000020 38 f4 ba bc 42 18 34 3e c3 3d 02 3b e2 fc a8 3b
       -0.02282153 0.17587379 0.0019873239 0.005157099
000030 07 c2 1c 3d 2a 39 b5 3d c8 08 f2 3c 53 d3 29 bd
       0.038270976 0.08848794 0.029545203 -0.0414613
000040 1b 54 e4 3d ca 0e 16 3d 22 82 d8 3c aa d7 f7 3b
       0.11148854 0.036635198 0.02642924 0.007563551
000050 61 4b ea 3c 3a 6d a0 3d 0a c4 55 3c c7 87 a3 3d
       0.028600397 0.07833333 0.013047228 0.07984882
000060 dc 27 48 3d 50 5b fc 3c ac 7b ea 3d 68 7d 82 bd
       0.048866138 0.03080526 0.1144937 -0.063715756
000070 1d 5e d0 3d 73 3c 7b 3d c0 3a 3f ba ce 0a 97 3c
       0.10174201 0.061336946 -0.0007294826 0.01843777
000080 0c 97 79 3d e7 40 43 bd 63 4d 8b 3c 9e c0 19 3b
       0.060935065 -0.047669318 0.017004674 0.0023460756
000090 d9 5e 17 bd d1 61 7e 3d d6 d5 84 3d 6a 63 3c 3d
       -0.03695569 0.062105004 0.064860985 0.045993246
0000a0 03 85 17 bc 27 52 a9 3d c8 46 a1 3d c5 31 ab 3c
       -0.009248021 0.082676224 0.078748286 0.020897755
0000b0 89 ea da bc c9 fb aa 3d ac cd 0a 3d b8 dd 8f bd
       -0.026723163 0.083488055 0.03388755 -0.07024711
0000c0 48 48 48 3d ad 40 63 3d 31 a3 ac 3d ce c5 ab 3c
       0.048897058 0.0554816 0.08429564 0.020968344
0000d0 a3 9b 7e bc 96 33 b3 bc 4b bc a8 3b 5e ed b3 3b
       -0.015540036 -0.021875184 0.0051493994 0.005490943
0000e0 68 41 03 bc 63 65 df bb e2 52 6c 3d 5e c1 e0 bd
       -0.0080111995 -0.006817506 0.05769623 -0.10974382
0000f0 9e 71 02 3d bb da 2e be ec 03 6d be 37 89 e4 3d
       0.031846635 -0.17075627 -0.23146027 0.11158984
000100 bd 69 21 bd e8 0d b4 3d 17 d7 12 be 3b 7c 55 be
       -0.03940748 0.08791715 -0.14339863 -0.20848171
000110 ca 1e b8 bc c8 15 ab 3d 9e 03 3b 3d 51 4f c7 bb
       -0.022475619 0.08353764 0.045657746 -0.0060824533
000120 16 bf ea 3d be b3 8b 3c 90 15 80 bd 62 42 57 3c
       0.11462228 0.017053481 -0.06254113 0.0131383855
000130 3a 07 d6 3c 21 5f 9a 3c 94 f9 92 3d 02 ca 43 bd
       0.026126493 0.01884419 0.071765095 -0.04780007
000140 16 26 68 3d 41 aa 83 3c 2e ab 45 3d 34 00 a6 3c
       0.056676947 0.016072394 0.048258953 0.020263769
000150 fa 6c fa bd a0 f2 09 3e ff 36 89 3d 7a 34 13 3e
       -0.12227817 0.1347146 0.06699943 0.14375487
000160 a9 dd 7b 3d 47 ca 87 3e 19 37 f0 3d f1 23 c1 3c
       0.06149069 0.26521513 0.11729259 0.023576709
000170 d6 1c ac bd bc 36 27 3e b1 22 56 3e 3b c2 50 3e
       -0.084039375 0.16329473 0.20911671 0.20386593
000180 b8 98 c6 3d 70 2b b6 3c d1 30 91 3d 9b 8b ac 3e
       0.096970975 0.02223751 0.07089389 0.3370026
000190 49 65 4d 3e bf 80 3f 3e 93 34 5e 3e 73 c9 34 3e
       0.20058168 0.18701456 0.21699743 0.17654972
0001a0 a7 ca 8d 3d 9d ee 20 3e 4b 00 15 3d 6c 82 53 3d
       0.069234185 0.15716024 0.036377233 0.051638052
0001b0 a3 1f a5 3c d4 9c 8a 3e d0 be f3 3d 8e 37 d7 3d
       0.020156687 0.27072775 0.11901629 0.10508643
0001c0 8e f2 54 3e a3 40 a0 bd 14 ee b8 3d 9a f9 48 3d
       0.20795652 -0.078248285 0.09029785 0.049066164
0001d0 04 58 09 bd 22 c3 9c 3d a8 b0 37 3c 28 b3 af 3c
       -0.033531204 0.07654406 0.011211552 0.021447733
0001e0 8c cd ed bc 30 e9 4a 3e ce 54 0f 3d be e7 79 3c
       -0.029028676 0.19815516 0.034992985 0.015253006
0001f0 ab 2b f1 3c 13 72 88 3d 2e 35 f5 3d 95 3f 12 3d
       0.029439768 0.06662383 0.11973034 0.035705168
000200 9e 90 48 bd 49 fa 07 bc 27 ec 86 bc 8c 06 a3 3b
       -0.048966043 -0.008299419 -0.016470028 0.0049751457
000210 ac 21 2d bb e6 fe 49 bc cf 8f 3d 3c 3e e0 9d 3d
       -0.0026417775 -0.012328839 0.011569931 0.077087864
000220 42 c5 a1 3a 55 f1 18 be 6a d7 5c bc 7a 45 06 3d
       0.0012342113 -0.14935811 -0.013479093 0.0327811
000230 73 f5 03 3d 7b 21 a1 bb 98 35 af bd 63 d0 88 3e
       0.0322165 -0.0049173213 -0.08555144 0.26721486
000240 54 77 20 3e 4c 08 25 3e 80 73 97 3d 7c de 35 3e
       0.1567052 0.16116446 0.07395077 0.17760652
000250 7f e1 fe 3d 1a 4f ab bd 5a 14 c6 bd 0e 3e 35 bd
       0.12445354 -0.08364697 -0.096718505 -0.044248633
000260 41 e8 a9 3c 3e 3a d7 3d 7f 13 52 3d af 55 95 3d
       0.02074063 0.10509156 0.051288124 0.072917335
000270 86 36 81 3d 22 02 04 3e fb b1 f7 3d a6 ae a8 3d
       0.06309228 0.12891439 0.12094494 0.082364365
000280 55 7a 6f 3d 06 7d 21 3d 23 11 f8 3d 51 13 b8 3d
       0.058466274 0.039425872 0.121126436 0.08988059
000290 2e 30 ec 3d 34 ef e0 b9 18 63 b3 bc 56 1d 4f 3d
       0.11532627 -0.0004290283 -0.021897838 0.050565086
0002a0 74 a8 ed bc 24 14 c4 3d 11 0a 3d 3c 91 f0 86 3d
       -0.029010989 0.09574154 0.011538045 0.06588853
0002b0 c4 7c 6a bc f0 a3 77 3d d6 a5 23 3d f6 76 22 bd
       -0.014311973 0.060459077 0.039953075 -0.03966423
0002c0 f5 e7 26 bc 25 a1 a7 bd 11 6e 5d 3d ce ca a4 3d
       -0.010187139 -0.08185033 0.054060046 0.080464944
0002d0 ef 67 07 3d 37 73 0e bd b9 16 2a 3b 9f 55 c9 3c
       0.033058103 -0.034777846 0.0025953485 0.02457696
0002e0 7b f9 0a 3d 0b 7b 6b bd 0e d6 75 3c 84 31 11 bd
       0.03392933 -0.05749039 0.015004648 -0.035447612
0002f0 10 b5 cf ba 77 ee 1f 3d 86 4d 3a bd ce 5a 6d 3d
       -0.0015846808 0.039045777 -0.04548409 0.057947926
000300 c0 3f 2e bc e4 6d 9f be b0 aa 3b be 38 77 98 bd
       -0.010635316 -0.31138527 -0.18326831 -0.07444614
000310 1a 4c 90 3a a3 ae ff bc 0a 17 7c 3c 82 77 3f 3d
       0.0011009008 -0.031211203 0.015386352 0.04674483
000320 8b 1b 2e be 70 e9 94 be a1 a9 8a bd d0 4d b8 3d
       -0.17002694 -0.2908435 -0.067706354 0.089992166
000330 a6 fc 2d 3e 25 19 e5 3d 6a d7 14 3e 4f 18 f8 bd
       0.16990909 0.111864366 0.14535299 -0.121140115
000340 0b e8 05 3e 48 b2 d2 3d 34 63 0e 3e 4d d9 4f 3d
       0.13076799 0.10287911 0.1390503 0.050744344
000350 da bd a0 3d 1b 78 77 bc 23 1f 45 3d 56 86 c8 3d
       0.07848711 -0.015104319 0.048125397 0.097912475
000360 eb 88 7d 3d 38 b9 7b 3d 5a 3d 6f 3d 8e 84 a7 bc
       0.061898153 0.061455935 0.05840812 -0.02044895
000370 10 ce c4 3c b1 df e5 3c 9b 10 1c 3e c9 3d 04 bc
       0.02402404 0.028060766 0.1524071 -0.008071371
000380 94 0a 56 3d 4e d9 19 3d db e8 74 3d 58 1b d1 3d
       0.05225618 0.037560754 0.05979238 0.102102935
000390 17 74 d5 3c be 73 8f 3d cb af a5 3d 92 92 68 bc
       0.026056333 0.07004498 0.080901705 -0.014195101
0003a0 4e a6 32 bc b7 1f 81 b9 2c 2b 96 bc 40 01 30 3d
       -0.010903908 -0.00024628427 -0.018331133 0.042969942
0003b0 f3 f5 fa bd 4c da 55 bc 13 f9 07 3d 08 48 9b 3d
       -0.12253942 -0.013052534 0.03319652 0.07582098
0003c0 76 be 96 3d f0 68 f3 ba 39 0a d4 bc 4e 95 d3 bd
       0.07360546 -0.0018570703 -0.02588378 -0.10331212
0003d0 d7 20 a5 bd d7 11 f0 bd 67 b2 b1 bc 41 c9 ab bd
       -0.08062904 -0.11722153 -0.021691514 -0.083879955
0003e0 04 45 a6 bd 72 16 4e bd 8c 2b 38 3d f6 47 47 3e
       -0.081186324 -0.050314374 0.044963405 0.19461045
0003f0 cb 91 6f 3e a3 1e d6 3d 07 46 02 be a1 01 c0 bd
       0.2339546 0.10455062 -0.12722026 -0.09375311

mlp_1/MLP_0_1/hidden_3_1/BiasAdd/ReadVariableOp:0 f4 [58]
000000 cb 27 59 bc fc de ef 3d 55 ac 0d bc 77 c5 00 bc
       -0.013254116 0.11712453 -0.008647044 -0.007859579
000010 ca fe c6 bc cd c2 0a 3d 69 63 a7 bd 0e 37 1d bd
       -0.024291415 0.033877183 -0.08173258 -0.038382582
000020 4c b9 40 3d e3 f1 9b bc 71 1f d3 bc f4 49 f8 3b
       0.047051713 -0.019036239 -0.025771828 0.0075771753
000030 7f 81 de bc d4 fa 47 bb 22 ee 2c be 8d b3 06 3d
       -0.027161358 -0.0030514495 -0.16887715 0.032886077
000040 23 9e ea 3d a4 d8 4a 3c ce 6c df bd c8 0b ad 3d
       0.114559434 0.012380753 -0.10909425 0.08449513
000050 32 14 53 bd b8 bd 51 bd 8a 40 aa 3c 76 51 bc 3b
       -0.05153293 -0.05120632 0.020782728 0.0057470156
000060 dc 32 bb bc 36 bc 87 bc 9a e2 39 3d b9 d7 16 bd
       -0.0228514 -0.016569238 0.04538212 -0.036826823
000070 2c 63 a1 3d 66 86 bb be 44 1c cb be 08 7f 29 bf
       0.07880244 -0.36625975 -0.39670002 -0.6620946
000080 7e 83 94 be ab bf 9b 3d d6 14 08 3e 19 f0 cc be
       -0.2900657 0.07604917 0.13289198 -0.4002693
000090 f9 c2 ab be 06 66 2a bf 73 db 58 be 93 07 23 3d
       -0.3354719 -0.66561925 -0.21177463 0.039802145
0000a0 db 04 f6 3d de 1a 0b bf c9 d2 0d bf de c0 48 bf
       0.12012645 -0.5433787 -0.5539976 -0.7841929
0000b0 3a e5 c0 be 1a 9f ab be 7f ce 96 be b5 e2 d6 be
       -0.37674886 -0.33519822 -0.2945442 -0.4196984
0000c0 3a 32 a6 3d 52 30 65 3d b5 f7 db 3d 3b 55 cc be
       0.08115049 0.055954285 0.10740606 -0.39908776
0000d0 f4 dd 98 be 99 28 bd be 40 c0 c8 be a5 e2 7b 3d
       -0.29856837 -0.36945036 -0.39209175 0.061495442
0000e0 50 57 f8 3d 23 a4 ae 3d
       0.121260285 0.085274

mlp_1/MLP_0_1/hidden_2_1/Cast/ReadVariableOp:0 f4 [256, 128]
000000 08 7a d6 bc 8e 09 20 bd d7 8e 19 bd 5f 06 48 3d
       -0.026181236 -0.039071612 -0.03748974 0.0488342
000010 03 81 23 be c7 d8 04 bd bf ea b8 bc e1 15 3b 3e
       -0.15967183 -0.032433297 -0.022572873 0.18270065
000020 33 0d 83 3c 94 92 12 3d c9 a7 31 3e 30 47 e7 bd
       0.015997505 0.03578432 0.17349161 -0.11292875
000030 52 41 fb bd c1 77 d2 bd 0e 93 4d 3c 79 ab 07 3d
       -0.12268318 -0.102767475 0.012547268 0.033122513
000040 21 2c 8b 3d d7 e1 79 3b de be d7 3c fe 20 1f be
       0.06795526 0.0038128996 0.02633613 -0.1553993
000050 3d 4b 10 3e 07 1a 5f 3d 68 10 bb 3d bf 37 34 be
       0.14091201 0.05446818 0.091339886 -0.1759939
000060 18 8f 9f 3d 8e 46 a3 bd 94 96 17 3d d7 78 91 bc
       0.07790965 -0.079724416 0.037008837 -0.017757816
000070 17 d8 fe 3c 7a 51 06 bd c6 1b 06 be 4b b6 d5 bb
       0.031108899 -0.032792546 -0.13096532 -0.006521975
000080 26 80 af 3d 3a 20 47 3d fb 2a 82 bd 4c d5 85 3d
       0.08569364 0.048614718 -0.06355854 0.06534824
000090 da 50 b1 3c 7e f4 c9 bd c3 79 ac bd cf 5f c6 3d
       0.021644998 -0.09861086 -0.08421662 0.09686243
0000a0 22 28 5a bd 69 72 ee 3c ed 02 6a bc 0b d1 d4 3c
       -0.05326093 0.02910729 -0.014282924 0.025978586
0000b0 5a 3d c9 3c c9 ad a1 3d 5c b4 6f bd 67 a2 a9 bb
       0.024565388 0.07894475 -0.058521613 -0.0051768306
0000c0 60 98 dd bb 6e 26 7f ba f2 81 10 be dd 6d 08 bd
       -0.0067625493 -0.00097332045 -0.1411207 -0.0333079
0000d0 f5 c3 8c bd da bb a5 3d 74 37 d9 3d ec 95 99 3b
       -0.06873313 0.080924705 0.1060628 0.0046870615
0000e0 86 8a 4a bd db e8 c7 3d c5 82 8c 3c 40 33 cb b9
       -0.049448512 0.097612105 0.0171522 -0.00038757361
0000f0 bb cc 27 bd df c6 45 3d 08 c1 da 3d 45 d5 57 be
       -0.04096673 0.04828536 0.10681349 -0.2107745
000100 3f 16 32 3d 16 e5 b8 bd 61 a2 05 be 91 23 c0 3d
       0.043478247 -0.0902807 -0.13050224 0.09381784
000110 10 38 10 be ca 7b d0 3d 09 af 98 3c 2d f1 d5 3d
       -0.14083886 0.10179861 0.01863815 0.10446391
000120 db ea 63 3d 49 0b 29 3e e5 b6 8c 3d d0 e9 eb 3c
       0.055643898 0.16508211 0.06870822 0.028798014
000130 e7 5a bf 3d 37 bd 36 3d 5a fc e0 bd a6 06 7a ba
       0.0934351 0.044614043 -0.10985632 -0.0009537734
000140 35 b0 ae 3d 57 a5 0e bd 9d 45 30 3d 72 a4 8c be
       0.085297026 -0.03482565 0.04303514 -0.27469212
000150 41 cf 3c be bb 40 aa 3d fc 62 23 bd c2 1f 2c bc
       -0.18438436 0.083131276 -0.03988932 -0.0105056185
000160 53 b9 3f 3d 91 b5 c4 bd 20 69 6d bd 19 ab 1a 3e
       0.0468076 -0.096049435 -0.057961583 0.15104331
000170 39 73 ce 3d cf 92 26 3e 8e ab b3 bc 02 49 bb 3c
       0.10080571 0.1626694 -0.02193239 0.022861961
000180 c3 df 4f bd c2 18 84 bd 29 2e e7 3d 29 ad ba bd
       -0.050750505 -0.06450035 0.11288101 -0.09115059
000190 82 14 bd 3d 17 82 9a 3d f9 28 e9 bc 73 c3 53 be
       0.09232427 0.07544344 -0.02846192 -0.20680027
0001a0 af c6 69 3d 63 0f 74 3d 39 94 6e 3d 17 be cd 3d
       0.057074245 0.059584986 0.058246825 0.100460224
0001b0 14 af e1 bd fd d7 ac bc 6e 6e 15 3d 96 08 12 3e
       -0.110197216 -0.021099085 0.036482267 0.14261088
0001c0 4a 96 7e 3a 56 b7 fb 3c 21 08 5c 3b f8 44 7f 3d
       0.0009711726 0.03072707 0.003357418 0.062321633
0001d0 72 e2 86 3c cd 6a 96 3d f8 20 9a bd e7 9a 8d 3d
       0.0164654 0.073445894 -0.075258195 0.06914311
0001e0 07 9d 55 bd 97 68 56 bc fd 56 25 bd c9 00 b2 3d
       -0.052151706 -0.01308646 -0.04036616 0.08691556
0001f0 0c 0e 0d bd 60 5d 11 3d d3 35 1b 3c e4 93 64 bc
       -0.034437224 0.03548944 0.009473282 -0.0139512755
000200 44 a2 26 3d 04 90 10 3e 5f 40 85 be 5b 08 0f 3e
       0.040682092 0.14117438 -0.26025674 0.13968031
000210 c0 99 28 3e 50 26 05 be 43 e1 a5 bc 52 6b 97 3d
       0.16464901 -0.13002896 -0.020249015 0.073935166
000220 5b 74 98 bd b9 d7 f5 bc 20 18 32 bd 5d 14 91 3d
       -0.07444068 -0.030010091 -0.04348004 0.07083962
000230 8c 58 ca 3d 07 33 dc 3d 06 a6 46 be 5d fd d0 3d
       0.0988017 0.1075192 -0.1939927 0.10204575
000240 cb ac ab 3c 2e 38 49 be bf 21 ba 3d 15 51 c7 3d
       0.020956418 -0.19650337 0.09088468 0.09732262
000250 2e 25 9d 3b 84 d2 cc 3c a8 16 4c 3c 78 3a 84 3e
       0.004795692 0.025002725 0.012456574 0.25825858
000260 2b c6 06 3e 94 54 f4 3d f4 d3 9f bd 68 71 84 be
       0.13161533 0.119301945 -0.07804099 -0.25867772
000270 3a d7 fc bd 91 4c 4e bd 09 c8 8c 3d 10 25 67 3e
       -0.12345739 -0.05036599 0.06874091 0.22572732
000280 be cb 43 be 3e a0 cd 3d 17 58 8e 3b d9 ce 1b 3c
       -0.1912069 0.100403294 0.004343997 0.009509766
000290 91 59 6b 3d d6 4e dc bc 10 30 3e bc d7 31 6e be
       0.057458464 -0.02689306 -0.011608139 -0.232612
0002a0 a9 08 2b 3d 04 8b 85 3d 22 c6 e6 bd ea ca 9a 3d
       0.041756306 0.06520656 -0.112682596 0.07558234
0002b0 5a 7c b0 bc b9 aa 07 3d c1 91 78 be 1b 9f 86 bd
       -0.02154367 0.0331218 -0.2427435 -0.06573316
0002c0 03 b0 a4 bb 3c 21 51 3c 4a 4f 83 3b ac d9 9c 3c
       -0.005025865 0.012764271 0.0040072547 0.019146763
0002d0 1d a1 bf 3d 9a 43 ac bd 21 ab 19 bd 80 03 46 bd
       0.09356902 -0.084113315 -0.037516717 -0.04834318
0002e0 ec ad 89 3d 14 f0 dc 3d e2 5c e8 3c f8 71 cd 3d
       0.06722626 0.10787979 0.028364602 0.100315034
0002f0 cc 24 2a be 4f 3b 0a 3e 74 59 48 bc 81 f0 8e ba
       -0.166156 0.13499187 -0.012228359 -0.0010905416
000300 6c 95 36 3d d2 f3 22 3e 2b 4a 2b 3c 2b 46 02 be
       0.044576094 0.15913323 0.010454695 -0.1272208
000310 ae 35 4f 3e 11 5d cf bc 1e 27 2f 3b ac 3b 77 3d
       0.20235321 -0.025312932 0.0026726197 0.060359642
000320 b7 10 e2 3c b3 b2 84 be c0 56 fc 3d 73 a0 60 bb
       0.02759586 -0.25917587 0.12321234 -0.0034275323
000330 54 e1 11 3d a4 84 e1 bd 28 8a 99 3d 88 86 c0 3c
       0.03561528 -0.11011627 0.07497054 0.02350165
000340 16 b3 61 bd dd fe 9c 3d 6f 46 04 3e 45 cb 52 3d
       -0.05510243 0.07665799 0.12917493 0.051463384
000350 b7 a8 32 3e a4 c6 da 3d b2 1a 07 be 9c 5e 77 bd
       0.17447172 0.10682419 -0.13193777 -0.06039296
000360 7f 4f af bd c1 10 1b 3c 87 05 4a 3e 75 85 d1 3a
       -0.085600846 0.009464444 0.19728671 0.0015985208
000370 cb 96 e4 bc 6b 33 44 3e ab e7 7e bb ad 02 80 bc
       -0.027903935 0.1916024 -0.003889541 -0.015626276
000380 86 bb 68 bc 05 7d 9f bd 84 d4 9b bd bf 9d 01 bc
       -0.014204865 -0.077875175 -0.076088935 -0.007911145
000390 d9 57 d0 3c 43 af d3 bd 78 f5 8d bd 76 73 a9 bd
       0.025432514 -0.10336163 -0.06931585 -0.082739756
0003a0 f6 b0 b2 3d 7f aa 44 3e 18 d3 33 be 05 67 09 3c
       0.08725159 0.19205664 -0.17560995 0.008386378
0003b0 b5 54 97 bd 67 34 04 3e f1 84 3b 3b 2f df 94 bd
       -0.073892035 0.12910615 0.0028613175 -0.072691314
0003c0 37 d6 65 3d d1 af c2 bd 6b 5b be bb fa 8d 99 3d
       0.056112494 -0.095061906 -0.0058092377 0.07497783
0003d0 b4 d3 9f 3c da f5 02 3e 02 68 9c bd c2 13 8a bd
       0.019510128 0.12789097 -0.076370254 -0.0674205
0003e0 e6 51 81 3d 63 cf f9 ba cf 7f 31 3e e8 46 74 3e
       0.06314449 -0.0019058998 0.17333911 0.23855174
0003f0 26 f1 95 3d eb 73 2f 3d 56 d4 0f 3e 98 20 76 bd
       0.07321386 0.042835157 0.14045843 -0.060089678

mlp_1/MLP_0_1/hidden_2_1/BiasAdd/ReadVariableOp:0 f4 [128]
000000 2c e3 61 bd 08 93 cd be fb 74 21 be df 7d df bd
       -0.05514829 -0.40151238 -0.15767281 -0.1091268
000010 19 42 0a bf 53 df 07 bd d6 3f 7e bd c3 56 0f bf
       -0.54007107 -0.033171963 -0.062072597 -0.5599176
000020 94 0a d9 bd f1 c8 97 bd 04 a4 8a be 80 da 8c be
       -0.10597721 -0.074113734 -0.2707826 -0.27510452
000030 5b 52 79 bd 67 29 a7 bd f5 e3 f0 bd c4 58 2c be
       -0.060869556 -0.08162194 -0.11762229 -0.16830736
000040 d0 7a 1c bc 5a 20 16 be f4 c8 c6 bd 52 b2 0f bf
       -0.009550765 -0.14660779 -0.097062975 -0.5613147
000050 54 b6 0c be 99 97 fc bd 7e 53 7a bd 58 59 57 be
       -0.13741428 -0.123336025 -0.06111478 -0.21030176
000060 d2 ec d1 bd 98 c5 2c 3d b0 46 be bd dd 44 31 be
       -0.10250248 0.042180628 -0.09290826 -0.17311426
000070 ed 1c 54 bd 50 56 0d be 5d 1e 72 be 5b b3 aa bd
       -0.0517854 -0.13802457 -0.23644395 -0.083349906
000080 1b a5 0b be a8 3a 14 be 33 ad bf bd e0 d3 20 be
       -0.13637201 -0.144755 -0.09359207 -0.15705824
000090 55 24 55 be c1 77 1b 3d ea a3 36 3d 62 5c 66 be
       -0.20814641 0.037956003 0.044589914 -0.22496179
0000a0 cb a7 d4 bc b2 36 37 be 93 29 6b bd a8 0d c6 be
       -0.025958916 -0.17891958 -0.057412695 -0.38682294
0000b0 67 21 23 be 25 57 36 3d d5 ac a9 bd b5 c7 81 be
       -0.1593071 0.0445167 -0.08284918 -0.25347677
0000c0 9e 77 c2 be 64 57 4d bd 92 fc 3e bc cf cd 26 bd
       -0.37981886 -0.05013217 -0.011656897 -0.040723618
0000d0 2d d2 87 bc a3 f4 ac 3d d0 71 e5 bd f9 43 fe bc
       -0.016579712 0.08445098 -0.11203349 -0.031038271
0000e0 5a 57 99 bd ca 0c 05 bd 1e 13 03 3e c5 05 98 bd
       -0.07487364 -0.0324829 0.12800261 -0.074229755
0000f0 72 ac 18 bd 58 78 b3 be d0 ea d5 bd b5 8d 39 be
       -0.03727383 -0.35052752 -0.104451776 -0.18120463
000100 53 27 95 be d8 94 86 be cb 03 63 bd 4c 94 dd bd
       -0.29131564 -0.26285434 -0.05542354 -0.10819301
000110 bf a0 b0 bd 1c 88 98 bd 3a 93 ee bd 8a 90 93 bd
       -0.0862441 -0.07447836 -0.11649175 -0.07205303
000120 4c d7 3e be a2 8e 0a be 66 e4 97 be 07 1d 81 be
       -0.18636817 -0.13530973 -0.29666442 -0.2521746
000130 fb f8 06 bf bd 2a b7 bd 6c 86 e1 bd 52 ef ee bd
       -0.52723664 -0.089436986 -0.11011967 -0.116667405
000140 1a 75 97 be c6 6e 5b bd 6b dd 39 be ae 59 53 bd
       -0.2958153 -0.05357244 -0.1815087 -0.051599197
000150 78 57 d8 be 9f 5d 04 be 2b 60 cc bd 8d c6 c5 bc
       -0.42254233 -0.12926339 -0.0997928 -0.024142528
000160 e0 02 cf bd 44 2d d5 bd 48 d9 75 be db 2f f0 bc
       -0.1010797 -0.10409024 -0.24008667 -0.029319694
000170 8c 0b 5e be b9 b6 86 be bd 65 cb be 6f 7b 14 be
       -0.21684092 -0.2631128 -0.39726058 -0.14500211
000180 90 46 a4 3d 68 4e 99 3b 0a 04 35 bd 5e f1 61 bc
       0.08021271 0.004678536 -0.044193305 -0.013790457
000190 77 42 79 bd e8 29 90 bd d6 9f c4 bd d3 b5 97 be
       -0.0608544 -0.07039243 -0.09600799 -0.29630908
0001a0 2e e5 18 bd f5 24 17 be 38 61 e7 bc c6 3b d1 bd
       -0.037327938 -0.14760192 -0.0282446 -0.10216479
0001b0 9f ee 8d bd 62 61 1a bf 0f ac b9 bd 08 e0 85 be
       -0.06930279 -0.60304844 -0.09066021 -0.26147485
0001c0 20 87 48 3d aa 5f ba be c5 55 7f bd 4f 84 3f be
       0.04895699 -0.3640111 -0.062337656 -0.18702815
0001d0 34 60 d9 bd 70 b8 a5 bd 34 f9 1f 3b 4d c9 40 bd
       -0.106140524 -0.08091819 0.0024410011 -0.047066975
0001e0 c3 63 d0 bd a5 37 10 3c 9e 01 46 be f6 99 85 bd
       -0.10175278 0.008802329 -0.19336554 -0.06523506
0001f0 0c ac 97 be b1 b9 c0 bd 94 4f c5 bd 3f 92 b5 bc
       -0.2962345 -0.09410418 -0.09634319 -0.022164462

mlp_1/MLP_0_1/hidden_1_1/Cast/ReadVariableOp:0 f4 [512, 256]
000000 25 00 82 be c1 d8 6d bd 0c f9 a3 3e 74 f2 7b bd
       -0.25390735 -0.05806804 0.32025945 -0.06151052
000010 28 b6 bc 3d 4e bb cb be ff 30 3a be 62 20 c3 bd
       0.09214431 -0.3979134 -0.18182753 -0.09527661
000020 b7 37 fe bc 38 3f 97 bd 8b 19 1d 3d 31 92 71 be
       -0.031032426 -0.07385105 0.038354438 -0.23590924
000030 05 58 04 bd e8 83 27 be ba cc 3a bd 73 9f 8b 3d
       -0.032310504 -0.16358912 -0.0456054 0.06817522
000040 5a d3 47 3d 9f cc 05 bd 9c 08 39 3b c7 9c 97 be
       0.048785545 -0.032665845 0.0028233891 -0.296118
000050 5e 32 28 be b9 90 7a bd d2 b0 92 be f7 8d 62 be
       -0.16425464 -0.061173175 -0.28650528 -0.22124468
000060 fe 13 85 3b 48 72 00 3e 97 3b 0c 3c 90 18 c1 3d
       0.004061221 0.12543595 0.008559129 0.09428513
000070 84 8f 02 be e7 50 b5 bd fa 6f 3b be 4f 6a 22 be
       -0.1275006 -0.088533215 -0.18304434 -0.15860866
000080 c6 70 da 3d 4b 5f ac be eb ba 01 3e 13 67 6c 3e
       0.10666041 -0.33666453 0.1266896 0.23086195
000090 85 8a 03 3e 1e 01 2f bc 9f 91 2e 3e 17 74 04 bd
       0.1284581 -0.010681419 0.17047738 -0.032337274
0000a0 72 69 83 be 4e 73 91 bc fc ae 7e 3b 97 d0 cd bd
       -0.25666386 -0.017755177 0.0038861623 -0.10049551
0000b0 3b f3 0f bd ca 48 61 be 6f 74 42 be 95 ea cb 3c
       -0.035144072 -0.22000423 -0.18989728 0.02489213
0000c0 2e cf 27 3d 6c c5 35 3d f9 e3 7e bd 3d aa 89 be
       0.040969066 0.04437773 -0.06222913 -0.26887694
0000d0 56 77 2d be c8 6e b2 3d d4 c8 84 3e 1b c9 38 3d
       -0.16940054 0.08712536 0.2593447 0.045113664
0000e0 14 f4 97 bd 18 7e de 3d b5 09 b7 be c2 fe 8a be
       -0.07419601 0.10863894 -0.35749593 -0.2714749
0000f0 94 97 57 3e e5 18 9f ba 12 0a 4c 3e f5 04 94 be
       0.21053916 -0.0012138156 0.19925717 -0.28910032
000100 a8 32 78 bd 92 73 51 be 13 ed b6 3c 1c 35 b3 3d
       -0.060595185 -0.20454243 0.022329843 0.08750364
000110 13 69 43 3e 5a c0 23 be 6f f9 70 be d9 7f 23 be
       0.19083051 -0.15991345 -0.23532651 -0.15966739
000120 75 82 8c bd 20 98 f0 bd 03 0a 80 3d fe db 9c 3d
       -0.0686082 -0.117477655 0.062519096 0.07659148
000130 dd 53 8c be aa 85 13 bf 82 a0 a1 3d 6d aa ac 3d
       -0.27407733 -0.5762583 0.078919426 0.08430944
000140 2a f9 1a 3e 61 41 61 3e 7f e2 58 3e 78 43 e8 be
       0.15134111 0.21997596 0.21180151 -0.45363975
000150 15 a1 8a 3e c1 9d 27 be 0b ee af bd 7a 97 00 3d
       0.2707602 -0.16368772 -0.08590325 0.03139446
000160 67 15 f0 3d 62 67 9f bb 4e b2 8b be 97 fb 3c 3d
       0.11722832 -0.004864619 -0.27284473 0.046138372
000170 f6 e3 af bd b6 31 ce bd fe 56 30 be 29 20 ec bd
       -0.08588402 -0.10068075 -0.17220685 -0.115295716
000180 e4 7d d4 be 32 92 95 bc 73 3b 24 be 54 b6 01 be
       -0.41502297 -0.018258188 -0.16038303 -0.12667209
000190 66 16 1e 3e 85 b1 cc 3b bd c0 80 be f9 64 c8 3c
       0.15438232 0.006246748 -0.25147048 0.02446221
0001a0 f4 40 76 be 38 85 e9 3d 77 7c b4 be 4a c6 ad 3d
       -0.24048215 0.114023626 -0.3525121 0.08485086
0001b0 5f a3 89 be 3b f5 11 be d0 5a b5 bd fc 92 e9 3c
       -0.26882455 -0.14253704 -0.08855212 0.02851247
0001c0 77 80 cc 3d a4 6a 13 be f3 19 64 bd 21 c7 b8 bd
       0.0998544 -0.14396149 -0.05568881 -0.09022356
0001d0 fd 49 b0 3e 76 b5 6b bc 61 5f 40 be bf 39 32 be
       0.3443145 -0.014386525 -0.18786384 -0.17404841
0001e0 7e fb 88 3d 65 47 9e 3d e8 92 ec 3d c4 b8 3e 3c
       0.06688593 0.07728461 0.11551458 0.011640731
0001f0 3e 50 2b be e7 8e d7 ba a0 95 66 be 0e 72 f3 3c
       -0.16729829 -0.0016445786 -0.22518015 0.029717471
000200 fc 63 76 bd 9a 66 6b bc 85 5d e1 bd 93 ba 2e be
       -0.060153946 -0.014367724 -0.110041656 -0.1706336
000210 40 8e 06 be 2b a1 de 3b b6 d3 08 bf f6 a8 b0 3c
       -0.13140202 0.006794115 -0.53448045 0.021564942
000220 92 4a 88 bd 57 69 32 3d 91 1a 02 be 80 f8 7c 3d
       -0.06654848 0.04355749 -0.12705447 0.061760426
000230 f6 d5 56 3d b9 59 f9 bd d2 5a 5f be 09 d6 bc bd
       0.052450143 -0.12175316 -0.21811989 -0.092205115
000240 a2 f0 83 be 88 8a d3 bd c5 89 85 be 38 d3 75 be
       -0.25769526 -0.10329157 -0.26081672 -0.24006355
000250 0d d5 e6 bd cd 0a b6 bd d8 4f 3b be 4b 44 13 be
       -0.11271105 -0.08888779 -0.18292177 -0.1438152
000260 e4 d5 17 be b6 51 c2 bc 9d 0a 38 3e b6 06 6c 3c
       -0.14827687 -0.023720603 0.17972799 0.014405897
000270 a7 13 b2 be 1a 22 17 be 25 68 2f bf a1 eb 53 3e
       -0.3478062 -0.14759102 -0.68518287 0.20695354
000280 34 6e b5 bd 0d 34 69 be 07 1f 2a 3e bf 71 cb 3d
       -0.0885891 -0.22773762 0.16613398 0.09933805
000290 36 29 2c be 75 4c 28 3c b7 f2 d0 bd 24 67 40 bd
       -0.16812596 0.010272135 -0.10202544 -0.046973363
0002a0 d3 5c 31 3e db 41 de be 09 6f 7d bd 13 8a 15 be
       0.17320566 -0.4340962 -0.06187347 -0.14603452
0002b0 b7 c9 97 be a7 65 27 be 3b d5 d0 bd b9 78 00 be
       -0.29646084 -0.16347371 -0.101969205 -0.12546052
0002c0 ce 0b 7c be 2e 2f 2e be 49 34 3e 3d d3 d2 39 3e
       -0.24613878 -0.17010185 0.04643658 0.1814683
0002d0 28 fe f4 bd 41 89 d6 bd 45 a9 1f be 02 93 07 3e
       -0.11962539 -0.10475398 -0.15591915 0.13239673
0002e0 d3 9e 6f bd b5 52 09 3e d5 d5 23 3d 3b 08 c1 3c
       -0.058501076 0.13410456 0.039998848 0.023563495
0002f0 48 11 44 3e 23 34 76 bd 35 1a 09 3c fe 32 a7 be
       0.19147217 -0.060108315 0.008368065 -0.3265609
000300 7d d4 84 be db 82 f0 3c 40 67 f0 bc d5 67 be 3c
       -0.25943366 0.029359272 -0.029346108 0.02324287
000310 26 33 d4 3d d3 27 fa bc 96 3b 70 be cb 5d 06 be
       0.10361318 -0.030536568 -0.2346023 -0.13121717
000320 fc 96 d4 be df d3 92 bc 00 cc 5e be d9 61 c9 3d
       -0.41521442 -0.017923294 -0.21757507 0.09833116
000330 e7 f3 2f bd 01 46 00 3d df c9 17 3e 6b 82 be bc
       -0.042957213 0.03131676 0.14823101 -0.023255548
000340 b9 2c a1 3c 29 a8 a5 3b 01 10 c0 3d 43 0d e1 be
       0.019674646 0.0050554466 0.093780525 -0.4395543
000350 4a 8a da be f5 e4 c3 3c 06 74 0a 3e f8 4f 7e 3d
       -0.4268363 0.023912886 0.13520822 0.062087983
000360 ab 3b 3f be 39 9a 0a be 33 8e 87 be 0e 0e 2f be
       -0.18675105 -0.13535394 -0.26475677 -0.17095205
000370 14 0e ce bd 03 f2 4d be 42 7c 9f 3c c7 1b 1d 3d
       -0.10061279 -0.20111851 0.01946843 0.03835657
000380 40 63 85 3e a7 40 bf 3c cd e5 46 ba 4d 86 8b bc
       0.26052284 0.023346258 -0.00075873436 -0.017031813
000390 3e 2a 9b be 2a d4 9e bc e3 99 23 be d1 75 ed be
       -0.30305666 -0.019388277 -0.15976672 -0.4637895
0003a0 25 d3 26 bd 4a a2 88 bd 1f 5d f7 bd 2f 0a b6 bd
       -0.040728707 -0.06671579 -0.12078308 -0.08888661
0003b0 c0 e9 30 3d 20 55 f4 bd 2e 59 04 bf aa 48 58 3d
       0.04319167 -0.11930299 -0.5169858 0.052803673
0003c0 2d 73 7f be eb 9c a1 bd ff f4 34 3c 16 12 c1 bb
       -0.2494628 -0.07891258 0.01104474 -0.0058920486
0003d0 9c f3 83 be 6a d5 00 bf df 49 7a 3d 95 9e 32 3c
       -0.25771797 -0.50325644 0.061105605 0.010902067
0003e0 23 8d 8a 3d 21 30 29 3d 5e 96 04 bd ad 89 13 bd
       0.06765201 0.041305665 -0.032369964 -0.03601997
0003f0 45 93 6b bd ac 8d ae 3d 3c f8 75 3c 87 ab 9b bc
       -0.057513494 0.085231155 0.015012797 -0.019002689

mlp_1/MLP_0_1/hidden_1_1/BiasAdd/ReadVariableOp:0 f4 [256]
000000 88 76 8b be 29 fd a6 be f7 e8 ba bd 9f be b4 be
       -0.2723887 -0.3261502 -0.09126466 -0.35301682
000010 fd af 14 be ca ce 7d be 7f a8 bd be 20 85 3d be
       -0.14520259 -0.24785915 -0.37042615 -0.18507814
000020 6d cc 53 be 23 77 ff be 6a 20 9d be 77 ce d1 be
       -0.20683451 -0.49895582 -0.30688792 -0.40977833
000030 2d 0c da be 67 89 dd be f7 39 bb be c7 47 7b be
       -0.42587414 -0.43268892 -0.3656766 -0.245391
000040 18 72 0c be b6 b5 d8 bd c1 bc c9 be 69 48 f7 38
       -0.13715398 -0.105815336 -0.3940182 0.00011791365
000050 97 ab 07 3e 1f c7 b5 be 47 2d bd be a7 7d c7 be
       0.1324905 -0.3550348 -0.36948606 -0.38963053
000060 84 20 98 be c0 91 7a be e6 e5 84 be ef 8f 28 3d
       -0.29712307 -0.24469662 -0.2595665 0.04115289
000070 a8 d5 80 be 7f 20 b0 bd 68 14 5c be 55 1a b9 be
       -0.25163007 -0.08599948 -0.2149216 -0.36152902
000080 f1 b9 41 be e9 c8 37 be 8f 05 5e be e8 b2 53 be
       -0.18918587 -0.17947735 -0.21681808 -0.20673716
000090 ee 87 36 be 26 fe d1 bd c1 2a 8a be d0 21 04 bf
       -0.1782529 -0.10253553 -0.26985744 -0.51614094
0000a0 6f 1e ae be 73 92 56 be b0 37 20 be 48 b9 00 be
       -0.34007594 -0.20954303 -0.15646243 -0.12570679
0000b0 d9 ec a6 bd 05 b1 de be 64 bb 02 be 31 e9 60 be
       -0.08150644 -0.4349443 -0.12766796 -0.21963955
0000c0 c5 f5 52 bd c2 64 61 be ab 63 3f be 4a 66 0d bf
       -0.051503915 -0.22011092 -0.18690364 -0.55234206
0000d0 75 e4 a4 bd 18 6f 72 be d8 ef c3 bd aa 09 8d be
       -0.08051387 -0.23675191 -0.09567231 -0.27546436
0000e0 f4 af 63 be c1 74 bb be da e1 78 be 1e c4 82 be
       -0.2223509 -0.36612514 -0.24304906 -0.2554025
0000f0 1c 63 16 be 79 7c c5 be a3 f3 f6 be 6e 4e ea bd
       -0.14686245 -0.38571528 -0.48232755 -0.114407405
000100 bf c6 93 be 08 dc 2e be 98 73 33 bd 8c c3 21 bf
       -0.2886257 -0.17076123 -0.04381141 -0.63189006
000110 46 01 e8 be 8d c8 7f be fa fd 41 be 3e 7b 94 be
       -0.45313472 -0.24978848 -0.1894454 -0.29000276
000120 52 de 86 be e3 e3 0f be 2e 5f 56 be a7 c4 06 be
       -0.26341492 -0.14051776 -0.20934746 -0.13160954
000130 29 70 24 be e0 c1 0d bf e6 03 b1 be 21 89 de be
       -0.1605841 -0.55373955 -0.34573287 -0.43463996
000140 61 ee 4e be e8 1f 9f be 74 f7 06 bf ec 29 00 bf
       -0.20208122 -0.3107903 -0.52721334 -0.5006397
000150 d1 7b 38 bd 3f db fb be 45 20 82 be 52 8f f1 be
       -0.045039956 -0.4919071 -0.25415245 -0.47179657
000160 2c 36 82 be dc 69 73 be 36 46 71 be b8 8b ad be
       -0.25431955 -0.23770851 -0.2356194 -0.3389566
000170 46 f7 97 be a8 f1 fd bd bb 5c 95 be 8d 7d 8e be
       -0.29680842 -0.12399608 -0.2917231 -0.27830163
000180 81 27 f9 be 18 be 9b bd 92 20 97 be 05 a8 ac be
       -0.48662952 -0.07604617 -0.29517037 -0.3372194
000190 b9 0d c0 bd 1c ef fd bc 60 2c 99 be d0 65 c2 bd
       -0.093776174 -0.030997805 -0.29916668 -0.094920754
0001a0 36 5f a5 be 9c 53 54 be 06 2c a3 be 27 6c 54 be
       -0.32299203 -0.2073502 -0.31869525 -0.20744382
0001b0 79 db e4 be 2d cd 87 be 28 ca a8 be fa ed fe bd
       -0.44698694 -0.26523724 -0.32966733 -0.12447734
0001c0 fc 3e 80 bd 6a df 87 be c2 71 4c be 29 2e b3 bd
       -0.06262013 -0.2653764 -0.1996527 -0.08749039
0001d0 84 dd 37 bf 77 76 29 be 9f 6a bd be 86 bf a8 be
       -0.7182238 -0.16549097 -0.36995408 -0.3295862
0001e0 9f 26 34 bd ba b1 af be 30 2d de be 16 f2 7f bd
       -0.043982144 -0.34315282 -0.4339385 -0.06248673
0001f0 b3 ac a5 be 4a 1f 62 be d5 8f fb bd 4f c0 6f be
       -0.32358322 -0.22082248 -0.12283293 -0.23413204
000200 3a 1b 4d be 71 9b c4 be e6 df e6 be 84 4a 76 be
       -0.20029917 -0.38399842 -0.45092696 -0.24051863
000210 d5 51 90 be a9 dd 10 be 43 e7 f4 be eb fe 03 be
       -0.28187433 -0.14147057 -0.4783269 -0.12890212
000220 a0 4d cb be 0c 96 00 bf ac 48 2a be 41 08 43 3c
       -0.3970766 -0.50228953 -0.16629285 0.011903823
000230 93 85 2d be 5b f8 0e be a4 44 fb be a8 1a 9b be
       -0.16945486 -0.13961928 -0.49075806 -0.30293775
000240 31 6b c2 bd 74 b4 a7 be 9f 08 a0 be 26 fd 78 be
       -0.094931014 -0.32754862 -0.31256577 -0.24315318
000250 a6 9d 4f be 51 04 08 bf 98 ba 02 bf d1 20 3a be
       -0.20274982 -0.53131586 -0.5106597 -0.18176581
000260 ae c5 aa bd c7 5b ca be fc a7 5e be 5d e6 db bc
       -0.08338486 -0.39523146 -0.21743768 -0.026843244
000270 10 c2 7e be 33 f7 18 be 87 bf ce be c5 60 68 be
       -0.24878716 -0.14938049 -0.403805 -0.22693165
000280 1f 8c 0d be 2a ba de be b0 a4 05 be 48 69 13 bf
       -0.13822983 -0.43501407 -0.13051105 -0.5758252
000290 a2 e1 8b be f6 22 d5 be 84 fd b6 be af 21 d4 bd
       -0.27320582 -0.41628236 -0.35740292 -0.10357987
0002a0 ba 55 ef bd ef a8 c3 be 31 23 4e be 52 15 97 be
       -0.11686273 -0.38214824 -0.20130612 -0.29508454
0002b0 ce 0a c2 be f0 1a d6 be dc dc 98 be f8 ee 60 be
       -0.37898868 -0.41817427 -0.29856002 -0.2196616
0002c0 2d d9 8c be 83 63 94 be 61 13 cb bd 3b 44 a4 bd
       -0.27509442 -0.2898217 -0.099158056 -0.080208264
0002d0 5e 44 08 bf c6 15 3e be f6 98 89 be 30 29 e0 be
       -0.5322932 -0.18562993 -0.26874512 -0.43781424
0002e0 d5 40 cb be 1e 4e b1 bd b9 93 34 be 21 6d b6 be
       -0.396979 -0.08657478 -0.17634477 -0.35630134
0002f0 1a 8d 57 be 97 1e 49 be 2e 5e 6e be 4a ff b3 be
       -0.2104992 -0.19640575 -0.23278114 -0.35155708
000300 92 33 76 be 62 d8 f9 be fe d9 cf be e7 ee 83 be
       -0.2404311 -0.487979 -0.40596002 -0.25768206
000310 64 c8 3e be 6e 0d f8 be d3 d7 0b be 00 dc 2a be
       -0.1863113 -0.48447746 -0.13656549 -0.16685486
000320 cb f0 d2 be 63 33 2a be ca e4 ad be 12 14 2a be
       -0.41199335 -0.16621165 -0.33963615 -0.16609219
000330 34 6f 34 bd 94 82 2f be 9c be 85 be b1 35 9e be
       -0.044051364 -0.17139655 -0.26121986 -0.30900338
000340 a9 99 e2 bd d3 d0 c8 be f4 88 15 bd 3a 7f 19 be
       -0.110644646 -0.3922182 -0.03650756 -0.1498994
000350 1f a9 f2 be 73 5b 4c be 93 1c 0e bd 02 91 af bc
       -0.47394654 -0.1995676 -0.03469522 -0.02143145
000360 3a f2 a2 be b9 1e fb be 91 07 c6 be af 78 f6 be
       -0.3182543 -0.49046877 -0.38677648 -0.4813895
000370 08 59 17 be db b2 e0 bc d9 ab 25 bd 27 4f fb be
       -0.14780056 -0.027429035 -0.04044709 -0.49083826
000380 2a 46 c9 be 4e 73 a2 be ee 50 a6 be 7e ff 7d be
       -0.39311343 -0.31728595 -0.3248362 -0.24804494
000390 4f 14 cf be c4 14 d5 be 90 92 9c be 3b 7f 7e be
       -0.40445182 -0.41617405 -0.30580568 -0.24853222
0003a0 ae d1 95 be 9c cd 0d bf d3 ba 62 be 08 6f 95 be
       -0.29261535 -0.5539186 -0.2214158 -0.29186273
0003b0 e3 50 33 be 49 b9 34 be ea d1 d1 be 3f 28 a6 be
       -0.17511325 -0.17648806 -0.40980464 -0.3245258
0003c0 5e 11 c1 be 53 ae fc be f3 29 9a be e8 b2 a8 be
       -0.37708563 -0.4935175 -0.3011013 -0.32948995
0003d0 5f a5 8e be d5 15 8d be 48 72 21 be fc 5c 65 be
       -0.27860543 -0.2755572 -0.15766251 -0.22398752
0003e0 df ef dd be 25 48 bf bd a3 4e 99 be 14 eb a0 be
       -0.4334707 -0.09339932 -0.29942808 -0.3142935
0003f0 bc 39 e6 be 21 39 59 be 74 b8 05 be 99 09 a3 be
       -0.44965923 -0.21213199 -0.13058645 -0.3184326

mlp_1/MLP_0_1/hidden_0_1/Cast/ReadVariableOp:0 f4 [103, 512]
000000 f4 fc 09 bf e3 7e 9f be 03 b5 c5 3d 83 12 16 3f
       -0.539016 -0.31151494 0.09653666 0.58621997
000010 ba b8 92 3b 19 35 13 bf 81 52 0b 3e 3f 40 57 3e
       0.0044775875 -0.57502896 0.13605691 0.21020602
000020 9a 69 13 be 3d 8d c4 3e 98 84 15 3f 9a 10 40 3d
       -0.14395753 0.38389006 0.58405447 0.046890832
000030 9b c6 35 3d 2a 14 ad 3e 17 aa 41 be c0 fe df be
       0.044378858 0.33804446 -0.1891254 -0.43749046
000040 31 21 23 3f f8 76 42 3f 92 47 43 3e 27 43 9f be
       0.6372252 0.7596278 0.1907027 -0.3110592
000050 18 be 1b bd 68 f9 6f 3e 50 75 d1 3c 23 c9 b8 3d
       -0.038023084 0.23434985 0.025568634 0.09022739
000060 a7 d5 b6 be a6 6d 2f bd 6c d3 7a 3c c8 44 77 3e
       -0.3570988 -0.04282918 0.015309196 0.24147332
000070 4d 9b a2 3c ab 9e c6 be 84 71 18 be 0e a5 90 3e
       0.019849444 -0.3879293 -0.14887053 0.28250927
000080 1b a2 79 3f 05 f5 23 be cd 53 7f 3d d1 7b 31 3c
       0.9751298 -0.16011436 0.062335778 0.010832743
000090 ef 4d 84 bf 66 ae 24 bf a1 a5 86 be f2 c3 9a 3e
       -1.0336283 -0.6432861 -0.2629824 0.3022762
0000a0 2e c4 62 3d 62 b2 ac be e3 22 bd bd 26 19 2e be
       0.055362873 -0.33729845 -0.0923517 -0.17001781
0000b0 35 f0 67 3e 04 a9 c9 3d 24 19 9c 3e 79 96 d7 3e
       0.22650225 0.0984669 0.3048793 0.4210699
0000c0 eb 20 2b 3e 5e 6a eb be c6 b6 16 3f 88 e6 3e be
       0.16711776 -0.4597959 0.5887264 -0.18642628
0000d0 a7 37 ba 3e 92 6e 6f bd 38 b5 60 3e f4 1e a6 bd
       0.36370584 -0.058455057 0.2194413 -0.081113726
0000e0 60 2f 4d 3e cf 4f 5f bf e8 55 eb bc 6c 78 62 3e
       0.20037603 -0.87231153 -0.028727487 0.2211625
0000f0 b4 bc 8c be f1 56 09 3e 67 96 c0 bd 9d 43 0a be
       -0.2748772 0.13412072 -0.09403687 -0.13502355
000100 c6 74 47 be 29 2c 55 3d 85 dc b3 3e fd 6d 88 3e
       -0.1947814 0.052044068 0.3512918 0.26646414
000110 13 4b 8d bd 4b 54 ae bc 55 03 d3 3e 7c a8 96 3e
       -0.06899085 -0.021280428 0.4121348 0.29425418
000120 b8 f9 c8 be 85 50 e3 bd b4 bd 58 be c1 02 ad 3e
       -0.3925302 -0.11099342 -0.21166116 0.33791164
000130 3a 12 f1 be f6 31 37 3e 32 34 04 3e d7 a3 b6 3e
       -0.47084218 0.17890152 0.12910536 0.35671875
000140 85 79 31 3d 60 9f 10 bf e8 44 01 3f 2e d8 d0 bd
       0.04332878 -0.56493187 0.5049577 -0.10197483
000150 f7 99 95 3e 46 2c 3e 3f 04 8e 79 bd 58 10 36 bf
       0.29219028 0.74286306 -0.060926452 -0.7111869
000160 27 52 d8 3b e7 c6 8b 3e 08 ad 64 be a2 a3 9f be
       0.00660159 0.27300188 -0.22331631 -0.3117953
000170 23 77 bc be 3b cc 6a be 5e d3 27 be 73 44 5d 3e
       -0.36809644 -0.2292947 -0.16389224 0.21608143
000180 fa bf 09 3f 17 99 32 bd ed df 03 bf 13 54 22 bf
       0.5380856 -0.04360303 -0.5151356 -0.6340954
000190 15 43 87 bd f0 20 11 bd 8b 84 7e be 49 7d 6b 3e
       -0.06604592 -0.035431802 -0.24855249 0.22997011
0001a0 27 87 2f bf 53 c0 96 3e ec da 74 3f 68 5f da 3e
       -0.685656 0.29443607 0.9564655 0.42650914
0001b0 2f d9 26 3f fb a4 a8 3e 4a d2 2f bd ca b9 b4 be
       0.65175146 0.3293837 -0.042925157 -0.35297996
0001c0 8e 1e b9 be a8 55 a3 be 51 c7 6a be a4 5b 26 3d
       -0.36156124 -0.31901288 -0.22927596 0.04061474
0001d0 e6 da 1e 3f a5 85 47 be 76 fe 98 bd e7 83 23 bd
       0.6205276 -0.19484575 -0.074704096 -0.039920714
0001e0 48 be c5 be 2f 5a 51 bc a5 33 98 3e c3 62 e3 39
       -0.38621736 -0.012777849 0.29726902 0.00043370397
0001f0 71 79 26 be 34 6b da be 1b c5 48 3e 6b 40 69 3d
       -0.16257264 -0.42659914 0.1960644 0.0569462
000200 55 5d d0 3e 30 bf dd be d0 14 76 be b7 e7 8a be
       0.40696207 -0.43309927 -0.24031377 -0.2712991
000210 05 bb e0 bd 3d a7 f5 bd 25 8d fe bd 90 cc e2 3e
       -0.10973171 -0.11994789 -0.12429265 0.44296694
000220 bf ff 83 be 43 17 82 be d6 e7 58 3f c3 84 f7 be
       -0.25781056 -0.25408372 0.84728754 -0.48343477
000230 06 68 45 be 4e d2 2a 3d 7c d9 21 bf aa 8d ce be
       -0.19277963 0.04170447 -0.6322248 -0.40342456
000240 0f f6 9f be 17 d1 bb 3e 93 db a6 3e 6e 43 a0 3e
       -0.31242415 0.3668296 0.32589397 0.31301445
000250 77 5c 98 bc 1c 34 6b 3e c0 d0 9b be 06 3d cf be
       -0.018598778 0.22969097 -0.304327 -0.40476245
000260 8e 59 d8 3e 65 cf 8e be 05 8b de 3d cf f0 e1 bc
       0.42255825 -0.27892604 0.108663596 -0.027580647
000270 04 f9 28 be 05 ab 31 3e 14 08 79 3e 8c a1 39 bf
       -0.16501242 0.17350395 0.24319488 -0.72512126
000280 db 77 f2 be cd 59 b4 bd cd 0c da 3c 66 32 9d bd
       -0.47357067 -0.08806191 0.026617432 -0.07675628
000290 e8 ba 30 3f 10 a3 a3 be 73 c1 4e 3e a7 56 16 3e
       0.69035196 -0.31960344 0.20190983 0.14681493
0002a0 64 37 01 3e 2a 4e e1 3c 34 cf 08 be 78 af ab 3e
       0.12618786 0.027503092 -0.13360292 0.3353231
0002b0 9f 85 ce be 10 bb b8 3e bc de c7 be 5f 7c 66 bc
       -0.4033632 0.36080217 -0.3903712 -0.014067738
0002c0 f5 22 c5 3e 3c c8 0b bf 50 54 b6 bd 80 4b a7 be
       0.38503233 -0.5460241 -0.089028 -0.3267479
0002d0 a8 26 4b bc 4f 47 c5 3d 4d f4 48 bd d4 05 0b bf
       -0.012399353 0.09632742 -0.04906111 -0.5430577
0002e0 a8 ff 39 3e a2 80 f4 be 23 d3 8c 3e 4e 22 be be
       0.18163931 -0.4775439 0.27504835 -0.37135547
0002f0 92 9c d8 be 83 7d 05 bf e6 b2 d6 be 18 ef d2 3e
       -0.42306954 -0.5214464 -0.41933364 0.4119804
000300 be ab e0 be 86 c8 c9 bd 76 2c 8f 3e f7 c1 a5 bd
       -0.4388103 -0.098527 0.27963609 -0.080936365
000310 3a 61 e8 3d 6d 5a 41 bf ad 85 2b 3a 0c 2c f9 3c
       0.113466695 -0.75528604 0.00065430516 0.030416511
000320 73 01 44 3d a9 09 25 3f d3 6c ce be 7e 42 02 3f
       0.047852945 0.64467865 -0.403174 0.5088271
000330 f0 71 73 3e 41 67 60 be a2 ab 14 be c2 39 de 3e
       0.23773932 -0.21914388 -0.14518598 0.4340344
000340 8f 96 68 bf 4b 52 1d 3f 9f 77 95 3e 1d ee ae 3e
       -0.90854734 0.61453694 0.29192826 0.3416604
000350 bb 16 1e bf 43 c3 10 3e 0b 92 5d be 66 26 6d 3b
       -0.61753434 0.14136986 -0.21637742 0.0036186217
000360 55 f0 24 3f 41 68 22 bf 52 9b 20 3a 49 e4 ce bd
       0.6442922 -0.6344033 0.000612666 -0.10102136
000370 58 77 a6 3e d4 00 21 3d 04 99 ca be 7b 76 3e 3f
       0.32512927 0.03930743 -0.39569867 0.74399537
000380 47 70 d0 be 5f 69 aa 3e 53 da 3e 3f 2a 98 4d bb
       -0.4071066 0.33283517 0.74551886 -0.0031371214
000390 c8 ce 53 3e ec 7a 36 3e e6 ce 81 3e ee f9 10 bf
       0.2068435 0.17820328 0.25353163 -0.5663136
0003a0 8b 82 10 bf 4e f7 d9 3e ae 2e ae 3e 15 10 51 be
       -0.5644919 0.4257149 0.3401999 -0.20416291
0003b0 70 64 88 3e d8 72 13 be b2 cd 89 3e af d2 bd bd
       0.26639128 -0.14399278 0.26914746 -0.092687
0003c0 33 12 df bd d2 c5 1d 3f ce 14 c9 3e 9e f3 dc bc
       -0.10892143 0.61629975 0.39273685 -0.026971634
0003d0 70 08 a2 3e 92 be 89 3e d1 28 fd bc 1f 5b f5 3a
       0.31647062 0.26903206 -0.030903252 0.0018719173
0003e0 72 f6 dd be 17 e0 44 be 89 93 b3 bd 24 63 e4 3e
       -0.43352085 -0.19226108 -0.087683745 0.44606888
0003f0 b8 23 d9 be dd 92 32 3e eb 38 6a be 09 4f 85 be
       -0.42410064 0.17438836 -0.22873275 -0.26036862

mlp_1/MLP_0_1/hidden_0_1/BiasAdd/ReadVariableOp:0 f4 [512]
000000 36 eb 0c 3e 43 9c 01 bf 02 13 fa be 93 74 30 be
       0.13761601 -0.5062906 -0.48842627 -0.1723197
000010 95 cc 12 bf 1a 4f 42 bf 66 60 30 be 9c 9c 79 bf
       -0.5734342 -0.7590195 -0.17224273 -0.9750459
000020 70 b6 df be b7 88 b3 be 1f 50 4a be a8 73 1f bf
       -0.43693876 -0.35065243 -0.19757126 -0.6228585
000030 a3 bc 3f bf a0 f6 90 3c ed e5 61 bf 76 b1 90 be
       -0.7489721 0.017695725 -0.88241464 -0.28260392
000040 91 b9 47 be f2 46 8d be 00 aa 6e be 50 3f 16 bf
       -0.19504382 -0.2759319 -0.23307037 -0.5869036
000050 ae f6 59 bf b9 83 e0 be 57 64 37 be 0d 05 0d bf
       -0.8514203 -0.43850496 -0.1790937 -0.5508583
000060 97 94 43 bf 0c d1 52 be 87 d1 c4 be 4d 67 93 be
       -0.76398605 -0.20587558 -0.38441107 -0.2878975
000070 2d 34 bd be 13 20 13 bd e9 48 31 bf f7 b7 0b bf
       -0.3695387 -0.03591926 -0.6925188 -0.54577583
000080 d0 44 b5 be 33 00 38 bf c5 3b 8f be b6 22 0a be
       -0.35404062 -0.71875304 -0.27975288 -0.13489804
000090 96 77 2b be 4a 3c 15 bf 26 1c 6a be 94 c2 62 be
       -0.16744837 -0.5829512 -0.228623 -0.22144538
0000a0 66 26 f6 bd 30 c1 d3 be 4f ac b3 be 09 b1 70 be
       -0.12019043 -0.41358328 -0.350924 -0.23505034
0000b0 14 3d 6b be 5c 3e 5e bf 7a f0 03 bf c8 99 89 be
       -0.22972518 -0.868139 -0.51538813 -0.26875138
0000c0 ce 06 06 bf 42 68 47 bd 5d d3 43 be d5 e2 dd be
       -0.52354133 -0.048683412 -0.19123597 -0.43337122
0000d0 05 1f bf be cb e7 3d bf 71 cf f0 be c1 14 74 bd
       -0.37328354 -0.74181813 -0.47033265 -0.059590105
0000e0 bf 7d d8 bd fb be c5 3d 3a 93 a9 bb 39 e6 6d bf
       -0.10570859 0.09655567 -0.0051750215 -0.92929417
0000f0 17 fd 82 3d f8 a4 63 bd ca 59 ca bd 3a 89 df be
       0.06395929 -0.05557725 -0.09880407 -0.43659383
000100 83 64 3f bf 78 54 4f bf 3f 0d 25 be 12 ba 2f bf
       -0.74762744 -0.80988264 -0.16118334 -0.68643296
000110 40 50 b0 be 08 67 8a be 9a 27 af be cf e1 70 be
       -0.34436226 -0.27031732 -0.342099 -0.23523639
000120 08 7d bb be 57 8e 6f bc b5 13 e9 be 96 47 1f bf
       -0.3661883 -0.014621339 -0.45522848 -0.62218606
000130 49 de dd be 0e 97 d5 bd b4 52 01 bf 56 94 3c bf
       -0.43333653 -0.10429202 -0.5051682 -0.7366384
000140 27 1f d0 bd 4a 79 34 be 26 f3 e7 be 2a 29 62 be
       -0.10162192 -0.17624393 -0.45302695 -0.22086015
000150 7a f1 33 bf 90 02 94 3c e5 f1 e6 be c8 60 d1 3d
       -0.7029034 0.018067628 -0.45106426 0.10223538
000160 63 50 74 be d4 d9 e3 be fe 7b 95 be 0f 56 9c be
       -0.2385879 -0.44502127 -0.2919616 -0.30534407
000170 42 ea 97 be 92 d5 d4 be 15 d7 fa be 54 cd 35 bf
       -0.29670912 -0.4156919 -0.4899222 -0.7101643
000180 38 bb ff be df 37 78 be 8e 14 8f be 24 9b c5 be
       -0.49947524 -0.24240063 -0.2794537 -0.38594925
000190 34 fc 4f bf e0 5a ec be 45 1f 5b bf fa 90 21 bf
       -0.81244206 -0.46163082 -0.8559459 -0.6311184
0001a0 ab 64 fa be 11 7c ae be 7f fc a1 be d2 bd 1b bc
       -0.4890493 -0.3407903 -0.31637952 -0.009505706
0001b0 6c 3f bc be 45 ef f8 be dd 34 b3 be af 10 1d bf
       -0.36767137 -0.48620048 -0.3500127 -0.6135358
0001c0 af eb 20 be b9 a1 61 bf 26 15 ab bd 37 28 51 bf
       -0.15714906 -0.88137394 -0.08353643 -0.8170199
0001d0 be ee 7e be 13 58 07 bf 2f ce 1e bf 8c 38 b8 be
       -0.2489576 -0.52868766 -0.6203336 -0.35980642
0001e0 d3 c4 d5 be 7a ca 46 be 31 83 48 3d 9a 73 6e bf
       -0.41751727 -0.19413176 0.04895324 -0.93145144
0001f0 4b 76 df be 6b a1 77 3e 19 1d 12 bf 84 d1 31 bf
       -0.43644938 0.2418267 -0.5707565 -0.6946032
000200 90 97 75 bd 88 fe fb be 14 15 a4 be b6 cd 30 bf
       -0.059958994 -0.4921763 -0.3204733 -0.6906389
000210 e0 c1 0a be 19 c5 2f be a8 40 7a be cf 3c f0 bc
       -0.1355052 -0.1716503 -0.24438727 -0.02932587
000220 2f 72 e2 be b1 43 28 bf a0 b4 54 be 75 57 1d bf
       -0.4422774 -0.6572829 -0.20772028 -0.61461574
000230 93 32 bc bd e8 fc 42 bf 3e 87 b9 3c 62 ed ac bd
       -0.09189334 -0.76167154 0.022647496 -0.08443715
000240 8f 60 9b be ec 1b 18 bf 12 68 44 bf 90 c1 44 be
       -0.30347106 -0.59417605 -0.767213 -0.19214463
000250 2a d0 07 be 92 4c 72 3d 19 a1 d1 be 35 ed bd be
       -0.13263002 0.059155054 -0.4094322 -0.37095037
000260 5c 9d 4e bf 19 c4 f3 be f7 ce de be 5d d0 5a bf
       -0.8070886 -0.47610548 -0.43517277 -0.8547419
000270 39 c9 83 bd a6 aa ab be 19 e2 40 bf a1 77 69 be
       -0.064348646 -0.33528632 -0.75345 -0.22799541
000280 c5 9a 43 bf 61 02 74 be c7 f6 23 3e 63 09 bb be
       -0.76408035 -0.23829032 0.16012107 -0.365306
000290 ab 28 95 be 8a ef c2 be ee dd 05 bf 20 cf b7 be
       -0.2913259 -0.3807338 -0.5229176 -0.3590021
0002a0 1f 34 00 bf 6b 38 ab be 58 80 d8 be b4 a0 84 be
       -0.5007953 -0.3344148 -0.4228542 -0.25903857
0002b0 8b b4 1a bf 19 3d cc be 8d 89 cf 3d fb ba 97 be
       -0.60431737 -0.39890364 0.101336576 -0.29634842
0002c0 1b 70 30 bf 40 29 69 be b3 34 06 bf b1 42 03 bf
       -0.6892106 -0.22769642 -0.5242416 -0.5127364
0002d0 df 28 e4 3c 92 a3 2d bf 79 81 d6 be ba 82 8a be
       0.02785152 -0.67827713 -0.41895655 -0.2705286
0002e0 cf 0b 21 bf 24 cc a3 be 1b d3 17 bf e6 10 bc bd
       -0.62908643 -0.31991684 -0.59306496 -0.091829106
0002f0 19 d6 cc be 34 39 90 be 31 b1 c3 be 00 50 d2 3d
       -0.40007094 -0.28168643 -0.38221124 0.10269165
000300 af 91 94 be 04 fc ec be f7 24 bc be b0 11 fb bb
       -0.29017398 -0.46286023 -0.36746952 -0.0076620206
000310 b4 eb 0f bf 10 b1 5c be 16 17 9e be 31 28 31 bf
       -0.5621903 -0.21551919 -0.30876988 -0.6920195
000320 a0 11 5a bc ee b8 fe bb ec 43 1b be d6 54 03 bf
       -0.013309866 -0.00777351 -0.15162629 -0.51301324
000330 58 37 df be a3 5e b3 be 50 02 3d bf 69 42 28 bf
       -0.4359691 -0.3503314 -0.73831654 -0.65726334
000340 eb 07 0f bf af a7 a0 3c de 7c 45 bf af 34 fe be
       -0.55871457 0.019611208 -0.7714366 -0.4964957
000350 c2 7f 6e be bb cc 43 bf d6 47 53 bf ff 4d 27 bf
       -0.23290923 -0.7648427 -0.8253149 -0.6535339
000360 13 e0 65 3e 4e 3d 08 bf c1 3c d7 bd 93 90 c9 be
       0.22448759 -0.53218544 -0.10509635 -0.39368114
000370 b1 34 ea bd 26 a5 28 bf e8 1c 6a bf 24 46 b2 be
       -0.11435831 -0.65876997 -0.9145036 -0.34819138
000380 01 2a d9 be 1c 36 c8 be 0e 3a bf be a2 5e 0d bf
       -0.4241486 -0.39103782 -0.3734898 -0.55222523
000390 ea 6a b5 be 1b ae d0 be 1d 36 bc be 56 31 1a bf
       -0.3543313 -0.40757832 -0.36760035 -0.6023153
0003a0 d3 b9 08 bf e6 f4 1d bf 61 df 28 bd 78 a1 99 be
       -0.53408545 -0.6170181 -0.041228656 -0.30006003
0003b0 9d 42 48 bd 42 58 ab be 8b 43 5f bf 05 64 20 bf
       -0.048891652 -0.33465773 -0.8721244 -0.6265262
0003c0 b6 cb 45 bd c3 7e 83 be 3e 6f 8d be 16 7f 68 bf
       -0.048289977 -0.2568265 -0.27623934 -0.9081892
0003d0 7f 16 ef be 3c d4 48 3b 19 69 2a bf 84 61 fc be
       -0.4669685 0.003064408 -0.66566616 -0.4929315
0003e0 00 d5 1a be 00 00 b8 be 3f ca 0f bf fb d8 98 bd
       -0.15120316 -0.359375 -0.5616798 -0.07463261
0003f0 66 bd c7 be 78 08 89 be 59 71 05 bf 39 44 32 3e
       -0.39011687 -0.26764274 -0.5212608 0.17408837
