mujoco_playground/mujoco_playground/experimental/sim2sim/onnx/go1_policy.onnx (onnx, 772916 bytes, 10 tensors)

mlp_1/sub/ReadVariableOp:0 f4 [48]
00000000: 4637 20bd 4b13 c13a f0f5 fa3b 1ef1 8f3b
00000010: f4c6 863b 5a0d a83c d08b 023c c9ab 41bb
00000020: 8e76 7ebf 55ab eebb bed5 bf3d 22c0 26bd
00000030: b12f 1e3b eed9 b63d cd98 19bd a483 b03c
00000040: 6a56 183d c4ab 70bd fc82 163b 4ede fc3c
00000050: b3df 31bd 564f 8d3c 394d 153d 9a25 b3bd
00000060: 64eb ddbc 8504 623d a805 08be 1dbf 9b3c
00000070: f4aa d03c 9fdd e3bd cbc0 72bc c3dc 743c
00000080: 0f67 9bbd 41f6 6a3c 520b e33d 4cea 373e
00000090: 7260 89bc 62de a73d dca2 4c3e 6853 8b3d
000000a0: cb2e c23d bac8 033e df5b c9bc b9ce a73d
000000b0: b2b8 263e 479e b83a a0f8 f9b9 5527 003b
-0.039115213 0.0014730481 0.0076587126 0.004392757 0.0041130725 0.020514179 0.007967904 -0.0029551855
-0.9939965 -0.007283608 0.0936694 -0.040710576 0.0024137313 0.089282855 -0.037499238 0.021547146
0.037191786 -0.05875756 0.0022966256 0.030867722 -0.043426227 0.017249744 0.0364506 -0.08747406
-0.027089782 0.05518009 -0.13283408 0.019012028 0.025472142 -0.11126255 -0.014816473 0.014945212
-0.07588016 0.014340938 0.110861436 0.17960471 -0.016769622 0.08196713 0.19984001 0.06803018
0.09481581 0.1286954 -0.02457994 0.08193726 0.16281393 0.0014085256 -0.0004767822 0.0019554694

mlp_1/MLP_0_1/hidden_3_1/Cast/ReadVariableOp:0 f4 [128, 24]
00000000: 9849 0bbb 76d0 a03d 51d1 9fbc 6f6c 66bd
00000010: 3e7d e6bb 7c3c cabc 0f3b d7bc f6ad 09bc
00000020: 9535 8a3d 2b5a 783c df11 ef3c 4052 71be
00000030: 56f3 1cbd a261 3f3b 30e9 3fbd 9b32 80bc
00000040: 5f20 4fbd 46e1 efbd e03a 9cbc dfb4 ffbc
00000050: 20fc 5cbd 420b 81bd b47a 8e3c ee18 1b3e
00000060: fba4 cebb 6819 793d c3b3 47be 90a5 e0bc
00000070: b856 943d 1334 2a3e cc31 7e3d 8848 f03c
00000080: bbcc c23d 4762 d0bb 3df5 9fbb d7dd cfbd
00000090: bfee f3bb 9a89 373d bb6a 033e de39 30bd
000000a0: 168b 17bd 7e4a 033e 8172 44bd fe14 04bd
000000b0: 8395 e83c 6011 85bc 3550 653c ee1b 5f3d
000000c0: 8ca0 4d3d 99f9 72bd 29cd 923d d9aa 1c3b
000000d0: e7eb 553d 98b4 963c 9bfa ca3c 1d17 5bbd
000000e0: 792b 8cbb d106 b33c 47d7 ccbd 64b0 59bc
000000f0: 663f a63d cd79 0a3e b12e fa3d 6e6a 903d
00000100: 9e12 b53c f923 173d 21b4 1c3d c66f a83c
00000110: 59a5 313c 8ea8 253c 1722 053d aaec b43c
00000120: b6cd 983d 22d7 5b3d 4ad0 2dbe 0fdf 4ebe
00000130: b3b2 503d 15d9 833e 1e7f 153e f9f1 7c3d
00000140: 4a1e 6d3e 4946 61bc 9665 373c ff3f 21be
00000150: 06b9 823e c232 253e 18f9 d23d 08dd 983e
00000160: d728 353e aedc 6c3e 96ef 9e3e 56f7 893e
00000170: b52e 273e 6e4a cb3e 4f53 b23e 384c b63d
00000180: 9d88 773b 4f91 60bd e78c 753d 4b1d 4bbd
00000190: 7292 9cbd 858e 23bc 1b3b 7cbc c91b 003d
000001a0: 1d30 3fbd 0277 45bd cb55 b13c 6c05 533d
000001b0: 359f cabd 5907 81bc d425 573c e046 f4bc
000001c0: b052 debd a100 81bd ffc1 a6bd c7ed 00bd
000001d0: 851e 6ebd 50d2 e7bc 2597 003d 7f9c fbbd
000001e0: 639b c7bc 8558 53bd 85f5 12be 7043 e7ba
000001f0: 3d84 3fbe 2811 793d 34f5 db3c dcc5 4a3d
00000200: dd3b ebbc e59a da3c db6d b6bb 900e bcbc
00000210: 9a98 cbbc ebc1 4abd ad05 523d cc01 0dbc
00000220: 9792 323d d4bf 4cbd 732b b5bc 065c 5ebb
00000230: bf3b cdbd 8120 f7bb 594a 0a3c 00fe 0dbd
00000240: 1715 853d a180 543c 6bb8 a63c e3f4 37bc
00000250: 819f ec3d d68f 043d f5b3 4dbd 3c4c 63bd
00000260: b31c abbb 8ba3 863c aa57 ccbc d602 243d
00000270: cda5 d0bd 6a28 20be b879 0abe d265 16be
00000280: f297 8439 eb77 65bd eabc 54bd d74a 13be
00000290: 8ac3 dcbd 5835 32be e4ed f9bd 1672 b7bd
000002a0: 2e7b c1bb 10d3 8d3d 89a3 69bd 6ab6 613d
000002b0: ff29 a6bd d42d 1e3e 296d e53c 74b8 d7bd
000002c0: f641 d23c 5c2d 0e3a 8d74 e1bb 23ca 0e3b
000002d0: c2f6 6ebd d467 0ebd a3e6 8f3c ed5f a7bc
000002e0: cf7b 4e3d 8788 b83d 808e 64bc 84c1 473d
000002f0: 0839 21bc 944b 7abd bc79 94bd 58eb 5bbd
00000300: d16b 30bd 5c5f 8fbc b80f e8bd e5af a53d
00000310: a9d4 2e3e 069c 04be 40cb 383c fe96 69bd
00000320: a3b0 0bbe 7a0a b7bc 903a b33d 3066 3ebc
00000330: 6686 a03e 268c ec3c cd04 2e3e 4645 153f
00000340: 486a 5b3e 4ed3 8d3e ff8e fc3e 927b b93e
00000350: c082 783e ea05 c83e 47ed 9f3e 968a f33d
00000360: eb97 c93c 902c c73d f111 8bbb ceb2 e03c
00000370: f90d bbbc aeae d23d 65d5 a6bc b8b9 1a3d
00000380: a699 be3d 7c4c 3abd 2df8 ccbc 6192 c33c
00000390: 2027 b43d d9c5 363e f0f2 343d 4945 1bbc
000003a0: ab99 27bc fc22 f23d 3e3f 0cbb 22ec ca3d
000003b0: 2856 c53d e88b 243d 4a6e 703c d94d 16bd
000003c0: 882c 6bbc 9537 c1bc 7332 64bd d842 1aba
000003d0: 115c 5bbd 97ec 9b3c 974f e43c 7c33 92bd
000003e0: c48e 2d3e 860f 52bd 712e 7d3d 8794 dcbd
000003f0: 7eca b33c dd91 873c d521 1e3e ae7b 633c
-0.0021253582 0.07852261 -0.01950899 -0.056255754 -0.007033973 -0.024687044 -0.026273279 -0.008403292
0.06748501 0.0151582165 0.029183326 -0.23566532 -0.038318 0.002920248 -0.046853244 -0.01564913
-0.05056798 -0.117128894 -0.019071043 -0.031214176 -0.053951383 -0.063009754 0.017392494 0.15146229
-0.0063062883 0.060815245 -0.19502167 -0.027422696 0.07243103 0.16621427 0.06205921 0.02933146
0.095117055 -0.006359372 -0.0048815296 -0.101497345 -0.0074442322 0.04480896 0.12833683 -0.043023936
-0.036997877 0.12821385 -0.047960762 -0.032246582 0.028391605 -0.016243637 0.013996174 0.054469995
0.050201938 -0.059320066 0.071680374 0.0023905544 0.052226927 0.01839666 0.024777701 -0.05348884
-0.0042776433 0.021853836 -0.100019984 -0.013286684 0.08117561 0.13523026 0.12215937 0.0705155
0.022103604 0.03689954 0.03825772 0.02056111 0.010842645 0.010110987 0.032503214 0.022085506
0.07461111 0.053671964 -0.16973987 -0.20202278 0.05095167 0.25751558 0.14599273 0.0617542
0.23156086 -0.013749667 0.011193654 -0.15747069 0.25531787 0.16132644 0.10301417 0.29856133
0.1769136 0.23131058 0.31042165 0.26946515 0.16326411 0.39705223 0.34829184 0.08901256
0.0037770637 -0.054826077 0.059948828 -0.049588483 -0.0764512 -0.00998271 -0.015394951 0.031276498
-0.046676744 -0.048209198 0.021647355 0.051518843 -0.098936476 -0.015750574 0.0131315775 -0.029818952
-0.10855615 -0.06298948 -0.081424706 -0.031476762 -0.058134574 -0.028298527 0.031394143 -0.12285709
-0.024366086 -0.05159809 -0.14351471 -0.0017643999 -0.18702789 0.060807377 0.02685032 0.0495051
-0.028715068 0.026685188 -0.005567295 -0.022956163 -0.02485304 -0.04950134 0.051274944 -0.008606385
0.04359683 -0.04998763 -0.022115445 -0.0033929362 -0.10021161 -0.0075417166 0.008440577 -0.03466606
0.06498163 0.012970121 0.02035161 -0.011227819 0.115538605 0.032363735 -0.05022045 -0.055492625
-0.005221927 0.016435405 -0.024944145 0.040041767 -0.10187874 -0.15640417 -0.13522995 -0.14687279
0.0002529021 -0.056022566 -0.051937975 -0.14384018 -0.107794836 -0.17403162 -0.12203577 -0.08957307
-0.0059045767 0.069250226 -0.057040725 0.055105604 -0.08113479 0.1544717 0.028006153 -0.105332285
0.025666218 0.0005423629 -0.006880349 0.0021787963 -0.058340795 -0.034766987 0.01756603 -0.020431483
0.05041104 0.090104155 -0.01394999 0.048768535 -0.0098402575 -0.061107233 -0.072497815 -0.05369124
-0.04307157 -0.017501526 -0.11331123 0.0809019 0.17073311 -0.12950143 0.011278927 -0.057028763
-0.136416 -0.022343863 0.08751404 -0.011621043 0.31352538 0.028875422 0.16994019 0.5830883
0.21427262 0.27700275 0.49327847 0.3622709 0.24268627 0.39067012 0.31235716 0.118916675
0.024608573 0.097252965 -0.004244082 0.02742901 -0.022833811 0.10287224 -0.020365426 0.03777477
0.0930665 -0.045483097 -0.025020683 0.02387351 0.08796525 0.1784891 0.044176996 -0.009476968
-0.010229508 0.11823079 -0.00214 0.0990832 0.096355736 0.040172487 0.014674732 -0.036695335
-0.014353879 -0.023586074 -0.055712175 -0.0005884594 -0.0535546 0.019033713 0.027869983 -0.07138726
0.16948992 -0.051284336 0.061811868 -0.10770517 0.021947142 0.016549045 0.15442593 0.013884468

mlp_1/MLP_0_1/hidden_3_1/BiasAdd/ReadVariableOp:0 f4 [24]
00000000: b8c0 3c3d 35d8 6c3d acc8 7b3c 1021 deb8
00000010: e0b3 593d 18e0 b33d 7c2a c43c e319 933d
00000020: 81be 523d 6c5c e1bc 259c 533d 67f7 633d
00000030: 6732 e4be 6760 70be 291b 98be a4dc eebe
00000040: f2ab 85be 906f 99be 4a81 fcbe b660 c6be
00000050: 8b98 92be 9a77 f0be 0967 abbe 02bb a3be
0.04608223 0.05782338 0.015367668 -0.00010591943 0.053150058 0.08782977 0.02394604 0.07182672
0.05145121 -0.02750989 0.051662583 0.055655863 -0.44569704 -0.23474275 -0.29708222 -0.4665271
-0.26107746 -0.29967928 -0.4931739 -0.3874566 -0.28632006 -0.4696625 -0.33477047 -0.31978613

mlp_1/MLP_0_1/hidden_2_1/Cast/ReadVariableOp:0 f4 [256, 128]
00000000: a049 333c 79bc 163c 8d76 a9bb 2db8 2f3e
00000010: 53d0 68bd ddbe c63c 725c b7bc 7d39 6e3b
00000020: e0f2 52bc 4406 58bc eea7 2c3e 33aa 413e
00000030: 4043 713e 04ee 30bd 2b89 973d 9190 063e
00000040: 1e4a 25bd 80fa 893c bf3b b9bd 70fc 033e
00000050: 31ea df3d b657 f8bd bf33 d43c 5a27 bbbd
00000060: 5a6f 90be fe01 003e 49d5 adbd fcb8 f5bb
00000070: b713 efbc cf9f 81bc 419b fabd ec3a 91bd
00000080: eb81 cabd 4117 183e b24f 37be 13aa 983d
00000090: d52f db3c 86e2 753d a938 a43d 1a02 a83d
000000a0: 3837 fc3d 732f 2abe 6d68 e9bd aba5 c33d
000000b0: fe69 eabd 19d4 64bd c0d9 0b3d 67a5 983d
000000c0: b8d5 c7bc 8ade cc3d 7c68 583d 4fd9 07bd
000000d0: ef60 7b3d 4089 e93d 0b43 033e 3b5c bf3d
000000e0: 3e17 a2bd 6323 46bd 026f 29be 5538 31be
000000f0: 1a21 01be 759c b4bd 8ea1 283d b69f 16be
00000100: 5056 283e 905a 143e 3326 c9bd 487a 2dbe
00000110: 88bd 05bd f301 3bbc 81a2 d7bd 5612 283e
00000120: f26e dcbc 1b9b 883c 8f44 513d 840a 63bd
00000130: 5b7c ce3d 3433 933c 5a39 11be f971 57bd
00000140: 088f 843d 7c36 a43c d8e2 333e 57db 6f3d
00000150: b204 573d 3830 1ebd 0af7 3a3e 52b8 a43d
00000160: 3c86 40bd 9874 fc3d 47ef 6a3d a1b2 f43c
00000170: c9ae 43bc dd11 3abd eb35 cc3c c3d1 7c3d
00000180: 0888 32be b37f 493d 2dc8 0abe c4fc 68bd
00000190: bd01 143e da15 1b3e fe9c 083d feca 23be
000001a0: 26ef 8fbd d96b e43b c13e ef3d 7f17 f0bc
000001b0: 1513 303e 013a a03d 915d 503e aa3a 833e
000001c0: 978d 5a3c f74d 643e 6220 7f3d 5a24 dfbd
000001d0: 06b4 f8bd 96ec 7a3d a7f8 aebd 44f7 efbc
000001e0: 4199 6fbd 5b58 f1bd fc97 50bc 261d 8bbd
000001f0: 52f6 60bd 14ae 4cbb 6ad9 1c3e 713b 6cbd
00000200: 6169 313b 2599 153e 1a79 92bd f971 b5bd
00000210: 4718 163e 11f2 903d aa37 5fbd 6759 afbd
00000220: ec2c 513e c3c1 5bbe 58ce ad3b 7184 49bc
00000230: 69ec b13b 8011 bebd 0228 5b3d f636 84bd
00000240: a087 923d a1dc cfbc 36ae 003e b979 2e3d
00000250: 7577 8dbd b221 6a3d 75a0 dfbd 4dfd 4d3d
00000260: a1f5 08be 38c7 ca3d 559e 613d 730a 723d
00000270: 1cdf 67bd 01f3 353d 700c 1e3e b987 eabd
00000280: 9503 953d 18ba a13d 4163 3cbc ff8a 243e
00000290: e951 03be 2e7b e93d 30cc 613e 3d55 f03d
000002a0: be86 9e3d 2ddc f7bd d13f 32be d6a3 57bc
000002b0: 8a38 f1bc 4c53 02be bb09 f2bd 6226 99bd
000002c0: f499 d53d 580e afbd f60d a6bd 2345 6ebb
000002d0: 1194 8cbe 389c 873d 4934 e23d 751c 6c3d
000002e0: 14c9 d7bc 0ff2 f13d 8500 083e 6478 17be
000002f0: 35db cabd 609d 163d f0b4 aabd 11a7 15bd
00000300: 8087 27be 00d8 b73d 400a 253c b32e a43d
00000310: acb2 80bd 3abd a0bd c13b 823d b1c5 62bc
00000320: 37ff f03c c1b1 f0bc 0194 663d f999 e7bd
00000330: f519 24be 700a 34be 00c8 01bd 3fe9 23be
00000340: ec7d e93b d04a 8ebd 5439 be3d 0983 353e
00000350: 71ee 123e 78a4 f93c 561d d2bd f139 18be
00000360: 0cb0 f83c 0b5d 51be 8b26 31be c8b4 bbbd
00000370: fc3a b2bb 9e25 ebbd db8a d8bc caee fe3d
00000380: b527 8ebc 7f17 8fbc fb1d e6bd e43f bd3d
00000390: 9a87 f13c e274 db3d 3b4a 583d 5ab2 35bd
000003a0: 332a 58bc de9f 2b3c d3f3 1fbe 1dab 213e
000003b0: 7289 d83c af9e 013e ff67 9e3d 5054 253c
000003c0: 1336 03bd 803f 633d 97f8 3ebe c082 bcbd
000003d0: a145 263d 394a cbbd dcd5 e0bc 07e5 a73c
000003e0: 8fe8 fcbd 9d26 adbd 7c82 68be 3237 f23d
000003f0: 7883 f83c 431f 583d 6c7d 86be e5b0 c43d
0.010942847 0.009200209 -0.005171603 0.17160101 -0.0568393 0.024260933 -0.022382949 0.0036350184
-0.012875289 -0.013185088 0.16860935 0.18912582 0.2356081 -0.04319574 0.073992096 0.13141085
-0.040353887 0.01684308 -0.09044599 0.12889266 0.1093334 -0.121261045 0.02590358 -0.09138365
-0.28209955 0.1250076 -0.084879465 -0.0074988585 -0.029184205 -0.015823273 -0.122366436 -0.070913166
-0.09888061 0.1485262 -0.17901495 0.07454314 0.026756207 0.060030483 0.080186196 0.08203526
0.1231522 -0.16619663 -0.11396871 0.09553083 -0.11445998 -0.055866335 0.03414321 0.07453423
-0.024393901 0.100033835 0.05283402 -0.033166226 0.06137174 0.114031315 0.12818544 0.093437634
-0.07914589 -0.04837359 -0.16546252 -0.17306645 -0.12610283 -0.08818904 0.041169696 -0.14709362
0.16439176 0.14487672 -0.09821739 -0.16941178 -0.032651454 -0.011414039 -0.10529042 0.16413245
-0.026908372 0.016675523 0.051090773 -0.05542995 0.10082313 0.017968751 -0.14182034 -0.052598927
0.064725935 0.020045511 0.17567003 0.05855879 0.052494712 -0.038620204 0.182583 0.08042969
-0.047003016 0.12326926 0.0573571 0.029870333 -0.0119435275 -0.045427192 0.024928054 0.061723482
-0.17434704 0.04919405 -0.13552924 -0.05688168 0.14453788 0.15145054 0.033352844 -0.15995404
-0.07028036 0.0069708643 0.11681891 -0.029308079 0.17194779 0.07823563 0.20348193 0.25630695
0.013339422 0.22295366 0.062286742 -0.108956054 -0.12143712 0.061260782 -0.085435204 -0.02929271
-0.058495764 -0.117844306 -0.012731548 -0.06792669 -0.05492241 -0.0031231688 0.15317312 -0.057673875
0.0027070867 0.14609201 -0.071520045 -0.08859629 0.14657699 0.070774205 -0.054496445 -0.08561974
0.20427293 -0.21460633 0.005304139 -0.012299643 0.0054297936 -0.092806816 0.05350495 -0.064557955
0.07154775 -0.025373759 0.12566456 0.042596553 -0.0690755 0.05716104 -0.109192766 0.050290395
-0.1337495 0.09901279 0.055082638 0.059091996 -0.056609258 0.0444212 0.15434432 -0.11451668
0.07276074 0.07896823 -0.011498273 0.16068648 -0.12824215 0.11400448 0.22050548 0.11735008
0.07740544 -0.12102542 -0.17407157 -0.01316162 -0.029445905 -0.12727088 -0.11818262 -0.07478024
0.10429755 -0.08547658 -0.081081316 -0.0036357127 -0.27456716 0.06621593 0.11045129 0.057644326
-0.026340999 0.11813747 0.13281448 -0.14792019 -0.09905092 0.03677118 -0.08335292 -0.03653628
-0.16360283 0.089767456 0.010073245 0.0801672 -0.06284079 -0.07848592 0.063590534 -0.013841079
0.02941857 -0.029381635 0.05629349 -0.11308665 -0.16025527 -0.17582107 -0.031684875 -0.16006945
0.0071256068 -0.06947863 0.09288278 0.17725767 0.1434877 0.030473933 -0.10259502 -0.14865853
0.030357383 -0.2044565 -0.17299859 -0.09165341 -0.0054391604 -0.11481784 -0.026433399 0.12447889
-0.017352918 -0.017467258 -0.11236187 0.09240702 0.029483605 0.10715653 0.052805167 -0.044359542
-0.013193655 0.010475127 -0.15620355 0.15787931 0.026432727 0.12658189 0.077346794 0.010090902
-0.03203399 0.05548048 -0.18649517 -0.09204626 0.040593747 -0.09926266 -0.027445726 0.020494951
-0.123490445 -0.084546305 -0.22706026 0.11826934 0.030336127 0.05276419 -0.26267564 0.096040525

mlp_1/MLP_0_1/hidden_2_1/BiasAdd/ReadVariableOp:0 f4 [128]
00000000: c7f3 263c b2dd 1d3d 0bfc d8bd 18e1 a0be
00000010: 3955 8a3d c99f c2bd d904 0c3e 3a55 483d
00000020: fe2c b9be 3be5 2dbc 88a7 0dbd e3f5 66be
00000030: fa4b babe 5d6d 903d 0986 383d 4206 ccbe
00000040: 222e 06be 4ec0 6ebd 435d 30be bd54 c4bd
00000050: 2cb9 88bd 38db 293d 2597 34be fab6 1b3b
00000060: 3684 3a3d 0cd5 e8bd f95d b4bd 5b29 563d
00000070: c96d babe beaa 6fbe 352c 1dbe 168b bdbc
00000080: 0653 2ebd 942b f9bd aa29 7abe c585 66bc
00000090: 196b a0bd 0642 af3d 6a9d 5ebe e371 edbb
000000a0: 9b50 9abe 69e0 c4bd 803a 2bbe 7639 b53c
000000b0: 6442 acbe 6174 99bd 61e3 7fbd 06a5 ca3d
000000c0: 0c53 fcbd 8ac4 cc3c 84d9 84be 09b7 e6bc
000000d0: f55b 52bd f30f 8d3c f078 c3bd 4c9c 7fbe
000000e0: f840 5bbe 01eb f23c 0832 b33d eefb f1bc
000000f0: 1710 8f3d 13d4 02be 0696 003d f6ac 20bd
00000100: ec62 0abe 1e4a 38be 22fc 153d 7a33 83be
00000110: 6403 d63c 9124 fdbd ad03 eebd 372d b2be
00000120: 9e1a 22be 1523 823c fcaa ddbd 8b75 8dbe
00000130: 8db5 563d f9a2 54be 5eb8 433c 8d22 67bd
00000140: be60 08be 59cb b43b 7e49 b8be 529a 56be
00000150: e9ce 473d fe9c 44bd 7746 f0bd 2329 8cbd
00000160: b35f 503d c7a4 343b 1a2f 02bd e051 33b9
00000170: 605f 99be 0f4c 043c 4d95 76be e06b c7bd
00000180: 8ed3 9fbe 1157 34be a87c ecbd d0e7 9c3d
00000190: 2011 19bd 6189 17be 502a 133e d957 8abe
000001a0: 1363 91bc 8061 52bb ee8c 4cbe 21e0 97bc
000001b0: 4f3c 4abe 27c1 2cbd e640 b4be b97e 22be
000001c0: 1436 ebbd 364b babe 0bc7 0f3d 6caa 6d3b
000001d0: bb62 123e 5086 6dbb 4f02 c6be 67b3 4ebe
000001e0: 5657 08be 589e babe 255c 3bbd a87c e43c
000001f0: 9e1b 8a3d 97c3 e6bc 9bd2 ffbd bb2f 50bd
0.010189957 0.038541503 -0.105949484 -0.31421733 0.06754536 -0.09503133 0.13673724 0.048909403
-0.3616714 -0.010613735 -0.0345836 -0.22554736 -0.3638609 0.070521094 0.0450497 -0.39848524
-0.13103536 -0.058288865 -0.17223077 -0.09586475 -0.06675944 0.04146883 -0.17635782 0.0023760186
0.045536242 -0.113687605 -0.08806986 0.052285533 -0.36411884 -0.23404977 -0.15348895 -0.02313761
-0.042559646 -0.12166515 -0.24429956 -0.014069979 -0.07832927 0.08557515 -0.21739736 -0.0072462424
-0.30139622 -0.09613115 -0.16721535 0.022122126 -0.33644402 -0.07492901 -0.062472705 0.09894757
-0.123205274 0.02499606 -0.259472 -0.02816345 -0.05135723 0.01721952 -0.09544551 -0.24961966
-0.21411502 0.029653074 0.08749777 -0.029539075 0.06985491 -0.12776212 0.031393073 -0.03922745
-0.13514298 -0.17997023 0.036617406 -0.2562521 0.026124664 -0.1236049 -0.11621795 -0.3480012
-0.15830466 0.015885869 -0.10823628 -0.2762874 0.052419234 -0.20765294 0.011945812 -0.056429435
-0.13318154 0.005517405 -0.3599357 -0.20957306 0.04878131 -0.048001282 -0.1173219 -0.06843784
0.050872516 0.0027564035 -0.0317832 -0.00017101271 -0.29955578 0.008074774 -0.24080391 -0.097373724
-0.3121609 -0.17611338 -0.11547214 0.07661402 -0.037369847 -0.147985 0.1437161 -0.27020147
-0.017747438 -0.0032101572 -0.19975635 -0.01853949 -0.19749568 -0.042176392 -0.35205764 -0.15868653
-0.11484924 -0.36385506 0.03510193 0.003626491 0.14295475 -0.0036243387 -0.38673636 -0.20185624
-0.13314566 -0.36448932 -0.045742173 0.027891472 0.06743549 -0.028169436 -0.12491342 -0.05082677

mlp_1/MLP_0_1/hidden_1_1/Cast/ReadVariableOp:0 f4 [512, 256]
00000000: 726d 083e d20f bb3c d8ec 043e 2553 a13d
00000010: 48bf 94be 20b2 173d 6796 8a3d d04f 91bc
00000020: c8fd fd3d 4390 363e b8b9 463e dd0e 0a3d
00000030: 2c57 a13d 99bb 62bd 5a49 073e 522e 4d3e
00000040: 6b51 873d f8d2 c53d 675c 0e3e 78ea 8d3d
00000050: d5bd 8fbd f595 0e3e 004c 47bc 8a1d ee3d
00000060: fc9b 073c e4d0 06bd a040 6bbc 7b7c 10be
00000070: 5429 32be 92fe e2bd 984c 3b3d 6881 35bd
00000080: f425 80bd e158 15bc 4713 bfbd 08f6 a53d
00000090: f0bf 133d 12a5 923e 5a82 ca3d c88c aebd
000000a0: 7f78 763d 1dc3 843e 50d4 833e 612c a23e
000000b0: 1317 59ba 54a6 953e 5140 cbbd d686 b03c
000000c0: a0fa 633c 7151 f7bd 79f0 07be e1f4 013d
000000d0: 44db 90bd 7989 88bd 70f0 b53c 5d8f 13bd
000000e0: e28b ae3d 00aa 52bd 8291 d43d 58e3 103e
000000f0: 8146 a1bd a619 9b3d 7b74 093c c390 0c3b
00000100: 312a 49bd ba71 bb3d fc3a 6fbc f092 073e
00000110: 56da 9dbc 166c 7cbb ae82 bd3c 340b bb3d
00000120: fb98 513e 7bc7 1c3e cec3 96bd 5a5e 8d3e
00000130: 7048 ab3d 9142 663d e087 72bc 48c3 7c3e
00000140: 40be fd3d 962e 52bc 86e6 1ebd 27a3 d1bc
00000150: 1ef9 97bc 1d79 0e3d eb21 6ebd 093d 823e
00000160: eba8 8f3d f0b6 21be 030b b03d ef3a 8ebd
00000170: 1b22 4cbd 93ec 9b3c 6e28 eebd 99d4 8cbc
00000180: fdb4 913d 57b9 6dbd 1c39 d4bd 2acf 8c3d
00000190: ca64 c63d c1e4 7ebd 5443 363e fdb5 9ebd
000001a0: da0a 1a3e eec6 95bd 53b3 713e 7ca7 d6bb
000001b0: c162 1b3d a828 20be cb1a 4b3e 1fb7 13bd
000001c0: 0e59 cd3d c424 0c3e 476a c33d 6bad 743e
000001d0: 30f4 083e 7a23 62bd 93bd 4dbe 46c6 c0bd
000001e0: 4541 d0bb b533 793d a777 793e 0c72 b73d
000001f0: 81c5 02bd 3f14 3e3e 2fe7 ef3d ac28 703d
00000200: 545f 063e 6181 8c3d d4b9 cf3d 72be 6d3e
00000210: 0d6d 0e3e 118f 0cbe ece7 553d 976c e93b
00000220: ac9d 9e3d e8e9 533e 66da 513c df62 5dbd
00000230: 93e2 b83d 20af c2bd dfb3 613d 1b2b c3bd
00000240: 3ae7 783d bc4f 223e e11b ca3d 7ab7 b8bd
00000250: 00cb 8c3d f557 003e 0949 c93d e2ef 2f3c
00000260: d52e 603d 3ec2 1cbd 885b b7bd 5729 e2bd
00000270: 84e7 793d bbb7 5c3e 4c2b 863d d52f b4bd
00000280: 0cbc 48bc 1246 043c 6fc1 b0bd 0444 4bbd
00000290: 68f4 7d3c 7c3f c9bd 8cd5 143e feb5 8b3d
000002a0: e36c dc3c 7d06 fc3b aaca 90bd 6c06 d03b
000002b0: 1ffd e23d 600e 8bbe a329 e33c a21a 24be
000002c0: 5528 dabd b6b3 22bd 54e5 82bd 33b2 a3bc
000002d0: fe8c 253e 147b 00bd 7b0f 10bd 400f 51bd
000002e0: 5e97 413e 9523 f43d e906 9dbd 284f 543e
000002f0: 1b56 993c 8c92 ec3c 4519 e23d 7dfc f7bc
00000300: bbb0 343e 4e6d 003e 0367 80bd 6e4e cf3d
00000310: 15bd 89bd 956c e9bb 8264 573e 6fb0 8fbd
00000320: 644a 103e f474 243e 5b31 f3ba 9350 1f3e
00000330: 74e8 0ebc fbaa 053e 0cb1 06bb ddca 3a3e
00000340: 019b 75bb a104 47bb f330 e5bd abc7 8bbd
00000350: f251 2b3e 96a4 3a3d 9b61 09be a1e4 77ba
00000360: 1697 463e 578b 223d 576c df3d 7e1d a6bb
00000370: cfca d53c 4ed4 413e 7a57 033d dd4a c2bc
00000380: cac3 ab3e 91a1 1d3e fee4 a43d 1391 c73d
00000390: 2b2a 33be fbe9 b1bc da85 82bd be74 4d3d
000003a0: 07ee bc3e a3c2 a43d 801b 923e 6468 3e3e
000003b0: 4c29 573d 1025 303b 2a83 623e 5857 7c3d
000003c0: a301 08be dabd 823d 860a a13d f212 86bc
000003d0: c390 14be 8279 913d 6fb3 aa3e adf7 f0ba
000003e0: 2a85 3b3e ff48 a63c 0e76 303c acce 8a3d
000003f0: 9782 06be 54ef 6b3d af90 323e 03e9 1c3e
0.13323 0.022834692 0.12980974 0.07877187 -0.29052186 0.037035108 0.06766968 -0.017738253
0.124019206 0.17828469 0.19406784 0.03370558 0.07877955 -0.05535469 0.13211575 0.20037201
0.06607326 0.0965938 0.13902436 0.06929487 -0.070186295 0.13924392 -0.012164116 0.11626728
0.008276936 -0.032914057 -0.0143586695 -0.14109986 -0.17398578 -0.11083712 0.045727342 -0.044312865
-0.06257239 -0.009115429 -0.09329849 0.08103567 0.036071718 0.28641564 0.09888144 -0.08522946
0.060173508 0.2593011 0.2574792 0.31674483 -0.00082813314 0.2922846 -0.09924377 0.02154867
0.013914734 -0.120760806 -0.13275327 0.031727675 -0.070730716 -0.06666846 0.022209376 -0.036025394
0.08522774 -0.051431656 0.10379316 0.14149225 -0.07874776 0.075732514 0.0083895875 0.002144859
-0.049112502 0.09152551 -0.014601465 0.13239646 -0.01926915 -0.0038516573 0.023133602 0.09132996
0.20468514 0.15310471 -0.073615655 0.27611047 0.08363426 0.056215826 -0.014802903 0.24683869
0.12389803 -0.01282849 -0.038794063 -0.025590492 -0.018551406 0.03478347 -0.058137815 0.2543719
0.070146404 -0.15792441 0.0859585 -0.069448344 -0.049837213 0.019033706 -0.11628805 -0.017191218
0.07114599 -0.058038082 -0.10362455 0.06875451 0.09687193 -0.062229875 0.17799121 -0.07749555
0.15043202 -0.073133335 0.23603563 -0.0065507274 0.037935976 -0.15640509 0.1983444 -0.03606331
0.100267515 0.136859 0.09541755 0.23894279 0.133744 -0.055209614 -0.20091848 -0.09412818
-0.006355437 0.060840327 0.2436205 0.089572996 -0.031926636 0.18562411 0.11714017 0.058632538
0.13122302 0.068606146 0.10142866 0.2321718 0.13908787 -0.1372645 0.05222313 0.0071235406
0.07744917 0.20694697 0.012808418 -0.05404937 0.090275906 -0.09506059 0.05510318 -0.09529706
0.06076739 0.15850729 0.09868599 -0.090193704 0.06874657 0.12533553 0.098283835 0.010738345
0.054732163 -0.03827118 -0.08953005 -0.11043041 0.061011806 0.21554463 0.06551227 -0.08798186
-0.012251865 0.008073347 -0.086306445 -0.04962541 0.0155001655 -0.09826562 0.14534587 0.06821822
0.02690739 0.007691203 -0.07069905 0.006348422 0.11083435 -0.27159405 0.027729815 -0.16025785
-0.10652224 -0.039722167 -0.06391397 -0.019982433 0.16167066 -0.031367376 -0.035171013 -0.051039934
0.18905398 0.11920849 -0.07667334 0.2073332 0.018717816 0.028878473 0.11039976 -0.030271763
0.17645542 0.12541696 -0.06269648 0.10122381 -0.06725518 -0.0071235397 0.21034434 -0.07016074
0.14090878 0.16060239 -0.0018554138 0.1555808 -0.008722413 0.13053505 -0.0020552306 0.18241449
-0.0037476423 -0.003036775 -0.11190977 -0.06825193 0.16730478 0.045567118 -0.1341614 -0.00094563706
0.19393572 0.039683666 0.10909336 -0.0050694337 0.026097683 0.18928644 0.032065846 -0.023717338
0.33547813 0.15393664 0.08051489 0.097444676 -0.17496555 -0.021718016 -0.063731864 0.050160162
0.3690035 0.080449365 0.28536606 0.1859451 0.05252962 0.002687756 0.22120348 0.061606735
-0.13281874 0.063838676 0.07863335 -0.016366456 -0.14508347 0.07103254 0.33340022 -0.001838436
0.18312517 0.02029848 0.010770334 0.06777701 -0.13135754 0.057601288 0.17438005 0.15323262

mlp_1/MLP_0_1/hidden_1_1/BiasAdd/ReadVariableOp:0 f4 [256]
00000000: 781e 56be 90b5 9cbe 8e95 42be c48c 93be
00000010: be9e b1be 544b 88be b151 97be 0188 edbc
00000020: 4e0a 34be b0f9 6bbe 7255 9fbe 2124 febd
00000030: 2ffc febd 47e3 95bd b89c 5bba 9d2c 12be
00000040: 7333 9d3d 189b 833c 72ef 97be f4ad 3dbe
00000050: 9188 bebc c438 8dbe fb03 d2bc a36e 6cbe
00000060: 62ff 79be 1804 1cbe e081 4cbe 0d7a 70bc
00000070: 583a d3be 37cd 97bd 2bfe 14be 4466 35be
00000080: 7f71 6ebe 764f 91be b838 62be 6580 7abe
00000090: 2366 133e 0436 f0be e7ad b2bd 4741 8fbe
000000a0: 9337 7cbe 3485 57be e6d3 54be 41f8 babe
000000b0: 5b17 77be 5d09 7ebe 6e79 99be 35f3 2fbe
000000c0: 35fc f0bd a14d 4cbe 396b 6ebe 8618 a3be
000000d0: 759f d3b8 a05b c4be 3673 9ebe de92 04be
000000e0: 6195 a3be 8ecc d6be 2a2b 46be 1e4c 30bc
000000f0: 624b c5bd 7a7e 87be b805 22be c5ff e1be
00000100: 1875 60be 3acd 7abe e1f2 f1bd 9183 92be
00000110: be07 9dbd 21c1 8cbe 906e 87be dbf7 37be
00000120: 93b8 ccbe d4d6 a0be 581d 2cbe 0ea5 79bd
00000130: 7b4e bcbe 660e aabe 615e 02be df0a 67be
00000140: 359a 8abe 47a1 f8bd 1c8e 8ebe 3b15 2abe
00000150: 2b30 203d 2344 a7be 6409 1dbe bbcc febd
00000160: cdaf 6fbe 6420 8abe f39e 64bc e3d1 07be
00000170: f3d7 51bc f858 37be 5c8b 5ebe bfdd 2ebd
00000180: 7116 82bd 91c5 9b3c f2e5 edbd f5bb a1be
00000190: e4ce 6abc d225 c3be 5bd1 74be e366 b13c
000001a0: 1b2b 91bd cab0 2cbe 969e 77be f326 8dbe
000001b0: 907a 82be a916 a7be 87e4 58be 3320 5dbe
000001c0: 9df8 56bd a181 8fbe 3be6 85be aaa3 333d
000001d0: 218b 30be 295f 39bc bcbd 58be 8c67 2abe
000001e0: 45b7 dabe aff2 9bbe 98b2 babe 8d94 cbbb
000001f0: cd16 58be 7449 83be 4fb9 96be 8136 e8bd
00000200: 9bd4 8cbd 8138 acbe 5a15 1f3e d963 67be
00000210: 69e9 37be 61cb f5bd bdc7 89be f031 0cbe
00000220: 27a2 febd 3344 ddbe e815 cebd 4e65 50be
00000230: 85d9 83bc f313 1ebd a47c 9cbd c859 a9be
00000240: 976f 02be ec39 a5be 8cab 85bd 0138 8bbd
00000250: 5d9f d7be d115 75be 7dd9 6e3c e750 5fbd
00000260: 7773 d3bc 475b 81bd 55df 8fbe c73c 91bd
00000270: d948 8ebe 8e24 43be c350 cabe 9769 6dbe
00000280: 950e 9abd b851 86be 111c fbbd 7fdc 94be
00000290: 3282 b3be 50d8 25bd be2d a0be c3f4 dbbe
000002a0: bc0c efbd ed2f aebe 3ad4 63be 8b72 cbbd
000002b0: 6d15 91bc b246 ac3d 77d3 92bc e978 b8be
000002c0: f1c0 c0be 4ea9 7cbe cdb6 613d db43 c1bd
000002d0: 7c44 23be f905 0c3d a5b9 94be 9f7f 22be
000002e0: d0b3 3bbc b530 bbbe f8de 78be 6759 99be
000002f0: ae76 5fbe 696a d5be 9d61 8ebe b6f7 5dbe
00000300: 67ed 49bf 495a e3be 1074 3338 db49 26be
00000310: b24a 69be 9601 fcbd 42aa 64be c6fd 8cbe
00000320: ae6d bcbd 153e 9abe 1676 a9be 5866 e7be
00000330: 8e8f dabc a9bf 46be c997 403d f233 92be
00000340: d354 5a3c 39c1 07be 9e73 843d 983c ebbd
00000350: d266 98be 4775 43be 0b21 46be 96e9 18be
00000360: a592 65be 442f 0dbe dc4e e63c 4ffc e2bd
00000370: bb74 18be 203c 2fbf 5336 53be 0420 01be
00000380: 695b 89be 1a71 87be 1ea5 babd fa9d 85be
00000390: 16c4 e1bd e7cc 4fbe 9ac2 79be e1f1 22bc
000003a0: d573 4cbe f875 cebd c7d8 59be 4d6b 85be
000003b0: 37bf 1dbe 6e40 69be 76e7 c3be d5c5 833c
000003c0: 35cc fd3d e6e7 96be b163 45be 60d7 4ebe
000003d0: bc5a 80bd 018c 77be 7aad 1cbe 7415 713e
000003e0: 52f9 abbe 9c4c 463b 09ea 3b3d 767b 48be
000003f0: 2b9a 43be 7d01 89bd 0939 a2be a48f 0abe
-0.2091006 -0.3060727 -0.19002363 -0.28818333 -0.34691423 -0.2661997 -0.29554513 -0.028995516
-0.17582056 -0.23044467 -0.31119877 -0.12409235 -0.12450444 -0.0731874 -0.000837754 -0.14274831
0.07675829 0.016065165 -0.2967487 -0.18523389 -0.02325848 -0.2758237 -0.025636664 -0.2308908
-0.24413827 -0.15235937 -0.19971418 -0.014677537 -0.4125545 -0.074121885 -0.14550082 -0.17714792
-0.23285483 -0.28380936 -0.22091949 -0.24463041 0.14394431 -0.4691621 -0.087245755 -0.2797949
-0.24630575 -0.21046907 -0.20783958 -0.36517528 -0.24130003 -0.2480826 -0.29975456 -0.1718262
-0.11766855 -0.19951488 -0.2328309 -0.31854647 -0.00010090965 -0.38351154 -0.30947274 -0.1294665
-0.31949905 -0.41952938 -0.19352403 -0.010760335 -0.09633519 -0.2646368 -0.15822494 -0.4414045
-0.21919668 -0.2449235 -0.118139036 -0.28616002 -0.07667492 -0.27491096 -0.2645154 -0.17965643
-0.3998457 -0.314139 -0.16808069 -0.060948424 -0.36778626 -0.3321411 -0.12731315 -0.2256274
-0.27070776 -0.12140136 -0.27842796 -0.16609661 0.039108437 -0.32669172 -0.15335613 -0.12441393
-0.23406906 -0.26977837 -0.013953912 -0.13263659 -0.012807834 -0.17905033 -0.21732849 -0.042691942
-0.063519366 0.019015105 -0.11616124 -0.31588712 -0.014331553 -0.38114792 -0.23907988 0.021655506
-0.070883 -0.16864315 -0.2418159 -0.27568778 -0.25484133 -0.32634476 -0.21180926 -0.21594314
-0.05248319 -0.28028587 -0.26152214 0.043857254 -0.17240573 -0.011314192 -0.21166128 -0.16641062
-0.4271795 -0.3045859 -0.3646438 -0.006212777 -0.21102448 -0.25641978 -0.29438254 -0.11338521
-0.06876489 -0.3363686 0.15535489 -0.22596683 -0.17960133 -0.12001682 -0.269102 -0.13690925
-0.12433272 -0.43216094 -0.10062772 -0.20351145 -0.016094932 -0.038593244 -0.07640961 -0.3307631
-0.1273788 -0.32270753 -0.065268606 -0.06797791 -0.42113772 -0.23934104 0.01457822 -0.054520514
-0.025811894 -0.06316238 -0.28100076 -0.070916705 -0.27789953 -0.19056913 -0.3951474 -0.2318481
-0.075223126 -0.2623422 -0.122612126 -0.29074475 -0.3506027 -0.040489495 -0.312849 -0.42960176
-0.11672351 -0.3402094 -0.22248927 -0.09933957 -0.017710412 0.084119216 -0.0179231 -0.36029747
-0.37647203 -0.2467396 0.055105973 -0.094367705 -0.15944093 0.034185383 -0.29047886 -0.15868996
-0.011456445 -0.36560598 -0.24303806 -0.2995102 -0.21822616 -0.41682747 -0.27808848 -0.21676525
-0.7887787 -0.4440482 4.2785017e-05 -0.16239111 -0.227824 -0.1230499 -0.22330573 -0.27537364
-0.09200607 -0.3012549 -0.33097905 -0.4519527 -0.02667978 -0.1940905 0.047019754 -0.28555256
0.013325888 -0.13257302 0.06467365 -0.11486167 -0.29765946 -0.19087707 -0.19348542 -0.14932856
-0.22419222 -0.13787562 0.028113775 -0.1108328 -0.14888279 -0.6845112 -0.20626192 -0.12609869
-0.26827553 -0.26453477 -0.09113525 -0.2609709 -0.110237285 -0.20293008 -0.24390641 -0.009945364
-0.19966061 -0.100810945 -0.212741 -0.26058426 -0.15404974 -0.22778484 -0.38262528 0.016085545
0.12392465 -0.294738 -0.1927631 -0.20199347 -0.06267306 -0.24174501 -0.15300551 0.2354334
-0.33588654 0.0030258065 0.04587749 -0.19578347 -0.19101779 -0.06689737 -0.3168414 -0.13531357

mlp_1/MLP_0_1/hidden_0_1/Cast/ReadVariableOp:0 f4 [48, 512]
00000000: 8179 86be 903e b03d f020 95be a804 393e
00000010: 08e8 04bd ed51 643c 4375 3fbe fcc3 263e
00000020: 1840 a1be aa09 243e 0b51 aebe 78ff 1abc
00000030: 65ab c1bd 4190 203e 4578 a6bc 60ad 503e
00000040: ec7a 303e 35c3 56be 784c 0cbc f0f1 dabc
00000050: 01cf cb3e b825 683e 4ec4 ddbe 7d84 7e3e
00000060: c3fb a33e 10f0 243e 25d4 49bd 2f24 c93e
00000070: 4cf4 9abd 93cf a93c a562 e0be 2221 fdbc
00000080: d85f 1a3f 4f03 b8bc b570 98be 4838 e23d
00000090: 3614 4dbe aa38 17be 0171 00be e0e1 c6bd
000000a0: aabc 0dbc a31e a03e 090e 2ebe 2efe fbbd
000000b0: 7fb0 1e3e 6f9c 2abe 7384 0fbe 6792 173e
000000c0: 7f3e f73d 9383 643e c865 bdbe 3af6 91be
000000d0: d79c 3a3e 297e 9fbc 013e cb3d 8822 84be
000000e0: 471b 83bc 7689 2d3e 1eb6 4abe 73df 9ebe
000000f0: dd35 5a3e f0f5 073e 48e2 0abe 87a1 f7bd
00000100: e79c 093d f757 5abe 5b0b be3e d4a0 153e
00000110: 3a9c c33e 8539 b13e c19b 28be 2567 9b3d
00000120: 3036 0f3e eb18 acbd 68e9 c9bd 8927 ac3e
00000130: 32c1 763e 2c0b 953e 89dd 983d 6645 b4be
00000140: 8c65 473e 01bd 523d 3f5d a93d e69b 2f3d
00000150: 0b2a abb9 5d64 8cbd e272 983d 41b2 ab3e
00000160: 6790 d8be 8f90 183f ecf9 a3bd 15f4 72bd
00000170: 1385 8abe dbb5 3c3e d78c 793e 16d4 c73e
00000180: f169 38bd c6b7 20bd 0eb6 f53d c56d 21be
00000190: f531 f4bd cf4a fb3d 6ece 823e 6b2c b93c
000001a0: c1fb f2bd ed06 d43e d404 8bbe 4011 80bd
000001b0: 1e8c b1be d1e1 0f3d ff39 a4be c7d2 8abe
000001c0: d694 c7be 64c6 7e3d ecae 04be dbe6 8bbe
000001d0: 0d91 153f 83fc 9b3e d999 91bd 974d 083e
000001e0: 9a05 e93e 28c0 8d3e c808 623d 52b5 e13e
000001f0: ae23 53bd 42d5 f1bd 7274 ecbe 96de 0abe
00000200: 7da9 2f3e 0531 0e3f cb61 5c3e 33fe df3d
00000210: 5bfb 353e 9d50 e63c 383e 193d 6d90 ac3a
00000220: 7089 b13d d17a a7bd 10aa 63be f7e4 593e
00000230: 92e7 fb3d 73c5 333e b766 1e3e dd2d 983e
00000240: 76cb 283e ef29 71bc ff2a 6cbe 5501 bbbd
00000250: 1f28 7a3e 82f7 ecbd 78c6 26bd f5db e0bc
00000260: 74b6 babe d604 093e 9b1c e13e 7231 953e
00000270: 0862 e9be c0f5 f3bd 27fd e9bc a9ff ad3b
00000280: 872c edbd 7324 fcbe 10c8 083d b0f3 ebbd
00000290: 30e9 543e 15ea 04bf 8da0 40be b346 d5bd
000002a0: fcbe dabe a7b9 353d 3c44 5d3c 283c 59be
000002b0: 0768 85be b8a9 ae3e 4ea0 dd3e e336 c2bd
000002c0: 0d36 a0be a2b0 503c 8848 003d c08f 76be
000002d0: efb0 57bd ec8c a3bd a984 9bbd 67a6 193e
000002e0: 771d b53d c169 253e d69c 533d 0091 af3d
000002f0: b948 193e 3ee5 26be fdae 2b3e b184 81be
00000300: e804 33be 9747 af3e 5d5d 6f3e a051 fbbd
00000310: 8e6e 843e ba69 c6be 5cdf d13d 6b9e 423d
00000320: 91db 2c3e 1212 513e 59d8 a6be 38da 6bbe
00000330: e5f9 d1be 2b1d 8a3d ab3f 5bbd 891d ccbe
00000340: 7d37 023f e540 4e3e 684c 3b3e 8137 3a3e
00000350: 3f31 b7bd 3863 6e3e b501 843d 1a4e 3a3e
00000360: c0c4 b9be 830a 163e 02df 1abd 7e82 2abe
00000370: 710b aebe ae9a 8abe a97f 81be ef9a e63e
00000380: aded d7be fa6c aebe 5a8e 2abe c4e7 02bf
00000390: 7df8 813d 0a0b 86bd 790b d8be 29f6 323e
000003a0: 7a44 1a3e 2f0b 863e 3899 98be 15cc 0b3f
000003b0: 936f 50be 6191 98be 7999 dabb be5d aa3b
000003c0: a7da 0a3d ed03 8a3e f2af b73e aaea 923e
000003d0: cbb7 37be 045b 163e 977d 983e 5e31 94be
000003e0: 35ee ad3c aacd 43be eaa0 9bbe f1c8 17bf
000003f0: cf0b 87be cfd9 2f3e ae31 8fbe 5ac9 31be
-0.26264575 0.08605683 -0.29126692 0.18068182 -0.032447845 0.013935548 -0.18697076 0.162857
-0.31494212 0.16019312 -0.34046206 -0.009460323 -0.09456519 0.15680028 -0.02032102 0.20378637
0.17234391 -0.20972903 -0.008563153 -0.026726693 0.3980637 0.22670639 -0.4331383 0.24855228
0.32028016 0.16107202 -0.049274582 0.39285418 -0.07566127 0.020728862 -0.4382526 -0.030899588
0.60302496 -0.022462515 -0.2977349 0.11045891 -0.20027241 -0.1476771 -0.12543108 -0.09711051
-0.008650938 0.31273374 -0.16997541 -0.1230434 0.15497015 -0.16661237 -0.14015369 0.14801942
0.12072467 0.22315817 -0.36991715 -0.28508168 0.18223892 -0.019469338 0.09923936 -0.25807595
-0.016004218 0.16946968 -0.19796035 -0.31029853 0.2130961 0.13277411 -0.13562882 -0.12091356
0.0335969 -0.21322618 0.3711804 0.14612132 0.3820513 0.34614196 -0.16465665 0.07588033
0.13985515 -0.0840319 -0.09858972 0.33623913 0.24097136 0.29110086 0.074641295 -0.35209197
0.19472331 0.05144978 0.082697384 0.042873286 -0.00032646986 -0.0685508 0.07443787 0.33534434
-0.4229767 0.5959558 -0.08006653 -0.059314806 -0.27054653 0.18428747 0.24370132 0.39028996
-0.04502291 -0.03923776 0.11997615 -0.1576453 -0.11923591 0.12270128 0.25548118 0.022604188
-0.118644245 0.41411534 -0.2715212 -0.0625329 -0.34677213 0.035127465 -0.32075498 -0.27113935
-0.3898074 0.06220092 -0.12957352 -0.27324566 0.58424455 0.3046609 -0.07109422 0.13310848
0.45512086 0.27685666 0.055184156 0.4408365 -0.0515477 -0.11808254 -0.4618259 -0.13561472
0.17154498 0.5554355 0.2152168 0.109371565 0.17771666 0.028114611 0.037412852 0.0013165601
0.08668792 -0.08177722 -0.22232842 0.2127875 0.12300028 0.1755579 0.1546887 0.2972249
0.16483864 -0.01471947 -0.23063277 -0.091311134 0.24429367 -0.11570646 -0.04071662 -0.027448634
-0.36467326 0.13380751 0.43967137 0.29139286 -0.45582604 -0.119121075 -0.028563095 0.005310018
-0.115807585 -0.4924656 0.03339392 -0.11521089 0.20792079 -0.5191968 -0.18811245 -0.104138754
-0.42723835 0.044366505 0.013505038 -0.21214354 -0.2605593 0.3411386 0.43286365 -0.09483125
-0.31291237 0.012737425 0.03131917 -0.24078274 -0.05265897 -0.07985863 -0.07593662 0.15004884
0.088435106 0.16153623 0.051663242 0.085725784 0.14969148 -0.16298386 0.16765971 -0.25296548
-0.1748234 0.34234306 0.23375459 -0.12271428 0.25865597 -0.38752538 0.102476805 0.04751436
0.16880633 0.2041705 -0.32586935 -0.23032463 -0.41010967 0.067438446 -0.053527515 -0.39866284
0.5086592 0.20141943 0.18290865 0.18185236 -0.0894494 0.23280036 0.06445638 0.18193856
-0.3628292 0.14652447 -0.037810333 -0.16651341 -0.33993104 -0.27071136 -0.2529271 0.4504008
-0.4217352 -0.34067518 -0.16655865 -0.51134896 0.063462235 -0.06545074 -0.42196253 0.17476715
0.15065184 0.26180407 -0.29804397 0.5460828 -0.20355062 -0.29798415 -0.0066711274 0.005199163
0.03389993 0.2695612 0.35876423 0.2869466 -0.17941205 0.14683157 0.29783317 -0.28943914
0.02123175 -0.19121423 -0.30396205 -0.5929099 -0.26376197 0.17172931 -0.2796759 -0.17361966

mlp_1/MLP_0_1/hidden_0_1/BiasAdd/ReadVariableOp:0 f4 [512]
00000000: 6858 31bf d568 9fbe df05 003e 82b3 e7be
00000010: 3d54 b3be aa64 97be 94f7 b5be 202f a8be
00000020: d619 16bd 0db1 55be 656e a0bd f536 393d
00000030: 42f4 29bf a8b3 8dbe 9a35 18be c98a a33d
00000040: 9583 9dbd 2741 47bd 782d 0b3c e905 87be
00000050: 5d64 6cbe 34fd 15bf c055 2dbe 11db 94be
00000060: a804 b53d e2f4 19be 6853 29be 59a2 36be
00000070: 2e1c 14be 9818 80bd 1429 df3c 8471 f3be
00000080: 43e0 90bd 9591 d83c 849f 903d 5124 99be
00000090: eb93 4b3d 25b7 31be adbc e4bd b90c 4dbe
000000a0: 3d20 0abf 3f26 4fbe cabe 9ebe fdd2 b3be
000000b0: e42f a1be 00f0 6ebe 8c49 a23e e5a9 fcbd
000000c0: 4501 dbbe 012a 50be 4ce0 013e c55a bfbe
000000d0: 2f7d 87bd fe29 69be acc2 70be dd6a 64be
000000e0: d218 efbe 4dcb b7bd 2ecd a1be 2dba f0be
000000f0: 879f 81be a52b 5abe 07fc e3be 9470 b9be
00000100: 3a53 1fbf 0a98 c1bd 2185 f3be 8dd3 32be
00000110: 7680 03bf 2a12 773e 49d1 1ebe 2249 2fbf
00000120: 9855 69be b7fd 16be 1156 a3be 2bba 7fbe
00000130: 2388 9bbe 86dc cd3d 7a9a c2be 367e adbe
00000140: ce25 c5bd c7df 3ebe 0edd 17bf 8f35 3e3e
00000150: 903e 25bf 3b8c 70be 7441 823d 79c2 3e3e
00000160: f2c6 b0be 3cba 7cbc 247e 37be 7422 59be
00000170: f663 fcbe 3bfa adbe 7498 a0be bebc e4bd
00000180: 3814 7e3d 482c b3be e597 c1be e8d2 acbe
00000190: d8e3 19bf ea7b 65bd 57bc a0be b8b5 dcbe
000001a0: 276a a6bd e09d f63d 1131 54bb 1ddb 09bd
000001b0: 3a18 7cbe 1b76 eabe f538 02be c557 cbbe
000001c0: de8a 92be 08cd fdbd b67f 23bf 3ae5 7cbe
000001d0: 6561 3abe 2ddc 30be 8780 65be 63f7 28be
000001e0: 926b 84be 1ea4 d1be 58f8 87be 2223 aa3d
000001f0: 794c f9bd bbff 03bd 08e7 6bbe 5f36 dabe
00000200: 0f81 1d3e 463c 5fbd d64d 6abe 93ad fbbe
00000210: 25b4 90be 7375 f1be e625 1bbf 6d06 00bf
00000220: 5441 fabe 262d 73be 0c26 26be caca 0ebe
00000230: 51f5 34be f88f 083e f037 80be 3ba0 14bf
00000240: 90fa aabe 56e2 353e 2f18 4abe 6687 0fbe
00000250: bd9a 7abe fb8e 37bc 0a90 1a3e 185c c9be
00000260: ee14 abbd 7694 55be 4b3c acbe 89b4 18be
00000270: 1e8e cabd f079 d2be d0fe 40be d7fe 72be
00000280: 6bc2 c5be 6bb0 acbd 92bc bebe 27e1 55be
00000290: 22be 10bc ea3c 2cbe 1684 f2be 7731 0abf
000002a0: 86ba 01bf c0d5 54bc e139 05bf 6589 c0be
000002b0: 9d1e 76be c972 9ebd d6ee c43d 866d 11bc
000002c0: c23d 16bf 10d8 bfbe 5b78 b9be 8e14 2bbf
000002d0: e964 58be 0681 b1be 2447 15bf 6b1b 08bf
000002e0: 7d2f 0ebf 1908 cfbe c3a4 51be 071b 12bb
000002f0: 5a0f fcbe c36c c1be c196 10bf ae02 11bf
00000300: fcb4 47be 85c9 93be 438d 083e 4822 c23c
00000310: 5d6f 193e 0956 e8be 5ca1 5dbe 4ee6 7abe
00000320: 9517 abbe 502e 0cbe e381 e33d aa5b 42bf
00000330: cff1 68bb da77 d2bd 587e ecbe 2fc7 cebe
00000340: 34ce d5be ac3f 82be c014 9ebe 5d77 12bf
00000350: 8d70 e9be 5186 b5be a4d5 23bf 3f63 82be
00000360: b05f e9be cbf8 8ebe 7286 a5be f6f3 97be
00000370: c6c9 0dbf 36db babe e949 05bf cc98 9dbe
00000380: 8e16 babe 923b 0abe 1ec8 9dbd be08 abbe
00000390: d2a6 a0be 180f 0cbf 47a4 cabe 8b51 e5be
000003a0: d52c 583d 7fc8 0f3e 2cff 5abe 04fb f1bc
000003b0: da34 103e b5f3 5dbd fc9c bebe fdf5 00be
000003c0: 38fd 88be cf0d 553d 8eb9 a4be 69e8 8ebe
000003d0: 53f2 b0be f5ab f8bd c697 46be 607d 65bf
000003e0: 4896 bebd 38fc 74be 33e8 89be ce50 d93d
000003f0: 2f12 d6be d856 c6be d17a 8ebe 71e7 d7be
-0.6927552 -0.31134668 0.1250224 -0.4525414 -0.35025206 -0.29568988 -0.3554045 -0.32848454
-0.036645733 -0.20868321 -0.07833556 0.045218427 -0.6638833 -0.2767613 -0.14864197 0.079854555
-0.07691113 -0.04864612 0.008494727 -0.26371697 -0.2308516 -0.5858948 -0.16927242 -0.29073384
0.08838779 -0.15034822 -0.16535723 -0.17835368 -0.14463875 -0.06254691 0.027241267 -0.47547543
-0.070740245 0.026436606 0.07061675 -0.2991052 0.049701612 -0.1735502 -0.111687995 -0.20024385
-0.5395544 -0.20229433 -0.31004936 -0.3512191 -0.3148185 -0.2333374 0.31696737 -0.12337092
-0.42774406 -0.20328523 0.12683219 -0.3737394 -0.06615674 -0.22769925 -0.23511761 -0.2230639
-0.46698624 -0.089743234 -0.31601852 -0.4701704 -0.25317022 -0.21305712 -0.4452822 -0.36218703
-0.6223637 -0.09452827 -0.47562507 -0.17463513 -0.5136789 0.24128023 -0.15509523 -0.68470967
-0.22786558 -0.14745222 -0.319016 -0.24973361 -0.30377302 0.10051827 -0.3800848 -0.33885354
-0.09626351 -0.18640052 -0.5932168 0.18575118 -0.6454859 -0.23490994 0.063601404 0.18628873
-0.34526783 -0.015425261 -0.17919213 -0.21204549 -0.49295014 -0.33979973 -0.31366313 -0.11168812
0.062031 -0.3499472 -0.378112 -0.3375466 -0.60113287 -0.056026377 -0.31393692 -0.4310739
-0.08125716 0.12041831 -0.0032377879 -0.03365623 -0.24618617 -0.45793232 -0.1271704 -0.397154
-0.28621572 -0.12392622 -0.63866746 -0.24696818 -0.18201216 -0.1727149 -0.2241231 -0.1650062
-0.2586332 -0.40945524 -0.2655666 0.08307482 -0.12172789 -0.032226305 -0.2303735 -0.42619607
0.15381263 -0.05450084 -0.22881255 -0.49155864 -0.2826244 -0.4715992 -0.60604703 -0.50009805
-0.48877966 -0.23747692 -0.16225451 -0.13944545 -0.17671706 0.1333617 -0.25042677 -0.5805699
-0.3339429 0.17762122 -0.19735788 -0.14016494 -0.2447309 -0.011203523 0.15094009 -0.39328074
-0.083536014 -0.20857415 -0.3363975 -0.14912619 -0.09890388 -0.41108656 -0.18847203 -0.23730026
-0.38624892 -0.084320866 -0.37253243 -0.2088667 -0.008834394 -0.16820112 -0.473664 -0.5398173
-0.5067524 -0.012990415 -0.5204144 -0.37604824 -0.24035116 -0.07736737 0.09615867 -0.00887621
-0.58687985 -0.3746953 -0.36224636 -0.6682824 -0.21132244 -0.3466875 -0.58311677 -0.53166837
-0.5554121 -0.40435866 -0.20473008 -0.0022293942 -0.49230462 -0.3777829 -0.5648003 -0.56644714
-0.19502634 -0.28864685 0.13335137 0.023697987 0.14983888 -0.4537814 -0.21643585 -0.24501917
-0.3341643 -0.13689542 0.11108758 -0.7592112 -0.003554452 -0.10276766 -0.46190143 -0.4038634
-0.41758883 -0.25439203 -0.30875206 -0.57213384 -0.45593682 -0.35454038 -0.63997865 -0.25466344
-0.45580816 -0.2792419 -0.32329136 -0.29678315 -0.55386007 -0.3649537 -0.520659 -0.30780637
-0.36345333 -0.13499287 -0.07704185 -0.33405107 -0.31377274 -0.5471053 -0.3957846 -0.44788775
0.05277713 0.14041327 -0.21386403 -0.029538639 0.14082661 -0.054187495 -0.37229145 -0.12593837
-0.2675569 0.052015122 -0.32172817 -0.2791169 -0.3455988 -0.12142173 -0.19393834 -0.8964443
-0.093060076 -0.23924339 -0.26934966 0.106111154 -0.41810748 -0.38738132 -0.27828076 -0.42168763

ConstantFolding/mlp_1/truediv_recip:0 f4 [48]
00000000: 2e58 bd3f 462b 5d40 4c5c 8540 93e1 4b3f
00000010: fcdf bf3f 7c63 f53e 68e9 6f41 992b 3b41
00000020: a68f 9b41 c9f9 0241 590d c940 d549 a840
00000030: 5d51 0041 12c5 bb40 df7f a940 1834 0c41
00000040: 140e dc40 649e a840 bad9 0a41 635e ca40
00000050: 222b a640 9220 9d3e 3970 823e c088 453e
00000060: 0f0a 9f3e 5134 7b3e 0a77 3c3e 8af5 a03e
00000070: 6caa 853e 953f 483e 97e9 a03e f36c 7a3e
00000080: db42 3e3e bc3a 6240 75ce 2740 240f e43f
00000090: 9512 6340 83bd 1e40 56b5 e23f fd4e 7c40
000000a0: 9976 4f40 59b4 dd3f ac7c 7440 4030 4440
000000b0: c84a dd3f f029 9a3f c220 5e40 bad4 e13e
1.4792535 3.4557662 4.1675167 0.79641074 1.499023 0.47927463 14.994484 11.698144
19.44514 8.185983 6.2828794 5.2590127 8.019864 5.8678064 5.2968593 8.762718
6.8767185 5.269335 8.678156 6.324022 5.192765 0.30688912 0.25476244 0.19290447
0.31062362 0.24531676 0.18404785 0.3143733 0.26106584 0.19555505 0.31428215 0.24455623
0.18580191 3.5348349 2.6219761 1.781712 3.5480092 2.4803169 1.7711589 3.942321
3.2416136 1.7320663 3.8201094 3.065445 1.7288446 1.2044048 3.4707494 0.4410761
