mujoco_playground/mujoco_playground/experimental/sim2sim/onnx/leap_reorient_policy.onnx (onnx, 795551 bytes, 10 tensors)

mlp_1/sub/ReadVariableOp:0 f4 [57]
00000000: f677 413f 91ae 4bbe 98f3 0e3f 8090 883f
00000010: dad5 d53e 3c2c 1a3e 4bd2 ca3e 1d09 423f
00000020: 4a69 8a3f 6bda fd3d 4f03 583f e334 703f
00000030: 9133 433f 46d7 063f 9d43 4e3f 5708 86be
00000040: 3981 f1bd b921 13bd c5d7 a4bd 58fb 59bd
00000050: 1fbf e1bd 280f 41b9 b2a6 42bd a7c9 aebc
00000060: 7bc8 93bd 7afe 523d 4a28 4bbd ba6b 17bd
00000070: 5324 95bd 66af fabc b498 05bd 9b1d d0bb
00000080: db21 21bc d277 a0b9 27a0 423c 5a96 d93c
00000090: 222e e73e ec12 913b d0fd b53b fb50 05bc
000000a0: a429 e33e 5285 81bb 397c 57bc bb6b 9fba
000000b0: 15c0 b43c 507b c0bc e923 213c 8249 4abc
000000c0: 77aa 163b 3019 b63b 3033 e03b c1e3 953b
000000d0: 208d e83b 6c4f 3b3a e524 51bc ee19 9eba
000000e0: ee2d a9bb
0.7557367 -0.1989081 0.55840445 1.0669098 0.41764718 0.15055937 0.39613566 0.75795156
1.0813382 0.123951755 0.8438005 0.938307 0.7625056 0.5267223 0.8057192 -0.26178238
-0.117922254 -0.035920832 -0.08048967 -0.053218216 -0.110227816 -0.0001841156 -0.047522254 -0.02133639
-0.07215973 0.05151222 -0.04959897 -0.03696797 -0.07282319 -0.030601215 -0.032616332 -0.0063511855
-0.009834732 -0.0003060685 0.011879004 0.026560951 0.45152384 0.0044273045 0.0055539384 -0.008136983
0.44367707 -0.0039526606 -0.013152176 -0.0012162843 0.022064248 -0.0234963 0.009835222 -0.012346627
0.0022989789 0.005557202 0.0068420395 0.0045742695 0.0070969015 0.00071453187 -0.012765144 -0.0012062171
-0.005162946

mlp_1/MLP_0_1/hidden_3_1/Cast/ReadVariableOp:0 f4 [128, 32]
00000000: bd38 dd3d 3b60 ba3d 170a 46bd 0051 943d
00000010: c2bc 6dbc 81d3 773d f8e4 063d d5f4 943d
00000020: 21b9 53bb 5219 3cbd 0ced 243e f650 afbc
00000030: 71be d53c 796f 01be 8b95 083d 5a2c fcbd
00000040: 6e7f 1e3d bf20 193e e5ad d8bc bbf1 84bc
00000050: f6e0 cf3d 34f6 b73d 0714 8f3d e876 aabd
00000060: e5a2 f1bc 73f5 96bd 62e1 0d3e 9aec d93d
00000070: c0e2 183d 1dd2 53be 6efc c1bd fe47 81be
00000080: f9bb b5bc 7470 993d 101a a0bd 3f1e b33d
00000090: bf35 debc 1976 41bd 110f ab3d 9192 313d
000000a0: 4748 4c3d e4f2 ac3a 44d3 813c 72bf d83c
000000b0: 8b0e 2ebe 5eda 48be acec cd3d 9aaa 983c
000000c0: 78a4 823d 2a8b d83d b840 073e aee3 11bd
000000d0: 8883 15be 414a 093d 07f9 31bd 5952 b5bc
000000e0: 5af0 063d 7959 af3d d693 cfbd 558f 043d
000000f0: 45e5 e63c c9f3 24be b055 f9bd 9e50 9abd
00000100: 2b5e 103d 5cde dfbc f294 8ebd 1294 04be
00000110: 7dec 843d ab81 ddbc cb45 103e d973 313d
00000120: 3b2c d9bd 7cac 59bd ab16 8fbd c8d9 f73c
00000130: a0ce d6bd 244a b03c 12a0 47bd c146 ea3d
00000140: e242 a7bd 5769 eabc 0922 a6bb 43f1 9bbd
00000150: 6037 22bd f6ac 4b3d 8402 813c 6b10 3fbc
00000160: 65f0 f6bd 1789 9dbd 9102 1ebd 67f0 0c3c
00000170: 53bf 2d3a ddf6 d73b 2e6d 003c 5d54 823b
00000180: 4b8f a73d 5499 dabd acdd 0ebe a326 ce3d
00000190: 21e7 6a3d 2b39 49bd 2af7 9fbd e401 46bd
000001a0: 8b19 43bd 0dbd bbbc 9e1a 4c3e dfbe 32bd
000001b0: 3098 76bd 45e5 d1bd e65a f0bd dc6a 243d
000001c0: 365b 823e b491 db3d 5145 b63c c8c5 823c
000001d0: 24a6 48bd 1c89 dbbd e772 72bd 236c d8bb
000001e0: 0ae3 4a3e cabc b23e 3c64 223e 3886 ed3d
000001f0: 264c 073e 6801 8dbd 925e 24bd aab9 63bd
00000200: 71b6 febc d068 843d a78d 1fbd d4b7 b63b
00000210: 8a27 fe3c 368c 99bd 731c 453c 9618 84bd
00000220: 0570 82bd ca57 243d cd06 fcbd eb82 eabc
00000230: a6a3 37be 41a3 913d e60a b5bd ce29 d2bd
00000240: 8a22 8d3b 1e16 893d 73f4 a1bd 1a8c 48bd
00000250: be31 7bbe 0a51 63bd 5ca1 ecbc fda3 2abe
00000260: 587b f0bb 2b21 703d c1ce 47bd 2d62 22bd
00000270: 1d1e adbc ff1c 803d 1d1c 643d dc86 f2bc
00000280: 7183 4e3c 0588 bfbc 8c77 61bb d116 0b3e
00000290: 3b0b bcbd 5981 dfbd 31cb 143d 52b0 45bd
000002a0: b36c 723d a29f eebd 9d56 35bc 7f0c 103c
000002b0: eda2 41bd ff86 41bd 8af9 25bd 4611 ad3c
000002c0: 6e03 81be 31c4 873c 7c0d bcbd 81f9 e33b
000002d0: 9658 0b3d 3df3 18be c1f2 07be 5f97 b93d
000002e0: 4492 cebc bd30 4abe 9c30 33bc 61e9 1b3d
000002f0: b348 20be c91d 16be 0c40 3abe fe15 29bd
00000300: 6e1f bebd 4da4 213d 193d 123c b8f7 203d
00000310: 3963 343c 7128 eb3d 0771 8bbd da70 d93d
00000320: f23e f8bc 0da7 5b3c dcdb 013d 73cd ea3c
00000330: a214 ed3c 6200 bf39 486c b4bb 53c9 32bd
00000340: bff3 65be db02 67bc a727 9c3d 9d3c 36bb
00000350: 8e41 9fbe 49fe cabd ad52 7abd aa9b 12be
00000360: 8101 7fbe 8d6b 38be 4d26 cd3b 8bd1 ffbd
00000370: fdbb 7ebe 5807 31be 4443 ad3d 2be5 89bd
00000380: ccbf 82bc 5c7d 153e ee9e 81bd 1247 80bd
00000390: 8fcc da3d 37bc ad3c 2b1c 74bd e7bb d63c
000003a0: 4875 57bd 74ed 913b 3bf2 4b3c 6450 7fbd
000003b0: 8dc2 583d 9d5b 053e 2a85 7c3d 8e5b 10bd
000003c0: 880c 9ebd a3fa 0bbd f3c6 4ebe bb35 e2bd
000003d0: 1a43 063e 3baf 943d 7a86 94bb f5c4 703c
000003e0: f075 a83b 21fc a03d 3bdb 71bd 25ee a9bd
000003f0: 8c9f 9dbd 389b 973c 7954 d7bd 85c7 533c
0.108018376 0.09100386 -0.048349466 0.07242012 -0.014510335 0.06050444 0.032933205 0.072732605
-0.003230639 -0.045922585 0.16106051 -0.02140091 0.026091786 -0.1264018 0.03334574 -0.12313147
0.038695745 0.14953898 -0.026450107 -0.016228547 0.1015033 0.089825064 0.06986242 -0.08323461
-0.02949662 -0.073710345 0.13855508 0.10640831 0.03732562 -0.2068562 -0.09471975 -0.25250238
-0.022184359 0.07492152 -0.07817471 0.08746003 -0.027125238 -0.047231767 0.08352483 0.043352667
0.049873617 0.0013194946 0.01584781 0.026458476 -0.16997735 -0.1961455 0.10054907 0.018636037
0.06379026 0.105734184 0.13208282 -0.035617523 -0.14600956 0.03351808 -0.04345038 -0.022133993
0.03294406 0.085619874 -0.10135619 0.032363255 0.028185496 -0.16108622 -0.12174547 -0.07534908
0.035246056 -0.027327709 -0.06962003 -0.1294711 0.06490419 -0.02703937 0.14089124 0.04332337
-0.106041394 -0.05314301 -0.069867454 0.030255213 -0.10488629 0.021519728 -0.04873664 0.114392765
-0.08167054 -0.028614683 -0.0050699753 -0.076143764 -0.03960359 0.049725495 0.01574827 -0.011661629
-0.1205757 -0.076921634 -0.038576666 0.008602238 0.0006627936 0.0065907077 0.0078385305 0.003977342
0.08181628 -0.10673776 -0.13951749 0.10065963 0.057349328 -0.049126785 -0.07810815 -0.048341647
-0.04763178 -0.022917295 0.19932029 -0.04363906 -0.06020373 -0.10248808 -0.117360875 0.04014097
0.25460213 0.1072115 0.02224985 0.01596345 -0.04898657 -0.10719511 -0.05919161 -0.006604688
0.19813171 0.3490966 0.15858549 0.11597866 0.13212642 -0.06885034 -0.04012925 -0.055596985
-0.031092854 0.06465304 -0.03895345 0.0055761132 0.031024713 -0.07497446 0.012030709 -0.06450002
-0.06369022 0.040122785 -0.12305985 -0.02862688 -0.1793352 0.07111216 -0.08839969 -0.1026188
0.004307096 0.06693672 -0.07907953 -0.048961736 -0.24530694 -0.055497207 -0.028885536 -0.16664119
-0.0073389225 0.05862538 -0.04878116 -0.03964441 -0.021132523 0.062555306 0.055690873 -0.029605322
0.01260458 -0.023380289 -0.003440353 0.13582923 -0.091818295 -0.10913343 0.03632659 -0.048263855
0.059185695 -0.11651541 -0.0110680135 0.008792042 -0.04727452 -0.047247883 -0.040521182 0.0211264
-0.2519793 0.016573044 -0.091822594 0.0069572334 0.03402003 -0.14936538 -0.13276197 0.09062075
-0.02521623 -0.19745155 -0.010936882 0.038064364 -0.15652733 -0.146598 -0.18188494 -0.04128074
-0.092833385 0.03946333 0.0089257 0.039298743 0.011009985 0.11482323 -0.06808668 0.10617228
-0.030303452 0.013406527 0.031703815 0.028662419 0.028940503 0.00036430644 -0.005506072 -0.04364903
-0.22456263 -0.014099802 0.076247506 -0.0027807124 -0.31104702 -0.09911782 -0.061114002 -0.14317194
-0.24902917 -0.18009777 0.0062606693 -0.12491139 -0.248764 -0.17287958 0.084600955 -0.067331634
-0.015960597 0.14598602 -0.063291416 -0.062635556 0.10683548 0.021207912 -0.059597176 0.026212646
-0.052602082 0.0044533554 0.012447889 -0.062332526 0.052919913 0.13023229 0.061650433 -0.035243563
-0.07717234 -0.034174573 -0.2019308 -0.110454045 0.13111535 0.07259985 -0.0045326324 0.014695396
0.0051410124 0.0786059 -0.059046965 -0.082973756 -0.07696447 0.018506631 -0.10514159 0.012925987

mlp_1/MLP_0_1/hidden_3_1/BiasAdd/ReadVariableOp:0 f4 [32]
00000000: e276 29bc d15f 5a3c 6382 f4bb 7f9a 3cbb
00000010: 4622 033d 48c1 f5bb 40f2 fabc 6e12 8a3c
00000020: 2998 363d 1c39 2cbc d2aa 153d 0a26 c33c
00000030: 5d00 1f3d 22af cabc 6406 823d 4c08 3ebc
00000040: 11fc d9be 2dd8 4bbe 4a3f 4bbe 84e6 65be
00000050: 6580 9cbe 14b7 d3bd c3b4 20be b70e d2bd
00000060: 28c8 d2be eef8 8bbe 47a9 81be 46cf 53be
00000070: a64a 80be dbcb 16be 578d 11be a706 07be
-0.010343285 0.0133285085 -0.0074618324 -0.002877861 0.032015108 -0.0074998476 -0.030633092 0.016854491
0.044578705 -0.010511663 0.03653986 0.02382185 0.038818706 -0.024741713 0.06348875 -0.011598658
-0.42575124 -0.19906683 -0.19848362 -0.22451216 -0.30566707 -0.10337654 -0.15693955 -0.10256713
-0.41168332 -0.27338356 -0.2532446 -0.20684537 -0.25056952 -0.14726202 -0.14214073 -0.13186131

mlp_1/MLP_0_1/hidden_2_1/Cast/ReadVariableOp:0 f4 [256, 128]
00000000: c444 143c d9e8 9ebd c822 173d 0fd9 cb3d
00000010: 8f16 4f3d 42c7 b73c 7200 9abd 07e9 5c3e
00000020: c960 ecbd 8528 e23d f909 b9bc 9e10 59bd
00000030: 9431 273d c52d 20bc 7b85 b5bc 98b9 50bd
00000040: 50e8 983d f663 023e 42d4 29be b9b6 1b3d
00000050: 5435 8b3c b287 50bb aabc fe3d d9f1 8fbd
00000060: e136 ff3c a84e d4bd 6526 96bc 11c2 f03d
00000070: 04a0 72bd 1af1 9cbd c320 0bbe 57c3 443d
00000080: ff90 b3bd 55d5 e63b 8b13 ffbc 8076 f83c
00000090: 2a1e 40bd 78b6 9a3c 3e4e e0bd cc13 2b3e
000000a0: cf0b 063d 37b9 b2bd 9fa3 82bd fafb acbd
000000b0: b427 2e3d 06cb c43d 9f67 b53d 0a8b 7d3c
000000c0: d4e4 2abe 48be a2be 6ff2 f73d 5e20 d53d
000000d0: d53c 813d aa92 9b3d f793 cbbd 54c9 a43c
000000e0: b8e0 d53c f43f 263e 26d1 a1bd 8137 a5bd
000000f0: 864b c5bc 59e2 753d b955 323d 549c 903c
00000100: 0e87 ce3d de34 79be 8198 9ebc 2cf4 f2bd
00000110: 446e 97bd 91d4 113e bb7a e5bc f0e2 383d
00000120: b6e7 1dbe 32e2 083d bbca fd3d 274b 12be
00000130: c055 fd3c dc07 8ebe c51c ecbd d74a efbd
00000140: cce8 aabd 7882 98bd 7ee2 d6bc d4ac 05be
00000150: f88e f8bc 4c28 3dbe 9422 8dbd 1c51 c73c
00000160: d0b1 493d 894d 43be eb7c c1bc debd 57bc
00000170: 50c5 99bd df05 713d 3bc7 823d 7f95 36bd
00000180: 3bf9 94bd 07a2 5cbc dd1f 0dbd d419 883d
00000190: 12d1 423d f668 253d b9bd b3bc 3a7a 01ba
000001a0: 442d af3d dd9e a4bc b001 c53d c5c5 2abe
000001b0: 0182 893d ab76 ebbd f12b 703d 65a7 e43d
000001c0: 10fc 123c 6cb1 963c 12fb b5bd 4736 27bd
000001d0: 1d59 42bd 1bf4 1b3e 8c37 10be ab9b 283d
000001e0: 3466 f0bc 1c0b 333d a932 a13d ed06 a93d
000001f0: 7f3f 9ebd c1a4 48bd 3f69 93bc 0f0c 3fbd
00000200: 61a5 f23c d642 223e 6b42 68bd 0601 793d
00000210: dfa1 80bb 870a 973d 7967 913c fa6e c6bd
00000220: 090a dd3c ef95 babd ea8e 1d3d 4cda 8fbd
00000230: 74d9 5dbc bb6b c8bd 9793 98bd b611 70bb
00000240: 03f6 223d d43c f5bc 0e4e 37bd 1968 ab3c
00000250: b6a2 423d a43e 093e ba61 3fbe 2646 84bd
00000260: 4f66 b03b 8d6f a93c 13ed 0cbd 8a0f 46bd
00000270: 8d44 aabd 28d6 233d 9615 653d 3710 af3b
00000280: 7887 0ebe 58a2 623d 17c1 5b3d e6c1 373b
00000290: 0c3a dbbd b5cd 1a3d dbd4 a03d c0b3 023e
000002a0: 6af4 203e cd69 663d ffa7 80bd b790 00bb
000002b0: 7d50 0cbc 0997 8dbd 0273 cfbc 7f13 12be
000002c0: 45a9 033e 5439 1cbd d221 1d3c 33bd 323b
000002d0: d8c8 0bbe f385 4ebc 0ca2 52bd de85 e23d
000002e0: 696e 20bd 0f5c 39bb 6f13 20bc 2103 93bd
000002f0: 5eaf 9fbb 0c41 8f3d 0aec 723b f11b ef3c
00000300: 30bc 8bbd 7a22 f23c ea5e aa39 e4bd a8bd
00000310: 437c 23be 1965 28bd 0d77 6fbd 6dca 2fbd
00000320: f483 3cbc cdba 32be b2aa b9bd 842f e7bc
00000330: 62e2 cb3d adf2 28bd 3523 44bd 6f0f 8d3d
00000340: 41f4 533c 1ef0 c9bd 6556 e63d b841 26bd
00000350: 7252 24be 6394 3e3b 05ca e83c fdb7 debb
00000360: 5d9b 993d 8183 afbd f2c4 f1bd 795e 433d
00000370: e2d9 343d 61dd 493d 6528 ad3d deba c73d
00000380: c617 96bd b6a6 08be cf50 91bd 47cd d23d
00000390: 3b7d ea3c 7a1d c1bd 98b3 e9bd 0527 05bd
000003a0: defe d83d 4d1d 133d 0d8b adba a2c5 093e
000003b0: c758 d6bd 3c53 e93c 69fc 1a3c 2bbb e9bc
000003c0: a8ed 58bc 3208 933d b66e 07bd 90aa 27bd
000003d0: 9c33 18bb b864 403d dc38 82bd 2f92 14bc
000003e0: c4da 1dbd 968f 5abd b012 2b3d d3de 663d
000003f0: e6c7 013e bbe9 fabc 0058 4dbd dd08 69bc
0.009049598 -0.07759256 0.036898404 0.0995351 0.050558623 0.02243388 -0.07519616 0.21573268
-0.11541898 0.11042885 -0.022587763 -0.052994363 0.040818766 -0.009776537 -0.022158375 -0.050958246
0.07466185 0.12733445 -0.16584876 0.038016055 0.016993202 -0.0031819162 0.124383286 -0.07028551
0.031154098 -0.10366565 -0.018328855 0.11755765 -0.059234634 -0.07663174 -0.13586716 0.048037853
-0.0876789 0.007044474 -0.031137249 0.030329943 -0.046903767 0.018885836 -0.109524235 0.1670677
0.032726105 -0.08726733 -0.063788645 -0.08446498 0.042518333 0.09609036 0.08857655 0.015475044
-0.16688854 -0.31785798 0.121067874 0.10406564 0.06310431 0.07596333 -0.099403314 0.020115532
0.02610813 0.16235334 -0.0790122 -0.08067227 -0.024083864 0.060030315 0.043538783 0.017652668
0.100843534 -0.24336573 -0.019359829 -0.11862978 -0.073940784 0.14241244 -0.028012624 0.0451383
-0.15420422 0.03341884 0.123921834 -0.14286481 0.030924678 -0.2774037 -0.11528925 -0.116841964
-0.08345184 -0.0744676 -0.026231047 -0.1305421 -0.03034161 -0.18472403 -0.06891361 0.024330668
0.04924184 -0.19072546 -0.023619136 -0.013167826 -0.075083375 0.05884349 0.063856564 -0.044576164
-0.072740994 -0.013466365 -0.034454215 0.06645551 0.047562666 0.0403833 -0.021941053 -0.00049391726
0.085535556 -0.020095283 0.096194625 -0.16677006 0.067142494 -0.114972435 0.058635656 0.111647405
0.008971229 0.018395148 -0.088857785 -0.040823247 -0.047448266 0.15229838 -0.1408369 0.04116408
-0.02934561 0.043711767 0.07870991 0.08253274 -0.07726955 -0.048985247 -0.017994521 -0.04664236
0.029619874 0.15845808 -0.056703966 0.06079199 -0.0039255465 0.07375055 0.017749535 -0.09689136
0.026982324 -0.09110629 0.03846637 -0.07024059 -0.013540614 -0.09786173 -0.074500255 -0.003663165
0.039785396 -0.029936232 -0.044752173 0.020923661 0.047518454 0.13402802 -0.18689623 -0.06458692
0.00538329 0.020683074 -0.03440578 -0.048354663 -0.08313856 0.039999157 0.05592879 0.005342509
-0.13918865 0.055330604 0.05365094 0.0028039156 -0.10704431 0.037793834 0.07853099 0.12763882
0.15718237 0.056253243 -0.06282043 -0.0019617507 -0.008564112 -0.06913573 -0.025323395 -0.1426525
0.1285754 -0.03814061 0.009590583 0.0027273416 -0.13650835 -0.012605178 -0.05142407 0.110606894
-0.039167795 -0.002828363 -0.009770258 -0.07178331 -0.0048732003 0.069948286 0.003706696 0.029188128
-0.06823003 0.029557455 0.00032495643 -0.08239344 -0.15965371 -0.04111204 -0.058463145 -0.042917658
-0.011506069 -0.17454071 -0.09065761 -0.0282209 0.099552885 -0.04124706 -0.04788514 0.06887709
0.012936653 -0.09860252 0.11246947 -0.040590018 -0.16047075 0.0029080145 0.028416643 -0.0067968355
0.07500336 -0.08570004 -0.118051425 0.047697518 0.0441531 0.04928339 0.0845497 0.09752439
-0.07328753 -0.13344845 -0.07095491 0.1029306 0.028624168 -0.0942945 -0.11411208 -0.032507915
0.10595487 0.035916615 -0.0013240293 0.13454297 -0.10466152 0.028482072 0.009459593 -0.028531631
-0.013240255 0.071792975 -0.033064567 -0.040934145 -0.002322412 0.046971053 -0.06358501 -0.009068056
-0.03853871 -0.05335959 0.04176587 0.056364845 0.12673911 -0.03062903 -0.05013275 -0.014223305

mlp_1/MLP_0_1/hidden_2_1/BiasAdd/ReadVariableOp:0 f4 [128]
00000000: 112b 72bc 2c09 a9bd 91fb f3bc 1f92 41be
00000010: 215c dbbc 4fec 433d 643d 203e e6f3 9d3a
00000020: 2a1e 1ebe 0464 f5bd 13d6 5f3d 1180 223d
00000030: ff31 a3bd ae8c 42bd 588d a7bc 27a3 dd3d
00000040: ef96 4f3e 1f02 1d3d 1961 12be e89d 46be
00000050: 0cee 2e3d b621 943d 5ce6 c7bd 4c0b 943d
00000060: a367 5a3d 2f47 55bd 133c 46bd 81af 183d
00000070: 2bd6 5cbe 91bb 42bb b034 53ba b5b4 21bd
00000080: fe75 1d3c b326 c8bc e81d f9bd 269d 70bc
00000090: e246 2a3d 3807 3e3d 1893 a3bc c35b 29be
000000a0: 2b98 dc3c 648c 783c dfdc d23d 666d 203d
000000b0: 630f 2fbe 578c 9bbd de93 cebd 4cae 03be
000000c0: 555b 24bd 54f3 30be 0fd0 f63b 0a1c 01be
000000d0: aeb7 7a3d 9acc e1bd e3f7 1fbe 7ce3 833d
000000e0: 2769 0dbe 61d0 b1bd 8afc d73c 8b95 2abd
000000f0: d0a4 55bd 50ae c53c 7dac 1cbd f628 cdbd
00000100: ba75 0fbe 47ab a0bd a348 d9bd fc3e 9cbd
00000110: 45bf 57bd 647a 4cbc dc8c 58bd d9e6 88bd
00000120: feb8 bebd 70fe 97ba 3efb cfbd e2f4 33be
00000130: 9a3a 8cbd 241d b4bc 99f9 113e 4024 32bd
00000140: a2f5 b13d 908f 20be 2f06 c3bc 6cbc 7abd
00000150: 661f d4bc 08a0 abbd 08fb 80bd 8cf7 e0bd
00000160: 5c90 ed3d 7260 25be c297 30bc 07bf 84bc
00000170: 208e 953d 897c 993c 0eba 503d 4a76 a8bd
00000180: 8a8a fabd fed0 d4bc f51c 06be 99db f0bd
00000190: 4771 a1bd e91f 483e 7a34 18bd 10f1 5cbc
000001a0: 3f49 043e b8ad 15be a089 1b3e f26f 34be
000001b0: 627d 58be 307c 1bbd 5bb6 cebd a05c 0b3d
000001c0: ff59 d4bd 4477 1cbe 5ba7 043e 442d 3ebe
000001d0: 979c 39bd b2f8 48bd 6987 05bd 232a 6fbd
000001e0: 7171 40be 972e 2bbe a171 1d3d 5053 9cbd
000001f0: 0c5d f4bd dd43 07be a1d6 c7bb 40d7 24bd
-0.014780776 -0.082537025 -0.029783042 -0.18903397 -0.026777329 0.047832783 0.15648419 0.0012050837
-0.15441194 -0.11981967 0.054647516 0.039672915 -0.079685204 -0.047497444 -0.02045314 0.108221345
0.2027242 0.0383321 -0.14294852 -0.19396174 0.042707488 0.07232992 -0.097607344 0.07228717
0.053321492 -0.05206984 -0.048397135 0.03727675 -0.21566074 -0.002971385 -0.0008056862 -0.039478976
0.009610651 -0.024432516 -0.12163907 -0.014685905 0.041571505 0.046393603 -0.0199676 -0.1653891
0.026928028 0.0151701905 0.10296034 0.03916683 -0.17095713 -0.07595127 -0.10086797 -0.12859458
-0.040126164 -0.17280322 0.0075321267 -0.12608352 0.061210327 -0.11025353 -0.15621905 0.064398736
-0.13809644 -0.08682323 0.026365537 -0.04164652 -0.05215913 0.02413097 -0.038250435 -0.10017578
-0.14009753 -0.078451686 -0.106095575 -0.07629201 -0.052672643 -0.012480352 -0.05286871 -0.06684656
-0.09312628 -0.0011596214 -0.101553425 -0.17573884 -0.06847115 -0.021986552 0.1425537 -0.043491602
0.08689429 -0.15679765 -0.02380666 -0.06121485 -0.025893878 -0.08380133 -0.062978804 -0.10984716
0.115998 -0.16150072 -0.010778369 -0.01620437 0.07302499 0.01873614 0.050958686 -0.08225687
-0.122334555 -0.025978561 -0.13096984 -0.11760635 -0.07882934 0.19543423 -0.03715942 -0.013485208
0.12918566 -0.1461705 0.15189219 -0.17620829 -0.2114158 -0.03796023 -0.10093375 0.03402388
-0.10368728 -0.15279871 0.12954466 -0.18571955 -0.04531535 -0.0490653 -0.03259984 -0.058389794
-0.18793274 -0.16716991 0.038438443 -0.07633078 -0.1193181 -0.13209482 -0.006098584 -0.04024434

mlp_1/MLP_0_1/hidden_1_1/Cast/ReadVariableOp:0 f4 [512, 256]
00000000: efbc 60be 114b 9fbc 6a87 08bc ed4d 713d
00000010: 8ee8 54bd e2a4 40bc 49d9 453c 8159 ee3c
00000020: b09e cabc 009b 54bd 1b35 0b3e 4f00 83bc
00000030: 1496 ad3d 2bed bb3b dc10 bbbc 6577 87be
00000040: 6f1b 02be 58e0 e03d 621d df3d 3b97 91bd
00000050: 100e 87bd cc94 8ebd 79f7 23bd 7791 863c
00000060: 9835 56bd a8c4 543d 149e 9bbc 9920 ef3d
00000070: 27b8 8bbd 594c 83bd dd19 46be 07c3 26be
00000080: d3c8 973d 8211 7fbd e524 4cbc de2c 4a3c
00000090: addf 223c 4915 edbd 711a b03c 085b aebe
000000a0: 72a0 80be 4374 433d 1720 a43c 6b27 4cbd
000000b0: a54d 843d cd92 9cbd 0f8e d7bd 317a 00bd
000000c0: ab07 843d 871b 9f3d 566d 3f3d 28e6 4a3c
000000d0: be3a 9ebb a563 ebbc c340 c63b 2252 1fbc
000000e0: d54d e6bd 2c51 1d3d 2256 013e 3e59 eb3d
000000f0: 1c19 1abe d8ee ddbd 1c8a 0ebb d97e 54b8
00000100: 56f9 e73d 5665 6ebd c54a c03d 08b4 8fbd
00000110: 4e04 703b 3166 a6be f531 c8bd d0c2 4f3d
00000120: ae76 273d 9cb6 463e 9fec d9bc b877 e9be
00000130: 7430 16be 3fb8 e03d 67ba a43d 6386 01be
00000140: e3ad d2bd 4f57 d73d bf0d d5bd 696f a0bd
00000150: d0c8 89bc 8a82 18be d1ba c7bd 96c4 023d
00000160: 2bf6 783d 993d bfbb fd1f 343b b4d3 2d3d
00000170: aad4 a83d bbf6 21bd 9ffd 033d d6af 2abd
00000180: b2a3 7a3c b83f 40be 2eb4 10be a45f 07be
00000190: 7a41 023e d34a 7bbd 55a9 f3bd 51d4 1bbe
000001a0: cb57 ff3c 461d 26be c702 673c a505 2bbc
000001b0: b860 99bd 5d93 c63c 08e4 073d 9791 ef3c
000001c0: 5e9a 953d 55d7 3bbe e52f 303c 19f2 24bc
000001d0: bb13 5bbe 459a c7bd 4d06 823b ec10 1bbe
000001e0: 1632 fa3d f511 3c3d b44e 62bd 5ca6 133e
000001f0: f15c 4bbd 0b9c 503d 03e4 4d3d fcc4 71bc
00000200: 4ef2 13bc 876b 88be a82c f93d 9567 b2bc
00000210: 0255 5abe 8e78 6b3d 63d9 3abe 46f0 9c3c
00000220: 0896 1b3e b599 d4bd 94a3 f3bd d97a 6e3d
00000230: 8ae0 563e 6cfa 9fbd 6be4 a1bd 81c7 06be
00000240: 43fa efbd cfea a23d 0077 37be d623 08be
00000250: 96f6 98bd f372 28be 3f9a b6be 33c3 48be
00000260: ed33 9b3d f40c 44bd 1abc 4f3d 2eaf 2dbd
00000270: 27bf 213e d351 d1bd ebc4 b03d f672 d3bd
00000280: 1a11 453c 9665 14be 91eb 4a3d 5c69 e5bc
00000290: ddf0 183d 4028 4c3d d499 2fbe 49d8 5dbe
000002a0: 8125 85bd b16f 4a3e 2ad8 ecbd 653a 65bd
000002b0: bff0 3dbc 59bd 24be 5351 70be eb70 ae3d
000002c0: 0966 a43a 3c8a 02bd e607 31be bc22 25be
000002d0: 72f3 17bd 081f b6bd f326 9bbd caa8 e23d
000002e0: 1f70 5fbd 4c40 bd3c f099 89bd 61cc 063e
000002f0: 1298 3a3d 5b50 d43d e9f6 12be 3593 e2be
00000300: 905b 39bd f924 29bc 68e9 31be 676b 2fbe
00000310: c0e9 6a3c 6ed9 09be d11e f5bb 04b8 8ebc
00000320: e7bd 34bd 917c c0bd 5c7d 0fbe a4c1 0f3e
00000330: 4830 83bd 4ea7 7ebc 2d58 463e 4624 c8bc
00000340: 5210 853b 51cc e23d d28c a1bd 4c13 f2bd
00000350: 9959 adbe a4ab 463d 87cc 24be 2f63 d63d
00000360: 729e 3d3e 1462 1b3c a6ea a6bd 85ea b1bd
00000370: 260f e43c dd63 2c3d 8cff fe3c b180 c43b
00000380: a818 46bc e44b 4dbe fb75 da3d 45c3 8c3b
00000390: d4d9 fbbc 4574 bfbd 453c 053e 3299 27be
000003a0: 4c70 9ebd b96c a53c 74a8 803b 73c6 31bd
000003b0: 9686 eb3d 5647 24bd df76 863c dd03 ba3d
000003c0: ef6e 313c 057a 86bd cb0d 733d 02da 103e
000003d0: 4a5b 9abd 9db6 c13d 1a75 dabc 102d edbd
000003e0: 1892 a93d 83c7 203e a535 d9bd ce2c fc3d
000003f0: 57a5 9bbd b4dc e8bc fedd 0c3d 87bb 183e
-0.21947072 -0.019444974 -0.0083330665 0.058912206 -0.051979594 -0.011758061 0.012075731 0.029095413
-0.024733871 -0.051905632 0.13594477 -0.015991358 0.08475891 0.0057350597 -0.022835188 -0.26458278
-0.12705778 0.1098029 0.10894276 -0.07108923 -0.06594479 -0.069619745 -0.04003093 0.016426785
-0.052297205 0.05194536 -0.018996276 0.116761394 -0.06822234 -0.064110465 -0.19345804 -0.16285335
0.07411351 -0.062272556 -0.012459968 0.012339799 0.009941024 -0.115763254 0.021496983 -0.34053826
-0.2512241 0.047718298 0.020034833 -0.04984228 0.06460122 -0.076451875 -0.105251424 -0.03136653
0.06446775 0.07768922 0.04673513 0.012383975 -0.00482878 -0.028734038 0.0060502007 -0.009724172
-0.11245314 0.03840749 0.12630513 0.11491631 -0.15048641 -0.108365715 -0.00217498 -5.0662875e-05
0.11326854 -0.05820211 0.09389261 -0.0701676 0.003662366 -0.3249984 -0.097751535 0.050722897
0.040884666 0.19405597 -0.026602088 -0.4559915 -0.14666921 0.10972642 0.08043366 -0.1264892
-0.102870725 0.105147 -0.104030125 -0.0783375 -0.016819388 -0.14893547 -0.09752429 0.03192576
0.06078164 -0.0058362004 0.0027484887 0.042438224 0.082436875 -0.03954194 0.032224294 -0.041671596
0.015297817 -0.18774307 -0.14131233 -0.13220078 0.1272029 -0.061350655 -0.11897532 -0.15217711
0.031169793 -0.16222104 0.014099783 -0.0104383575 -0.07489151 0.02424019 0.033176452 0.029244227
0.07304834 -0.18343861 0.010753606 -0.010067486 -0.21394245 -0.097462215 0.0039680363 -0.15143174
0.122165844 0.045915563 -0.05525084 0.1441893 -0.049649183 0.050930064 0.050266277 -0.014756437
-0.009029938 -0.26644537 0.12166721 -0.021777907 -0.2132149 0.057488017 -0.18246989 0.01915754
0.15193951 -0.1038088 -0.118964344 0.058222625 0.20984092 -0.07811436 -0.079048954 -0.13162042
-0.117176555 0.079549424 -0.17916489 -0.1329492 -0.074689075 -0.164501 -0.35664555 -0.19605713
0.075782634 -0.047863916 0.050716497 -0.042403392 0.15795575 -0.10220685 0.08631309 -0.103246614
0.012028003 -0.14491877 0.04954106 -0.02800434 0.03733908 0.049843073 -0.17148525 -0.21664537
-0.06501294 0.1976917 -0.115646675 -0.055963892 -0.011593043 -0.16087855 -0.23468523 0.08517631
0.0012542616 -0.03187011 -0.1728817 -0.16126531 -0.037097402 -0.088926375 -0.07575788 0.1106735
-0.054550286 0.023101948 -0.067188144 0.13163902 0.04555518 0.10366889 -0.14352001 -0.44252935
-0.045253336 -0.010323756 -0.17374194 -0.17130814 0.014337957 -0.13461849 -0.0074804802 -0.01742173
-0.044126417 -0.09398759 -0.14012665 0.14038712 -0.06405693 -0.015542818 0.19369574 -0.024431359
0.0040607834 0.110741265 -0.078881875 -0.11820087 -0.3385742 0.048503533 -0.16093646 0.104681365
0.18517473 0.009483833 -0.081502244 -0.08687309 0.027839255 0.042087425 0.031127714 0.0059967865
-0.012090839 -0.20048481 0.10667034 0.004295739 -0.030743517 -0.093483485 0.13011272 -0.16367033
-0.07736263 0.020193445 0.003926331 -0.043402147 0.115002796 -0.040107094 0.016414104 0.09082768
0.010829671 -0.06566242 0.059339326 0.14145663 -0.07536943 0.09458659 -0.026667167 -0.115808606
0.08279818 0.15701108 -0.10605935 0.12313233 -0.075998954 -0.028425552 0.034391396 0.14915286

mlp_1/MLP_0_1/hidden_1_1/BiasAdd/ReadVariableOp:0 f4 [256]
00000000: 942b 64bd 39f3 e6bd 31f2 f8bd e548 99bd
00000010: 9e3b 95bd 5fe0 cfbd 349f d2bd 390a 7fbd
00000020: c360 edbd a06a 05be 49ea d0bd d112 29be
00000030: 63bc 9ebd 1d67 1cbe 5bad 94bd cb47 903c
00000040: b367 06be 370a 12be e2d6 b8bd fb59 92bd
00000050: 31ec a3bd 1718 b4bd 498f 3ebd 527f 3cbd
00000060: 6b27 84bd 65f6 04be 3c5f 46bd c34e 943c
00000070: ea9d 07bd 549b e2bd 550e 11be 9de2 44be
00000080: 578a 26be 64d2 89bd 3b59 96bd 3b50 73bd
00000090: 71a1 303d 4000 cebd 42dc 7f3b 88c7 57bd
000000a0: 6fe5 ccbd 0dd9 3ebe bdf4 d5bd f88f 84bd
000000b0: 72a9 06bc 3421 40bd ccb6 31be 6989 31be
000000c0: ad93 c0bd b071 cfbd 2d2b 08bd 62ca a6bd
000000d0: a645 d3bc 0795 07be 890a b7bd 42d3 febd
000000e0: 2f21 aebd ce18 153c dcce 29be 67ae 13be
000000f0: b3ff 29bd 9b78 0ebe f60c d8bd e2af f0bd
00000100: 8bee 22bd 5023 a8bc 5462 2abe 3f00 85bd
00000110: 0625 10be df0f 6bbd 3436 3abd a2cc b7bd
00000120: 9340 353d 544a 52bd ff92 8cbd 924d afbd
00000130: 7b77 6bbd e567 5dbd f0a8 3cbd 70da e1bd
00000140: 3e97 debd 73fa 2fbd 4bd4 c0bd 266a a0bd
00000150: 7ab5 febd bf7a e8bc ef82 06be a133 98bd
00000160: bd11 d4bd 289e 82bd 25cd acbb a18d b7bd
00000170: 905c 043d 0f04 a8bd a9f0 89bd f8ef c2bd
00000180: ccea eebd fee5 64bd bc85 3dbe a2ed 00bd
00000190: 3704 95bd e0bd afbd d4a4 16bd 49da 7bbd
000001a0: 2123 e4bd 8538 44bd eafd aabd ceef 85bd
000001b0: ead1 f8bd ca55 c8bd e1eb e6bd 5242 3ebd
000001c0: 79cf 0dbd c931 9cbd 6823 febd 6d58 dbbd
000001d0: 0af4 a7bd a7d3 17bc ee8f e8bc ce56 01be
000001e0: cac6 b7bd b415 c3bd c30a e2bd 0e64 fbbd
000001f0: 0ec6 89bd 82d8 a2bd 9c10 86bd 470a ecbd
00000200: 1a46 f0bd de9a 91bc 5693 2fbe 9725 e0bd
00000210: f977 33be 9d40 97bd 3374 78bd 69f5 d8bd
00000220: 3b23 85bd d1f5 c4bd fcdc 2bbd aea3 1cbe
00000230: 5ecd c6bd 3d75 01be b496 0dbe 8341 96bd
00000240: a70b 9dbd 5e40 99bd 5da5 9bbd a7ae 25be
00000250: 9447 f4bd c014 98bd 82ea 8cbd b4e7 22bd
00000260: 455e 9a3d 093f 90bd 6f44 c2bd 2f18 4bbc
00000270: b321 d5bd a930 37be 457d 3abe 9a26 82bd
00000280: 21fc 85bc a1d6 18be 1b84 b2bd 79ce 1b3c
00000290: b099 f3bd 4bac f8bd 16b1 b5bc 8c28 9abd
000002a0: 48de 3ebc 95a1 c0bd 29e5 40bd 213f a5bd
000002b0: 0b97 ffbc a732 95bc 0292 a3bd c3e5 9dbd
000002c0: 9d23 bcbd 1a3a 65ba 9f3c 81bd 5388 3fbd
000002d0: bf3b f6bc f55f 94bd 25bf c1bd fad8 0cbd
000002e0: 1e22 5fbc c6f4 8fbb 04b4 10be b334 a8bd
000002f0: 2cf4 efbd 86a0 07be 7f02 1fbe 92c9 b1bd
00000300: 8dda 97bd e049 77bd f3a1 c9bc 588e 18bd
00000310: 8619 3fbd 6b3b 84bd 3ba4 8ebd 6575 b9bd
00000320: 230c 26be 7fa7 6abd e018 08be ab38 e3bb
00000330: ccf2 79bb 076a 36bd 813f c8bd abf7 bdbd
00000340: 7427 e6bd 7647 e4bd 3ccf 9dbd b907 893c
00000350: dd65 0abd 1a68 a7bd 4125 a1bd e62d cebd
00000360: b28a 21bd bb14 0cbd 046c 74bd 5b6e febc
00000370: 5ae5 2ebd 2b8d fcbc 7cae 7ebd b904 88bd
00000380: e1b2 1fbe fd21 9fbc 28cf f7bc acad 6cbd
00000390: aa71 9cbd 7f0f 99bc 52f8 cabd c71e dbbd
000003a0: 4742 83bc 7838 11be 76df 3bbe 528a a5bd
000003b0: f2f0 b5bc dde7 0dbc 959c dabd 8b89 8cbe
000003c0: 69c6 9fbd 3eb1 f2bd 21df d7bd cfd3 d7bd
000003d0: 9841 f0bd 9f12 0fbe 069c 4abe 3666 13bd
000003e0: 2937 afbd c4ec c7bd f932 9bbd 4b61 99bd
000003f0: c046 0ebe b6a1 83bd 0baa f6bd 1aa3 8dbb
-0.05570562 -0.1127686 -0.12155569 -0.07484607 -0.07286762 -0.10150217 -0.10284272 -0.06226561
-0.115907215 -0.13028955 -0.10200936 -0.16511084 -0.07750776 -0.1527371 -0.072596274 0.017612359
-0.13125496 -0.14261709 -0.09025361 -0.07146069 -0.08004034 -0.08793657 -0.046523366 -0.04601986
-0.06452831 -0.12984617 -0.048430666 0.018103963 -0.033109583 -0.11064783 -0.14165623 -0.19227071
-0.1626371 -0.06729582 -0.07341238 -0.059402686 0.043122713 -0.100586414 0.0039041196 -0.052680522
-0.100046985 -0.18637486 -0.10447071 -0.06472772 -0.00821911 -0.046906665 -0.17354888 -0.17337574
-0.09403167 -0.10129106 -0.0332443 -0.0814407 -0.025790047 -0.13240443 -0.08937556 -0.12442638
-0.08502423 0.009100152 -0.16582817 -0.14421998 -0.04150362 -0.13913195 -0.10549347 -0.11752297
-0.039778274 -0.02052465 -0.16639072 -0.064941876 -0.14076623 -0.057388183 -0.04546185 -0.089745775
0.044251036 -0.051340416 -0.06863975 -0.08559717 -0.057486992 -0.05405416 -0.04605955 -0.11027992
-0.10868691 -0.042963456 -0.09415492 -0.07832746 -0.12436958 -0.028378842 -0.13135885 -0.074317224
-0.10354946 -0.06377822 -0.0052734786 -0.089625604 0.032314837 -0.08203899 -0.067353554 -0.09518427
-0.11665878 -0.0558834 -0.18508047 -0.031476624 -0.072761945 -0.08581138 -0.036778286 -0.06148747
-0.11139513 -0.047905464 -0.083492115 -0.0653988 -0.12149413 -0.09781988 -0.11275459 -0.046449967
-0.03462169 -0.07626683 -0.12409097 -0.10710225 -0.08200844 -0.00926677 -0.028388944 -0.1263077
-0.08973463 -0.09525624 -0.11037209 -0.12274943 -0.06727229 -0.07951452 -0.06546137 -0.11525398
-0.11732121 -0.017774042 -0.17146048 -0.1094467 -0.17526235 -0.07385371 -0.06065769 -0.10593683
-0.0650086 -0.09617198 -0.041958794 -0.15296814 -0.097071394 -0.12642379 -0.1382702 -0.07336714
-0.07668238 -0.0748298 -0.075999 -0.16179906 -0.11927715 -0.07425833 -0.06880666 -0.03977175
0.07537512 -0.07043273 -0.09485709 -0.012395903 -0.10406818 -0.17889656 -0.18211849 -0.06355019
-0.016355576 -0.14925624 -0.08716603 0.009509676 -0.11894548 -0.12142237 -0.022179168 -0.07527265
-0.011649676 -0.09405819 -0.047093544 -0.080686815 -0.031199953 -0.01821263 -0.07986833 -0.07709839
-0.0918648 -0.00087443145 -0.06310391 -0.04676087 -0.030057786 -0.07244865 -0.09460286 -0.034386612
-0.013618974 -0.004393193 -0.1413117 -0.082131766 -0.11716494 -0.13244829 -0.15528296 -0.086810246
-0.07414732 -0.060373187 -0.024613356 -0.037245125 -0.0466552 -0.064566456 -0.06964918 -0.09055594
-0.16215567 -0.057288643 -0.13290739 -0.0069342456 -0.0038139103 -0.04453471 -0.097777374 -0.092757545
-0.11237994 -0.111464426 -0.077055424 0.016727315 -0.03378855 -0.08174153 -0.07868434 -0.10067348
-0.03943891 -0.034199458 -0.059673324 -0.031058481 -0.042699195 -0.030829033 -0.06217812 -0.06641526
-0.1559558 -0.019425387 -0.030250147 -0.057782814 -0.07638867 -0.018684147 -0.099106446 -0.1069923
-0.016022814 -0.14181697 -0.18346962 -0.08083023 -0.022209618 -0.008661238 -0.10674397 -0.27448687
-0.078015156 -0.118502125 -0.10540605 -0.10538446 -0.11731261 -0.13971947 -0.1978608 -0.035986148
-0.08555443 -0.09761956 -0.07578082 -0.0748926 -0.13894176 -0.06427328 -0.12044152 -0.0043224217

mlp_1/MLP_0_1/hidden_0_1/Cast/ReadVariableOp:0 f4 [57, 512]
00000000: 4f3c d9be acc9 4cbd 0103 a2bd d8af 813e
00000010: df8d 90be 0ea8 63be 8678 493e ed28 883e
00000020: fd65 78be 3b52 62be c873 08be 9e55 4bbd
00000030: 8729 873c 5661 243d 316d 5ebe 743a ffbd
00000040: 501d 4c3e 752e 01be eb3f 83b9 4018 9f3e
00000050: 6f30 4cbd 0638 463e 184e b53c bca6 4cbc
00000060: f1d5 173e 1161 6c3d 32cb b53e a4a0 f9bd
00000070: 856a f3bc 3d22 d4bd ee9e e53e 6e75 50be
00000080: 9a8f dabe b4f9 69bd 0718 a4be 9d2b 8a3d
00000090: bb90 ab3d 1efc b23d 12dd b9bd 721a 33be
000000a0: aa74 98be a4c3 4e3e 3f97 d9ba 9f06 5b3e
000000b0: c71d 8dbe d8e6 403d 9604 213e b29e 83be
000000c0: 316c adbe b63d 33be 3e5a 8dbd 4c54 54bd
000000d0: f3b7 453e bd13 77be 6222 22bc bb86 0bbe
000000e0: 9046 02be bcd2 383d f4c6 38be 5f1e b53e
000000f0: f91f aebe 95b7 55be d12f 693b cbb9 96be
00000100: 3eb9 903d 1a69 f53e a964 a73e 7fd9 8a3d
00000110: 5c2a 91bd 8297 6a3e 7e9e 88be bd9e fcbe
00000120: 23f4 debd d770 bb3d 60a7 24be f101 bebd
00000130: 967d dc3d e667 c33d 4df7 dd3d 3da7 973e
00000140: d6d8 c33e 2edc a4bd 33b2 b1bc b935 c73e
00000150: a0a4 ddbd 48c6 94bd 8594 63be 84d4 b63d
00000160: f07d 24be 5b1c 1bbe 3ff2 1cbc afd4 7cbe
00000170: 183b 8abe f0fb 283d 41f3 37be 98ab fdbd
00000180: 3ba6 de3d c7f9 123e 96d1 a13e 5f43 24be
00000190: 5655 a43e 17ee b43e e04e 483e db14 a5be
000001a0: b198 55bd 9d91 5fbc f770 7fbe 1933 2e3d
000001b0: bb9e 583e 0c70 313e 1de0 793e a176 da3c
000001c0: e935 823e 82ea 073e a7a8 f1bd 6252 81be
000001d0: c637 97be 80dc 673d 2f7b d2be 26a8 c03e
000001e0: eff0 2abe 604f 30be 7f56 f8bd 8ebe 9bbd
000001f0: 5315 49be ebad cfbd 45b5 b4be 79dc 313e
00000200: 3419 f4bd 2523 243e cd8c 3c3e 1e5a 27be
00000210: 5f1c 2bbe 1cb3 03bf e961 df3d ce62 4a3d
00000220: 1b71 25be e8bc 37be 9a13 053e 1031 563c
00000230: b759 23be 210d 513e 1e42 41be b1ce 93be
00000240: 8a2f 9f3e e3ce 613e 57c7 6e3e 8751 963e
00000250: 029b 34be eea3 d4bd 829c c23d 17d3 97bd
00000260: b3a9 cabe 847e 80be fac2 c63d f5d5 a3be
00000270: 101d 913e 7995 8b3e 7e74 acbd d62c 9cbe
00000280: 90a8 a4be f132 a33e d85e 1bbe ff8d 153e
00000290: 5bf9 72be 2ea4 ddbe 5fb2 963e 04dd a1bc
000002a0: bfdc 143d f90c ef3e 7915 87bd e591 313e
000002b0: 2bc4 1b3f c0bb 9b3e 8985 d5bd d78f 263d
000002c0: efef 98be e4fd aabe 5c1a e93d deb1 563d
000002d0: ce6a 1fbe e419 f2bd 5c08 98bd 857a b9bc
000002e0: 5eab f03c 2375 e6be 989a de3d 22b3 783e
000002f0: ba0a 653e bec0 b63e 59b8 903c 0a22 653e
00000300: edac 34bd af53 b93d 782a 793e 27f1 9ebd
00000310: 87f0 35be c126 66be 53b5 cebd 611c c03e
00000320: 25ba 12be 741e 0a3e 96e6 a53e 4c37 bb3c
00000330: 0d5f 243e 21bc 1cbe 23a3 023e f429 8f3e
00000340: 0011 f5bd 7400 94be 8725 91bd 37b2 12bd
00000350: dfb9 70be 2da2 663d 9211 db3d 43c0 643e
00000360: abe7 bcbe 53c1 f03e d9e1 17be 8553 3d3d
00000370: 2048 4cbe 5af5 813e 2a4f 21bc 41a8 673d
00000380: 868e d1bc 9632 0abd 47b3 643d 05ab 9c3e
00000390: c750 8ebe 7727 b33d 70e4 973e c0ce d93e
000003a0: f56b 34be 397c e6bc af72 a63e 6377 193e
000003b0: d02c 18be 9aa3 c6bd 8b1d 8fbe c916 bc3c
000003c0: 357c 7abd 2373 2c3c 9863 223e a5a7 0d3e
000003d0: 77a7 993d b38e 3dbd 8715 9c3e d7bb e8bd
000003e0: f301 cabd 1329 003e fb4d 963d 37cd 843d
000003f0: d823 353e 19a7 da3d 44cf 003e 6dd6 4ebe
-0.42428824 -0.049997017 -0.07910729 0.2532947 -0.2823324 -0.22232077 0.19674882 0.26593724
-0.24257655 -0.22101681 -0.13325417 -0.049642198 0.016499294 0.04013189 -0.2172134 -0.12462321
0.19933057 -0.12615378 -0.0002503389 0.3107319 -0.049850877 0.19357309 0.022131965 -0.012490924
0.14827706 0.057709757 0.35506588 -0.12188843 -0.029713878 -0.10358093 0.44847816 -0.20357296
-0.42687684 -0.0571229 -0.3204958 0.067466 0.083772145 0.08739494 -0.09075369 -0.17490557
-0.29776508 0.20191818 -0.0016600861 0.21389244 -0.2756178 0.04709515 0.15724406 -0.25707012
-0.33871606 -0.1750401 -0.06901978 -0.051838204 0.19308452 -0.24128623 -0.009895893 -0.13625614
-0.1272223 0.045122847 -0.18044645 0.35374734 -0.34008768 -0.20870812 0.003558148 -0.29438624
0.07066582 0.4793175 0.32693985 0.06779765 -0.070881575 0.22909358 -0.2668342 -0.49339858
-0.10886409 0.09152382 -0.16079473 -0.09277714 0.10766141 0.095413014 0.108381845 0.2961978
0.3825137 -0.080498084 -0.021691417 0.38908175 -0.10822415 -0.07264382 -0.22224624 0.08927253
-0.16063666 -0.15147536 -0.00957924 -0.24690507 -0.2699821 0.04125589 -0.17963888 -0.123862445
0.1087155 0.14353095 0.31605214 -0.16041325 0.32096356 0.35337898 0.19561338 -0.32242474
-0.05214757 -0.013645557 -0.24945436 0.0425292 0.21154301 0.17327899 0.24401899 0.026667895
0.25431755 0.13273051 -0.11799746 -0.25258166 -0.2953474 0.05660677 -0.41109607 0.37628287
-0.16693471 -0.17217779 -0.12125873 -0.07604705 -0.19637041 -0.10140594 -0.35294548 0.1736926
-0.119188696 0.16029032 0.18413086 -0.1634297 -0.16710041 -0.51445174 0.10907347 0.049410634
-0.16156428 -0.17943156 0.12995759 0.013073221 -0.15952192 0.20415165 -0.18872878 -0.2886863
0.31090957 0.22051577 0.2331823 0.29359075 -0.17637256 -0.103828296 0.09502508 -0.07413309
-0.39582595 -0.25096524 0.097051576 -0.31999174 0.28342485 0.27262476 -0.084206566 -0.30502957
-0.32159853 0.31874803 -0.15172899 0.14604948 -0.23727934 -0.43289322 0.2943296 -0.019758709
0.036343332 0.46689585 -0.065958925 0.1734081 0.60846204 0.3041668 -0.104258604 0.04066452
-0.29870555 -0.33396828 0.11381981 0.05241572 -0.15568087 -0.118213445 -0.074234694 -0.02264143
0.02937859 -0.45011243 0.1086933 0.24287084 0.22367373 0.35693926 0.017666029 0.22376266
-0.044110227 0.090491645 0.24332607 -0.0776084 -0.17767535 -0.22475721 -0.100931786 0.3752165
-0.14328821 0.1348818 0.32402486 0.022853516 0.16051884 -0.1530614 0.12757544 0.27961695
-0.11966133 -0.28906596 -0.07087236 -0.03581449 -0.23508404 0.056307007 0.10696711 0.22338967
-0.368955 0.47022495 -0.14832248 0.04622223 -0.19949389 0.253825 -0.009845534 0.056556944
-0.025580656 -0.03373965 0.055835035 0.30599228 -0.27796003 0.08747762 0.2966647 0.4254055
-0.17619307 -0.028135406 0.32509372 0.14986949 -0.14860845 -0.09699173 -0.27952227 0.022960084
-0.06115361 0.010525498 0.15858305 0.13833483 0.075026445 -0.046278667 0.30485174 -0.113639526
-0.09863653 0.12515669 0.07339092 0.06484454 0.17689455 0.106764026 0.12579066 -0.20198984

mlp_1/MLP_0_1/hidden_0_1/BiasAdd/ReadVariableOp:0 f4 [512]
00000000: b816 5dbd c78a 0cbe ad01 bbbd f023 4cbe
00000010: fc28 6dbe 2d55 a0bc b7f3 87bd e833 73bd
00000020: 5d94 16be 96ca 20be 5d25 5ebe 8af8 57be
00000030: b2b2 4ebe 59ea 75be 638e d3bd 9fe9 0dbe
00000040: e400 b9bd 2e58 36be b0b1 45bd d819 53be
00000050: dbdf 23bc 02ab 74be 925e 8fbe d7e4 75be
00000060: 518d debd 68fe 29bc 766a 57be 4de4 09be
00000070: c286 87be 8734 41be 3270 d6bd d840 073e
00000080: d959 8cbe c965 b1bd 17d7 e0bd b384 f8bd
00000090: cfe3 b43c 41d2 b3bd 3039 34be e1c0 a1be
000000a0: 45ef 79be 6501 3fbe 3451 a7bd bea6 26be
000000b0: a66f 09be 3c13 27be c2de c1bd 47d3 38be
000000c0: 1299 993d 8702 a13c 49e7 533b cc71 1abe
000000d0: 74bc 15be 5473 12be 757e 6fbe 7a23 0abe
000000e0: 75f4 55be c943 03be 49e9 51bd 895d 85be
000000f0: bca6 17bd 9572 3abe 68b7 eebd cb63 61be
00000100: 7bdc 52be e44f 0bbc 055d d2bd f8be 0fbe
00000110: 4e43 00bd 3420 c03d 1015 213b 60b7 56be
00000120: 9a45 c9bd 430c 7fbe b0ee f7bd 3bf6 31be
00000130: f0fe 90bd a28d 9abe 842d 05bd 527f 25be
00000140: 5630 c8bd 9dec 00be f41f 60be 40a0 173e
00000150: 8d51 4ebe 1c91 f33d a83b 54be 86fc 94bd
00000160: 4361 19be 3ab6 43be a540 07be 2e9b 3cbd
00000170: 8cdd 51be a869 1abe 6e83 88be fd90 2ebe
00000180: 9fcf 15be 22ec 77be dbd7 40be 8f09 27be
00000190: cd12 a8bd 03ed 1ebe 0fd6 23be e2e1 12be
000001a0: 9e6b bdbd e851 9fbd fad1 23be 7ca8 69be
000001b0: 2af1 09be 2236 3abe 987f f1bd 577c 76bd
000001c0: 47bf 593c b348 74be 9132 e5bd b149 24be
000001d0: 0adf 15be bf5b 3cbe 028b 3abe 9df3 1bbe
000001e0: 020e 20be 7389 1bbe 3c26 58be 3370 6dbe
000001f0: 1fca 043e 9b8e 92be c08a 60be 8edc b0bd
00000200: 4fb4 09bc 08b7 cebd b071 5abe 047f 1abe
00000210: e217 26be 39b0 87bd aad1 713c 2699 f4bd
00000220: 6abf 46be 61d1 88be 1eee 96bd a73a 6bbe
00000230: 062b 453c 98a0 d9bd fb43 a0bd e8a8 16be
00000240: f3bb 2cbe 2ba3 7fbe bb8c 4cbe c72c 52be
00000250: c9bc 1dbe 42ab 45be bd9f 78bb 71be 58bd
00000260: e146 45be 025d 95be 7aaa 45be d732 eabc
00000270: ed35 94bd 0920 fdbd b10d 6ebe 03b4 e53c
00000280: 128b c1bd 166a 14be d702 fbbd d5ed dbbd
00000290: 7bca 1fbe 690c 1bbe 4716 353c 6ed5 f9bd
000002a0: e46c 2dbe 3fa1 5bbe ebaf c9ba 1b4c 8bbd
000002b0: cb30 d2bd cc14 42be 51f7 abbd 4c21 0bbe
000002c0: a990 b6bd 602f 2fbe 7e2c 55be 0106 c4bd
000002d0: f451 20bc 6207 17be 6e24 f3bd 1e4b 15be
000002e0: 3293 85be c0c9 42bd 505c 10be c4b7 dbbd
000002f0: d275 17be 121f 2dbe cf9f 4cbe 2e4b 6ebd
00000300: 5d9f 34bd 9c64 6ebd 1daa 5bbe 9425 36be
00000310: d7f0 fdbc 3c42 04be b2cf 02bd 45bb 36be
00000320: 29f3 04be 2689 a1bd bf70 12be e7a3 393e
00000330: 65fe 0b3c 9306 1abe 8979 41be 2057 97bc
00000340: d733 d2bd 5cc3 f4bd f66a 23bc c692 88be
00000350: 2a8b 1ebd 1fcc 2cbe fbd1 e439 97f4 1ebe
00000360: f70b 4bbe 96b3 0cbe dc30 773d 6bbe 4bbd
00000370: 647c 7abe 3355 efbd 317b c5bd 260e 1bbe
00000380: c2f0 a83b f85e 89be 7166 173e ba5a 4bbd
00000390: 875e 11be ee05 03be dc61 9ebd 25b8 fdbd
000003a0: 320c 3fbc f608 0fbe da42 02be 2050 41be
000003b0: 57df 47be 3c5a 63be 501e 13be ec01 22be
000003c0: b0c1 43bd ba95 be3b c53d d0bd d3ff 10be
000003d0: b58d e6bd f41c 46be 2168 3ebe 48b4 c0bd
000003e0: e5b6 b5bd 8bbc 12be 4ff9 a0be 06bb 0cbe
000003f0: 4db4 f8bc c7b8 a2bd fd1f e8bd 17f8 a43d
-0.053976744 -0.13724814 -0.09131179 -0.19935584 -0.23160166 -0.019571865 -0.06638282 -0.059375674
-0.14705034 -0.1570228 -0.2169394 -0.21090904 -0.20185354 -0.24015178 -0.103298925 -0.1385865
-0.09033373 -0.17807075 -0.04826516 -0.20615327 -0.010002102 -0.2389336 -0.2800184 -0.24013077
-0.10866798 -0.010375597 -0.21036705 -0.13465996 -0.2647 -0.18867694 -0.10470618 0.1320833
-0.27412298 -0.08661992 -0.10978525 -0.12134685 0.022081284 -0.08780337 -0.1759994 -0.31592467
-0.2440768 -0.18652876 -0.08169785 -0.16274545 -0.13421497 -0.16315931 -0.09466316 -0.18049346
0.07499899 0.019654525 0.0032333902 -0.15082473 -0.1462267 -0.14301807 -0.23388083 -0.13490096
-0.20894034 -0.12818827 -0.05124787 -0.26047924 -0.037024245 -0.18207772 -0.11656076 -0.22010724
-0.20591919 -0.008502934 -0.10271648 -0.14037693 -0.031314187 0.09381142 0.0024579205 -0.2096839
-0.098277286 -0.24907021 -0.12106073 -0.17379086 -0.070798755 -0.30186182 -0.03251411 -0.1616185
-0.09774844 -0.12590261 -0.21887189 0.14807224 -0.20148297 0.11892912 -0.20725882 -0.072747275
-0.14978509 -0.19112483 -0.13208254 -0.04604643 -0.2049467 -0.15079367 -0.26662773 -0.17047496
-0.14629982 -0.24211171 -0.18832342 -0.1631224 -0.08206711 -0.155201 -0.15999626 -0.1434398
-0.09249042 -0.07779294 -0.15998068 -0.22818178 -0.13470903 -0.18184713 -0.11791915 -0.060177173
0.013290233 -0.23855858 -0.111912854 -0.16043736 -0.14635864 -0.18394373 -0.1821709 -0.1522965
-0.15630344 -0.15189151 -0.21108335 -0.23187332 0.12967728 -0.28624424 -0.21927929 -0.086358175
-0.008404805 -0.10093504 -0.21332431 -0.15087515 -0.16220048 -0.06625409 0.01475946 -0.11943273
-0.19408956 -0.26722243 -0.07369636 -0.22971593 0.012034183 -0.10626334 -0.07825466 -0.1471287
-0.16868572 -0.24964587 -0.1997556 -0.20524894 -0.15404047 -0.19303611 -0.0037937008 -0.052915994
-0.1926532 -0.29172522 -0.19303313 -0.028588695 -0.07236848 -0.12359626 -0.2324741 0.028039938
-0.09450354 -0.14493594 -0.12256401 -0.10738722 -0.15604584 -0.15141453 0.011052675 -0.121989116
-0.1693607 -0.21448229 -0.0015387511 -0.06801625 -0.10263213 -0.18953246 -0.08396781 -0.1358692
-0.089143105 -0.17107916 -0.20817754 -0.09571458 -0.009785164 -0.1474891 -0.11872183 -0.14579436
-0.26088864 -0.047555685 -0.14097714 -0.1072841 -0.14791039 -0.16906384 -0.19982837 -0.058177166
-0.044097293 -0.058201417 -0.21451612 -0.17787772 -0.03099863 -0.12915891 -0.031936355 -0.17844875
-0.12983383 -0.07887487 -0.14300822 0.1812893 0.008544539 -0.1504157 -0.18894018 -0.018474162
-0.10263794 -0.11951324 -0.009974232 -0.2667448 -0.038706936 -0.16874741 0.00043643996 -0.15522991
-0.19828783 -0.13740382 0.06034933 -0.049742144 -0.24461514 -0.11686172 -0.096426375 -0.15142116
0.0051556537 -0.26830268 0.14785172 -0.04964707 -0.14196216 -0.12795231 -0.07733509 -0.123886384
-0.011660622 -0.13968262 -0.12720814 -0.18878222 -0.19518791 -0.2220239 -0.14367032 -0.15821046
-0.047792137 0.0058161886 -0.101680316 -0.14160089 -0.11257497 -0.19346982 -0.1859441 -0.09409386
-0.08872775 -0.14329736 -0.31440207 -0.13743219 -0.030359412 -0.079454 -0.11334226 0.08055132

ConstantFolding/mlp_1/truediv_recip:0 f4 [57]
00000000: a92a 2040 d4d1 2340 6d97 3f40 9674 0c40
00000010: 4ea5 1e40 6ada 3240 49b0 1740 06ed 0c40
00000020: 2412 2840 e0c5 1440 b182 3540 810d 1f40
00000030: 59d9 4040 d433 1b40 626e 2c40 fb64 2140
00000040: 1b4f 6a40 ed01 7540 4731 6640 7cca 6040
00000050: 6ef5 6640 c06b 8240 60d2 6240 99e7 6d40
00000060: d86e 8240 1ec6 7640 c96f 5e40 9fa8 5e40
00000070: cc5f 7a40 6240 8140 6365 6f40 cd52 8040
00000080: 3fdd 8341 f1f9 9041 2a47 9341 fed6 0040
00000090: 70f7 e83f bdd5 0040 1b6b 0040 b7b0 0040
000000a0: c9e1 e63f 4504 0340 b8d2 f83f 6456 0040
000000b0: f10b f83f e6fe fe3f ecb0 f13f d26b f63f
000000c0: b52a f33f a569 0140 cd36 fc3f 7567 fb3f
000000d0: fcce f43f 536d fd3f b335 f53f b582 f73f
000000e0: 2f3b f53f
2.5026038 2.559682 2.9936173 2.1946158 2.4788394 2.794581 2.3701346 2.2019668
2.6261072 2.3245773 2.8361018 2.4851992 3.0132658 2.4250383 2.6942372 2.5217884
3.6610782 3.8282425 3.5967577 3.5123587 3.6087298 4.075653 3.5440903 3.7172606
4.0760307 3.855842 3.4755728 3.4790418 3.912097 4.039109 3.7405632 4.0101075
16.48303 18.122042 18.409748 2.013122 1.8200512 2.0130455 2.0065372 2.0107858
1.8037654 2.0471356 1.9439306 2.0052729 1.9378644 1.9921539 1.8882117 1.9251654
1.8997408 2.022073 1.9704224 1.9640948 1.9125667 1.9798988 1.9157013 1.9336764
1.9158686
