mujoco_playground/mujoco_playground/experimental/sim2sim/onnx/t1_policy.onnx (onnx, 860343 bytes, 10 tensors)

mlp_1/sub/ReadVariableOp:0 f4 [85]
000000 ac 8d 16 3d 43 2d 8c ba 36 db 48 bc b2 1b 37 3a
       0.036756203 -0.0010694641 -0.012259295 0.0006985023
000010 73 e1 9d bc 13 f8 b5 3c dd 15 19 3d fb 28 5e 3b
       -0.019272542 0.022213018 0.037374366 0.0033898938
000020 ff 37 7c bf 34 42 98 bc 64 d3 6c ba 42 55 ab 39
       -0.98522943 -0.018586256 -0.0009034185 0.00032679184
000030 5b a6 21 3b 27 23 5d bc d3 96 f6 bd d2 33 f8 bb
       0.0024665806 -0.0134971505 -0.12040486 -0.007574537
000040 77 73 5a 3c a1 f1 1c 3c cf 1e 65 bd 88 f9 03 3c
       0.013333193 0.009579093 -0.055937584 0.008055098
000050 d1 fc 60 ba dd d6 0b bc e6 b4 8f bb 85 0e 87 be
       -0.00085825945 -0.008535114 -0.0043855784 -0.26378265
000060 30 1a 39 3c 51 10 2c bc ea ff 8a 3e d6 14 99 3b
       0.0112977475 -0.010501937 0.27148372 0.0046716733
000070 18 a8 c7 bb c2 a9 70 be f3 76 70 bc 04 a9 10 3c
       -0.0060930364 -0.23502257 -0.014676797 0.008829359
000080 75 95 83 3e 34 38 43 bb be 25 30 3c 86 5c 34 bb
       0.25699964 -0.0029788138 0.010751186 -0.0027520969
000090 6a 75 31 3c 08 f9 90 bc 0d e8 1e 3c 4d 1f 8f b9
       0.010831216 -0.017696872 0.00969888 -0.00027298406
0000a0 b3 90 bb bb 0a db cf bb af e7 2f bc b2 15 f5 ba
       -0.0057240366 -0.00634325 -0.01073639 -0.0018698482
0000b0 52 ce 0d 3b 09 58 2b bc ba e4 7b bb 32 bc 98 3b
       0.002163787 -0.010458001 -0.0038435892 0.0046611065
0000c0 36 3d a8 3c 1b c6 0c 3d 6a d6 d4 3b 72 3e d7 3b
       0.020537 0.034368616 0.0064952867 0.0065687234
0000d0 8b 65 22 ba d6 aa 2c bb 27 9c 8f bc ad a4 0f 3d
       -0.00061949407 -0.0026346943 -0.017530514 0.035069156
0000e0 cb 74 d3 3b 63 8b 98 bb eb be e7 3a 1f fb db bc
       0.006453132 -0.004655288 0.0017680799 -0.026853142
0000f0 f2 87 0c be 9c 4b a1 bc 8d ac 4a 3c 2b 33 96 3c
       -0.13723734 -0.019689374 0.012370241 0.018334946
000100 0c f9 83 bd 6a d6 95 3c 07 9e 07 bb 90 3f 86 bc
       -0.06443986 0.018290717 -0.0020693557 -0.01638773
000110 f8 14 9c bb ed 58 69 be b4 c7 42 3e 6b 4b c1 bd
       -0.004763242 -0.22787829 0.19021493 -0.09438213
000120 c7 60 86 bd a7 ba e0 3c 5d a2 52 3d e0 23 67 be
       -0.065614276 0.027432753 0.051424373 -0.22572279
000130 8c f4 26 be 01 90 a3 3d 60 c0 81 bd ec 7e 91 3d
       -0.16304225 0.07986451 -0.06335521 0.071042866
000140 36 9e 0d bd f7 86 c5 bd 00 da d3 bd c4 55 49 3b
       -0.03457471 -0.09644883 -0.103443146 0.0030721286
000150 02 3e 89 bb
       -0.0041883

mlp_1/MLP_0_1/hidden_3_1/Cast/ReadVariableOp:0 f4 [128, 46]
000000 95 c0 b6 3c f1 56 f8 3c d5 e0 34 bd f2 c9 6b bb
       0.022308627 0.030314894 -0.04415973 -0.0035978523
000010 99 93 0b 3d 04 cf 20 bc 40 41 84 3d ad 34 f3 3c
       0.034076307 -0.009814981 0.06457758 0.029688204
000020 37 a9 8a bc a9 a8 fb bc 64 f7 ef 3c 8a 1b 8f bd
       -0.016926391 -0.030720072 0.02929277 -0.069876745
000030 de 9f 81 bd 84 4e cc 39 d1 37 09 be c0 83 7d be
       -0.0632932 0.0003896841 -0.13400199 -0.2475729
000040 38 3a 44 bc 66 b7 d0 3c 6a d8 7a 3b 6c c2 d9 3c
       -0.011976771 0.025478076 0.0038275965 0.026581965
000050 11 8b 0e bd 0b 6c e5 3d 23 29 9a 3d 9e 88 ab bd
       -0.034800593 0.11202248 0.075273775 -0.08375667
000060 86 52 fd bd b1 76 a3 3d cf a8 82 3c e0 86 01 bd
       -0.12369256 0.07981623 0.015949635 -0.031622767
000070 a2 1a c3 3c 90 67 25 3e c5 ef 90 3d 65 f0 5e 3c
       0.02381641 0.16152787 0.070769824 0.013607119
000080 f8 30 8b 3c 2f 27 19 3e 9d b6 63 3d cd 84 4a 3b
       0.016991124 0.14956354 0.055594075 0.003090191
000090 88 35 48 3d ab 2d 69 3e 7d a8 6f 3e e2 ef e2 3d
       0.048879176 0.22771327 0.23404117 0.1108091
0000a0 46 07 8b 3d 80 8b 47 3d a3 07 16 3d d8 20 58 bc
       0.06788497 0.048717022 0.036628377 -0.013191424
0000b0 61 de fa bc 18 ce 23 bc b2 eb 12 3c b4 44 0f bc
       -0.030623617 -0.009997867 0.008967327 -0.008744407
0000c0 df 26 8f bd fa f0 ab bb 15 05 3c bc af 82 f7 bb
       -0.06989836 -0.0052472325 -0.011475821 -0.0075534205
0000d0 1b 50 87 3d 8e 1d 29 3c 37 54 a1 3c 3f 8c f2 3b
       0.06607076 0.010321988 0.019693477 0.0074019725
0000e0 6c 0f 9b 3c 37 0e e3 bb b3 42 29 bd 20 ce a7 bb
       0.018928252 -0.006929185 -0.041323375 -0.0051210076
0000f0 0b 77 e3 bc 04 54 8f 3c 74 49 8c 3b f1 82 97 be
       -0.027766725 0.017496116 0.004281217 -0.29592088
000100 54 f8 a3 bc 6e a8 e6 3c e9 ca d0 3c b1 fb a1 bc
       -0.020015873 0.028156485 0.02548738 -0.019773336
000110 5a c1 01 bc f2 dc 2c 3c 52 15 bf 3c 9c 92 60 3d
       -0.007919634 0.010550724 0.023325596 0.054827318
000120 11 8d 15 bc d0 60 9b bb dd 4c 1c bc d9 43 17 3d
       -0.009127871 -0.0047417656 -0.00953981 0.03692994
000130 27 d9 d5 bc 98 54 3c 3c f2 5a 51 3b dc b3 f4 bc
       -0.026104523 0.011494778 0.0031945077 -0.02987092
000140 73 27 c4 bc 99 6e ed bb eb 7e 47 bc 68 84 38 3d
       -0.023944592 -0.0072458503 -0.012176256 0.045048147
000150 ac 3e ad bc 14 55 cd 3c f9 2c 20 3e 7a de 07 3c
       -0.021148048 0.025064982 0.15642156 0.008292789
000160 6b d6 49 3d 70 97 ad bc da e1 e7 3d 91 d3 f7 3b
       0.04927675 -0.021190375 0.11322375 0.0075630625
000170 68 df 0c bc b2 81 01 3c 23 df a2 3d 25 db 2b bd
       -0.008598186 0.007904457 0.07952716 -0.04195704
000180 d3 98 87 bc 5f 4f a7 bc ec 35 3c 3d de ca 9f bc
       -0.016552364 -0.02042359 0.04594986 -0.019505914
000190 9f e3 2e 3d 3a fa 85 bc 0b 8b 45 3c 29 67 49 be
       0.042697545 -0.016354669 0.012057076 -0.19668259
0001a0 68 7f 76 3a ce 2f e1 3c da 56 96 3d de 50 01 3e
       0.000940314 0.027488615 0.07340784 0.12628505
0001b0 b5 f8 c1 3c 11 95 71 3d f9 8a 99 bd 07 a7 22 bd
       0.023678163 0.05898005 -0.0749721 -0.03971007
0001c0 07 53 e5 3c 3e 48 f5 bb 84 15 2f 3e e6 0a a3 3d
       0.027993692 -0.0074854186 0.17098051 0.07961063
0001d0 98 f0 00 3c 77 e8 e7 bc 90 0d 00 b7 73 f0 c1 3d
       0.007869862 -0.02830909 -7.632552e-06 0.0946969
0001e0 81 6b 69 3c a2 61 4f 3d 86 4b 9e bd 3a 9f 24 3d
       0.014246822 0.05063022 -0.07729249 0.040190913
0001f0 19 ae 08 3d cb c9 d0 3d 03 a2 a6 3e 00 ee 8a bc
       0.033369157 0.10194739 0.3254548 -0.01695919
000200 6e f8 68 3d 4c ae cc 3d d5 53 80 3c 1a f1 3a 3c
       0.056877546 0.09994182 0.015664974 0.011410022
000210 94 47 29 b9 b8 be 3f 3d 7d e6 2b 3b d0 50 be bc
       -0.00016143761 0.046812743 0.002622991 -0.023231894
000220 a8 fa 95 bc 2f 50 04 3e c0 70 02 3d 42 5c 10 3b
       -0.018307999 0.12921213 0.031845808 0.0022027646
000230 34 00 0b be 4c fb 6e bc aa dc 4b bd 86 72 1f 3d
       -0.13574296 -0.014586281 -0.04977099 0.038927577
000240 92 f1 04 bd a6 dc ad 3b ac 59 86 bd b1 43 40 3c
       -0.032456942 0.0053058444 -0.06560072 0.011734889
000250 0d 71 b7 3c c6 c8 7b 3d d5 de 3b be b1 68 92 bc
       0.022392774 0.06147077 -0.18346722 -0.017872186
000260 8e 39 2d 3e ce d4 8e 3e 33 0b 6e be 03 47 e5 3d
       0.16916487 0.27896732 -0.2324646 0.11195185
000270 88 2f 66 3e e1 42 5c bd 51 55 06 bd 06 b2 50 bd
       0.22479069 -0.05377472 -0.032796208 -0.050951026
000280 ce c6 12 3d e3 1a 1b 3e b8 f5 a3 bc 27 ba 15 3e
       0.035834126 0.15146975 -0.020014629 0.14621793
000290 6a 75 51 3d 56 ed bf 3d 5d 48 e1 3d 45 fd 5c 3d
       0.051137365 0.0937144 0.1100013 0.053952474
0002a0 49 a7 ac 3c 09 2c 4b 3d 29 92 02 3e bf 25 1e 3e
       0.021075862 0.049602542 0.12751068 0.15444086
0002b0 42 e2 82 3c b9 d5 f6 bd 2f ca ff 3d 99 e6 64 be
       0.015977029 -0.12052483 0.12489735 -0.22353591
0002c0 47 75 ff bd 56 85 70 3e bc f9 d2 3d be ce a2 3e
       -0.12473541 0.23488364 0.10301539 0.31798357
0002d0 6b 8a 47 3d 1f 8a b6 bc 8c 79 38 bd 5a b0 b0 be
       0.04871599 -0.022282658 -0.04503779 -0.34509546
0002e0 2c 64 c8 3c 3e a7 08 bd 65 d0 84 bd ad 2c 5b 3d
       0.024461828 -0.03336262 -0.064850606 0.053509403
0002f0 c1 04 73 3c e6 6f 43 3c d1 26 be bc 15 5e 2f bc
       0.014832676 0.011928534 -0.023211868 -0.010703583
000300 3d c4 92 3c e2 22 d9 3a 97 17 2b bc eb 0c e9 bb
       0.01791584 0.0016566182 -0.010442636 -0.0071121356
000310 bc 11 ef bd 73 a0 22 3e 18 6e 00 3e 81 c7 9e 3d
       -0.116733044 0.15881519 0.12541997 0.07752896
000320 b8 15 c7 bd 75 c2 d8 3c 7e 2e f2 3c 76 5b 07 bd
       -0.097209394 0.026459912 0.029563185 -0.03304621
000330 a8 47 e0 3b 62 0e 7b 3d b9 b5 ee 3d 47 09 49 bd
       0.0068444796 0.061293013 0.116557546 -0.049081113
000340 2e d2 15 ba fb 42 7f 3d b0 cb 20 3d 24 6f 87 3b
       -0.0005715218 0.062319737 0.03925675 0.004133122
000350 96 04 9b bc 3b cd 2e bd a0 8e ab bc 27 19 17 3d
       -0.018923085 -0.04267619 -0.020942032 0.03688922
000360 ca 82 fd bd 3f e2 fb 3c e9 fc 1f bd 2c f2 81 3d
       -0.12378462 0.030747531 -0.039059553 0.06345019
000370 be 60 d0 3d c3 f8 05 bd 1b 1a 3a bd d6 be 9a 3d
       0.10174702 -0.03270794 -0.045435052 0.0755593
000380 b8 7d 8f bd d5 c2 28 bd 4c 5d 85 bd ca 0a ae bd
       -0.07006401 -0.04120143 -0.065119356 -0.084981516
000390 09 b6 6c 3c b2 d2 02 3d ca 8a 86 3b 51 2e 0a 3c
       0.014447697 0.031939216 0.0041059004 0.008433894
0003a0 07 b4 27 3b 4b 4f 27 3d 12 04 2a bb d5 d1 71 bc
       0.0025589482 0.040847104 -0.0025942368 -0.0147595005
0003b0 e7 92 31 bd 98 f0 1f bd 32 83 54 bb 5e 39 9c 3c
       -0.043352988 -0.039047807 -0.0032426831 0.019070324
0003c0 bd c7 f8 bc 12 63 0a 3e ce f0 62 bc 84 02 43 be
       -0.03036868 0.13514355 -0.013851358 -0.19043928
0003d0 01 52 28 be cc ca ca 3d c1 27 e5 3c 0b 90 f3 bd
       -0.16437532 0.09901962 0.027973058 -0.118927084
0003e0 84 3e 71 3d 38 3c e5 3c 0d 2a 95 3d 4a 09 86 bc
       0.05889751 0.027982816 0.07283411 -0.016361851
0003f0 77 43 99 bd 01 2b 9b bd 57 60 22 bd 7b 43 36 bd
       -0.07483571 -0.07576562 -0.039642658 -0.04449795

mlp_1/MLP_0_1/hidden_3_1/BiasAdd/ReadVariableOp:0 f4 [46]
000000 fa dc 1d 3b c5 f2 c2 bd 87 79 a3 be 7e d5 b5 bd
       0.002408801 -0.09518961 -0.31928656 -0.08878611
000010 42 fe 7a 3d 92 87 01 3e 01 79 92 3d d0 71 76 3d
       0.061277635 0.12649372 0.07151986 0.060167134
000020 a1 75 b5 bb 7b e9 bc bd 95 c6 b6 bb f0 34 8f be
       -0.005537704 -0.0922422 -0.005577872 -0.27970076
000030 6b 07 05 3e ba 43 bc bd ea c1 39 be ff 6d 84 3d
       0.12991111 -0.09192605 -0.18140379 0.064662926
000040 43 05 79 bd ac 64 82 be d1 7e be bd 2f 2b f6 3d
       -0.060796034 -0.25467432 -0.09301532 0.12019955
000050 f1 03 1b be 59 7e a3 3d 1c 8c b6 3b 49 cd e0 be
       -0.15138222 0.07983083 0.0055709016 -0.4390662
000060 5c db 8e be 2f 3c 47 bf 85 67 a7 be 27 14 43 bf
       -0.27901733 -0.7782621 -0.32696167 -0.76202625
000070 c9 2c 16 bf ff 5e 36 bf e0 21 97 be d1 2d 44 bf
       -0.58662087 -0.712387 -0.29518032 -0.7663241
000080 09 ce 02 bf 86 39 d0 bf 23 07 3e bf b3 ec c5 be
       -0.51095635 -1.6267555 -0.7422964 -0.3865715
000090 0b b2 75 bf ae 34 00 bf 43 7c 99 bd 15 d3 8e 3d
       -0.95974797 -0.5008038 -0.07494404 0.069738545
0000a0 ac 8a 40 bf cf 06 e3 be b5 e0 77 bf b6 ef 0f bf
       -0.75211596 -0.44341132 -0.9682725 -0.56225145
0000b0 7b 70 85 bd 0f 1c 18 3c
       -0.065155946 0.009284033

mlp_1/MLP_0_1/hidden_2_1/Cast/ReadVariableOp:0 f4 [256, 128]
000000 1b c4 80 bd c7 fd 95 3c 5d 1b 7a bd 22 24 d6 bc
       -0.06287404 0.018309487 -0.061061252 -0.026140276
000010 87 98 90 bd 8e cb 56 3a 94 48 32 be 88 64 09 bd
       -0.07060342 0.0008193784 -0.17410499 -0.03354314
000020 f0 e8 b1 bd 3e 10 46 bd 7c fe f5 bd 8f b6 11 be
       -0.086870074 -0.048355334 -0.1201143 -0.14229797
000030 26 ad f8 3d ea f3 d7 bd 92 5e 73 bc d8 51 04 be
       0.121424004 -0.1054457 -0.01485409 -0.12921846
000040 9b ce 6f 3c 5a f3 03 be fe 44 67 be 25 e0 4d bd
       0.014636661 -0.128858 -0.22584912 -0.05026259
000050 ad 20 b0 3e 90 1b 18 3d 3f c9 04 be 48 f7 28 bd
       0.3439993 0.03713566 -0.12967394 -0.04125145
000060 19 e6 fd bd 96 17 3a be 7e 9d 1c 3d b9 43 7e be
       -0.12397403 -0.1817306 0.038236134 -0.24830522
000070 3e ce 24 be b4 0e e4 bc fb 0e f1 bd 02 be 72 bd
       -0.160943 -0.027839042 -0.117704354 -0.059263237
000080 79 72 9c bc e2 30 be bd 1e 09 7c be 71 37 41 be
       -0.019097554 -0.092866674 -0.24612853 -0.18868805
000090 53 af 64 3e b6 7a c5 3c 8a 11 4e bd 53 b3 75 3d
       0.22332506 0.024106365 -0.050309695 0.05998547
0000a0 fe 78 36 3e 73 ac 3c bd b5 d4 45 be 87 aa c4 bd
       0.17819592 -0.046062898 -0.19319423 -0.09602838
0000b0 8c c7 d9 3b 35 74 56 be 17 46 0a be 7a d3 33 be
       0.0066461023 -0.20942767 -0.135033 -0.1756114
0000c0 49 f6 ca bd 0e e8 c4 3c 6c ef a1 bc 78 c3 c5 bc
       -0.099102564 0.024036434 -0.019767486 -0.024141058
0000d0 ca 02 29 be e4 36 45 3d 63 a5 bf be b7 cc 22 be
       -0.1650497 0.04814805 -0.37430868 -0.15898405
0000e0 91 70 a3 3e 5b 23 61 3d 52 80 95 bd 9f 98 9e bd
       0.3192182 0.05496536 -0.07299866 -0.07743954
0000f0 3d f9 80 bc 0d 55 02 3e 4b b9 0e bd 2c 43 92 3c
       -0.015743846 0.12727757 -0.034844678 0.017854296
000100 a3 df 87 bd 99 ff d2 3c 22 b6 f5 3c 0f 74 0d 3e
       -0.06634452 0.025756644 0.029994074 0.13813804
000110 60 a4 bc 3d f3 8b 57 bd b3 bf ae 3d 96 b2 92 3d
       0.092110395 -0.0526237 0.085326575 0.07162969
000120 23 b6 87 3d f6 fb 63 bb ce b9 a3 bc ac a3 02 be
       0.06626537 -0.0034787632 -0.01998606 -0.12757748
000130 9c 1d bf bd 02 88 04 3d 75 b8 96 3d de 41 4b bd
       -0.093318194 0.03235627 0.07359401 -0.049623363
000140 b3 91 21 3d 08 bb 39 be 89 92 0a 3e 22 47 24 bd
       0.03944559 -0.18137753 0.13532461 -0.0401069
000150 ff 79 19 3e bb 1b a0 bd cb 76 0f 3e fe d1 19 3d
       0.14987944 -0.07817789 0.1401016 0.03755378
000160 00 5d c8 3d ef 3d 58 bd e1 14 59 bd 00 54 6d 3e
       0.09783363 -0.05279344 -0.052998427 0.23176575
000170 9f b1 4f be 1f f7 b7 3d 64 4a b3 bd 45 f6 d4 bd
       -0.20282601 0.089826815 -0.08754423 -0.10398535
000180 30 03 12 3c fa b2 8f 3d cc 99 a6 bb cd 26 3b 3c
       0.008911893 0.07016559 -0.005084252 0.011422825
000190 e3 76 73 bc 4d 7d c7 3c 85 17 24 3d 66 8d e4 3d
       -0.014859888 0.02435174 0.040061492 0.11159782
0001a0 3f bd e8 bc 34 cc 8f bd 7a 24 95 be 97 7c 09 3d
       -0.028410552 -0.070213705 -0.29129392 0.033566084
0001b0 02 1e 08 3e 13 ef 77 3c 07 a6 68 3d 26 dd db 3d
       0.13292697 0.015132683 0.05679896 0.1073554
0001c0 6d 73 2a 3b 55 12 90 3d 0a 49 c4 bd 62 8e b2 3d
       0.002600874 0.070347466 -0.095842436 0.087185636
0001d0 36 d6 2e bd a8 5e a3 bd c0 a1 c5 bd 34 42 00 be
       -0.042684756 -0.079770386 -0.09649992 -0.12525254
0001e0 00 d0 4a 3e a3 7c 93 3d 79 a7 df bd 23 47 92 bd
       0.19805908 0.07201507 -0.10920615 -0.071424745
0001f0 13 a1 17 bc a0 38 e4 3d 98 7e 16 bc a6 a8 e8 bc
       -0.009254712 0.11143613 -0.009185456 -0.02840073
000200 e1 82 85 bd 40 c3 67 bc 59 47 5e 3d b1 dd 6a 3e
       -0.06519104 -0.014145672 0.05426726 0.22936131
000210 6d d4 17 be 63 63 e5 bd 9c 76 66 be 85 19 66 bd
       -0.14827128 -0.11200597 -0.22506183 -0.05617668
000220 81 01 45 bd 26 03 5a be 10 3d 73 bd c1 50 9b bd
       -0.048097137 -0.21290264 -0.059384406 -0.07583762
000230 99 0e 4c be 92 c2 1b be cd 4e 1d be 82 f3 50 3d
       -0.19927444 -0.15210941 -0.15362091 0.051013477
000240 bf c6 48 bc 1a 8f bb 3d aa 7e 9e bd 4c 0f 82 be
       -0.012254416 0.09158154 -0.07739003 -0.25402296
000250 05 6f d9 3d c9 c9 a5 bd 27 30 0a 3e d0 05 9e bd
       0.106168784 -0.08095128 0.13494931 -0.077159524
000260 26 d1 9b bb b3 23 25 be 15 7e 1c bd 5b 53 8d 3d
       -0.004755157 -0.161269 -0.03820618 0.069006644
000270 b8 a6 59 3e 80 e4 a3 3d 36 7a b8 3d 56 7a 7b 3c
       0.21255004 0.08002567 0.09007685 0.015348991
000280 af 7c 03 3e fc aa eb bd 51 0b 94 bd 70 ff 0a 3e
       0.12840532 -0.11507222 -0.07228721 0.13574004
000290 7e e7 99 be 9f f9 bd bd 46 8c 07 bc e2 c2 4d bd
       -0.30059427 -0.09276127 -0.00827319 -0.050234683
0002a0 6f af 1e be de 3a ac bd 4e fa 80 3c f1 29 26 be
       -0.1549661 -0.084096655 0.015744355 -0.16226937
0002b0 3a a4 81 3e bb 94 d1 3c c0 e3 a9 3d 8e fa aa 3d
       0.25320607 0.025583616 0.08295393 0.08348571
0002c0 6a c2 b7 bd ea 4a f2 3c 4b 74 8e bd c5 ec 23 3d
       -0.089726284 0.029576737 -0.06955775 0.040020723
0002d0 28 ff 67 bc 25 7f 25 3d 46 3f 0b bd 88 8e 13 3d
       -0.014159955 0.040404458 -0.03399589 0.0360246
0002e0 66 49 9f 3d 59 34 8e 3d b0 2d 97 3d 25 27 1d 3e
       0.077776715 0.06943578 0.07381761 0.15346964
0002f0 c9 8b 8a 3d 03 b5 a6 3d 3a 12 fd bd 44 85 ed 3e
       0.06764943 0.08139994 -0.12356992 0.46390736
000300 cd fa 99 be 44 08 cb 3d e0 52 79 3d 37 7a 6c bd
       -0.30074158 0.09913686 0.06087005 -0.05773374
000310 20 55 ec bd 3f ab 1b 3e f4 91 77 bd 00 d1 f6 3d
       -0.11539674 0.15202044 -0.060441926 0.12051582
000320 2d fc d1 bd a7 4b 94 bb 28 d2 32 3e 2d 64 0e 3e
       -0.10253177 -0.00452562 0.17462981 0.13905402
000330 4c 1f 25 bd 56 1e 24 3e 1b 99 fc 3c a8 f5 59 3b
       -0.04031305 0.16027197 0.030834725 0.0033257995
000340 37 a2 60 bd d6 44 f2 3d c9 b6 d3 3c 26 aa 41 39
       -0.0548422 0.11829536 0.025843995 0.000184693
000350 82 9b 6b bd c9 d3 28 be e5 64 93 bd e1 a6 2d be
       -0.05752135 -0.1648704 -0.071969785 -0.1695819
000360 1e 29 b2 3b 53 3d 19 3d 8b 86 dc 3c 73 66 08 3e
       0.0054370305 0.037412 0.026919624 0.13320331
000370 5c a0 5f 3d e2 57 06 bd d9 51 52 3d af 9b 26 3d
       0.05459629 -0.032798655 0.051347587 0.040675815
000380 af b4 ae 3d a7 3f 79 3d 98 f5 7a bd d4 34 13 3d
       0.085305564 0.06085172 -0.061269373 0.035939053
000390 3a 9a 60 bd 72 99 8e 3d 08 8c ad 3d 96 d1 82 3e
       -0.054834582 0.06962861 0.084739745 0.25550526
0003a0 61 b4 af bc 81 62 f8 3d 65 83 aa bd 4e 0d 74 bd
       -0.021448316 0.12128163 -0.08325843 -0.059583
0003b0 23 7d da 3d 25 4f 4a bd 13 13 bc bd c1 f1 c6 bd
       0.10668399 -0.049391884 -0.091833256 -0.0971408
0003c0 e6 a2 9a bc 79 62 b2 bd c3 09 c2 3d 17 7e 09 bd
       -0.018876504 -0.087101884 0.09474518 -0.033567514
0003d0 46 ea 83 3b cb ff af be a4 cb 9c 3c 4a 8a 2b be
       0.0040257303 -0.34374842 0.019140072 -0.16751972
0003e0 8e d4 1c bd db 3d f7 bd 0a da fc 3d 9c b1 f8 bd
       -0.038288645 -0.12072345 0.12346275 -0.12143251
0003f0 7b 33 75 bb 32 fe c9 3c 85 9b 11 3d ac 97 97 3b
       -0.0037414718 0.024657343 0.035548706 0.004626235

mlp_1/MLP_0_1/hidden_2_1/BiasAdd/ReadVariableOp:0 f4 [128]
000000 73 ae 80 be 62 b8 9a bb ed 25 62 be fe 8d 1e bf
       -0.25133094 -0.004721687 -0.2208478 -0.6193541
000010 5b 11 9e bd 85 14 b6 bd c0 f1 55 be ce 4f 80 be
       -0.07718154 -0.088906325 -0.20893002 -0.25060886
000020 46 cb 4d be 50 60 46 bf 18 2d 30 be a2 6e cf be
       -0.20097074 -0.7749071 -0.17204702 -0.40514094
000030 63 32 18 bf e2 da 65 be 39 9f 88 be 6c 1e e6 bd
       -0.59451884 -0.22446778 -0.26683977 -0.11236271
000040 04 ef 85 bd 3b fc 11 bf 32 43 43 be 3c 68 e4 bd
       -0.06539729 -0.570255 -0.19068602 -0.11152694
000050 9d a8 9f be e1 3e 6d be 94 d9 27 bf 75 13 b5 bd
       -0.3118333 -0.23168518 -0.6556637 -0.08841602
000060 92 52 8b be cc 4f 8b be 51 89 84 bd dc 33 c9 be
       -0.27211434 -0.27209318 -0.064715035 -0.39297378
000070 62 f1 31 be 74 24 6d be 95 0f 85 be 37 39 71 be
       -0.17377236 -0.23158437 -0.2598845 -0.23556982
000080 2e a0 d2 be c9 f9 fe bd 6f 07 c2 be f9 30 69 bf
       -0.41137832 -0.124499865 -0.37896296 -0.9109035
000090 8b cf 3a bf 93 8c d3 bd e5 73 b4 bd 33 db 0f be
       -0.72972935 -0.10329547 -0.08811168 -0.14048462
0000a0 79 9b 2b be b8 09 ac bd e6 2c 29 be 74 00 bf bd
       -0.16758527 -0.08400291 -0.16521034 -0.09326258
0000b0 42 0a 70 be 4d 08 46 be a9 c7 06 be 94 2e 12 be
       -0.23441413 -0.19339104 -0.13162102 -0.1427558
0000c0 fc c0 ac 3c a9 5a cd be c2 12 80 bc 8d db 23 be
       0.021088116 -0.4010823 -0.015633944 -0.1600172
0000d0 ed 93 ec bd f1 49 50 bf 62 05 02 be 10 3a 2c bd
       -0.11551652 -0.81362826 -0.12697366 -0.04204756
0000e0 b2 f9 c0 be e2 de 33 39 27 91 a2 bc ee 6d 37 be
       -0.37690502 0.000171538 -0.019844605 -0.17913029
0000f0 83 80 4d be d5 e8 80 bd 67 d3 c7 bc b3 39 35 bf
       -0.20068555 -0.06294409 -0.024392797 -0.7079117
000100 de 55 1a bf 7f b4 0c be ee b5 7e be 85 6d 09 bd
       -0.6028727 -0.13740729 -0.24874088 -0.03355171
000110 27 f4 3c be f2 39 92 be d1 40 76 bc 3a 3a b6 be
       -0.18452512 -0.28559834 -0.015030102 -0.35591298
000120 18 c3 08 bf 27 5b 9c be 89 eb 28 bf b9 20 cb bd
       -0.5342269 -0.30538294 -0.659844 -0.09918351
000130 bf ca 00 be 42 be 0d be 0a fc 79 bd e5 ba 09 be
       -0.12577341 -0.13842109 -0.06103138 -0.13450201
000140 6d d1 ac be 3a 1a b0 bd 03 24 9a bd 4c 39 30 bf
       -0.3375353 -0.08598752 -0.075264 -0.6883743
000150 ef f3 6b be 9d 29 36 bf 05 35 80 be b9 39 37 bd
       -0.23042272 -0.71157247 -0.2504045 -0.044732783
000160 1e 1f e4 be f4 ab b9 bd 05 24 60 be 6b 1b 87 be
       -0.4455499 -0.090660006 -0.2188874 -0.26388106
000170 aa ef 83 be 42 8a e6 bd 3b 36 2c bd 8b dc 30 be
       -0.25768787 -0.11256839 -0.042043906 -0.1727163
000180 cb b8 89 bd 33 af c0 bd 61 08 6e be 05 1b 9b be
       -0.067246996 -0.094084166 -0.23245384 -0.30294052
000190 7c 35 16 bf ca 3b 47 be 32 e1 0d be dc be ac be
       -0.5867536 -0.19456401 -0.13855436 -0.33739364
0001a0 4d 58 69 be 6d c2 26 be 4d 79 0b be 05 73 08 be
       -0.2278759 -0.16285105 -0.13620491 -0.13325126
0001b0 6f fb 2e be 6b 97 13 bd cc aa 09 be 23 b2 c3 bd
       -0.17088102 -0.036033075 -0.1344406 -0.09555461
0001c0 05 e3 28 bf 29 33 06 be 51 bd 5b be 33 a0 54 be
       -0.65971404 -0.13105454 -0.21458937 -0.20764236
0001d0 6a 67 27 be be 90 1f bf 67 3f 96 be 73 27 9c be
       -0.16348043 -0.62330234 -0.29345247 -0.30498847
0001e0 3f 3b 13 be be e3 20 be f0 a4 b4 be b5 14 08 be
       -0.1437807 -0.15711877 -0.35282087 -0.13289149
0001f0 97 a7 3b be 03 03 4c bf 16 b9 10 be 0a 48 21 be
       -0.18325649 -0.79692096 -0.14133105 -0.15750137

mlp_1/MLP_0_1/hidden_1_1/Cast/ReadVariableOp:0 f4 [512, 256]
000000 2a ab 1b be 9f 0a 83 be b1 c8 d4 3c a7 c5 74 3e
       -0.15202013 -0.2559404 0.025974603 0.23903523
000010 f4 b0 e8 bd 09 6e 1d 3c 06 51 65 be 9a c0 25 be
       -0.11361876 0.009608754 -0.22394189 -0.16186753
000020 8f 65 0a be a9 aa 24 3e c3 a1 0c 3d 65 a3 80 bd
       -0.13515304 0.16080727 0.034333955 -0.06281165
000030 b3 7e 4a be 07 14 16 3e 37 85 4a 3e 34 06 db 3d
       -0.19774894 0.14656077 0.1977738 0.106945425
000040 34 74 02 3e 88 84 a5 bd b8 74 49 be 62 f8 a8 bd
       0.1273964 -0.08081919 -0.19673431 -0.082505
000050 0c 83 e7 be 5c 88 d8 be 07 b2 0d be 50 c8 c7 bd
       -0.45217168 -0.42291534 -0.13837443 -0.097550035
000060 8f 8f 51 bd 1c f0 1a 3e f2 f4 34 3e f9 44 41 3e
       -0.0511623 0.15130657 0.17671564 0.18873967
000070 1d c7 4b 3e 7d 44 92 bc 98 41 ec bd 6a bf 4b 3e
       0.19900174 -0.017854923 -0.115359485 0.19897237
000080 a9 8f 9f 3d 63 85 44 be 7d 87 75 bb 8d a2 89 3e
       0.07791073 -0.19191508 -0.003746479 0.2688183
000090 47 d9 04 bf e7 26 4e 3e ca fe 75 3e 69 1d 8f 3d
       -0.5189404 0.20132028 0.24022976 0.069880314
0000a0 90 86 13 be e5 6d 2b bf fd c3 94 bc 50 d1 a6 3d
       -0.144068 -0.6696456 -0.01815986 0.08145392
0000b0 74 7c 15 3e be 7d 0a bd cb 4b 4f 3d bb 9f a5 3d
       0.14598256 -0.033811323 0.05060939 0.08087107
0000c0 86 8a d6 3e 5c 1e e8 bd c4 aa 84 3e f7 41 c5 3c
       0.4190256 -0.113339156 0.25911534 0.024079306
0000d0 ee 65 34 bc 7f eb dc 3d 29 2d 50 bd 2b 5a 93 bd
       -0.01101063 0.10787105 -0.050824318 -0.071949326
0000e0 3f 4d fd 3c af 09 81 bd fb f7 0b bd f5 7e 1d 3d
       0.030920623 -0.06300675 -0.03417204 0.038451154
0000f0 f6 fe 8c be 2b 95 fc bd 3f 1a 86 3e 94 97 2c bd
       -0.2753827 -0.12333139 0.261919 -0.042136744
000100 fe 35 4f bd 08 f5 85 3d 00 70 99 3e 98 43 5e bc
       -0.0505886 0.065408766 0.29968262 -0.01356592
000110 6a 3a 1b 3e bd 20 17 3e 0a d9 98 3c 07 96 e2 bc
       0.15159002 0.14758582 0.01865818 -0.02765943
000120 b3 f6 5b 3e de 20 d2 bd 4d aa a0 3d 6b dc 82 3d
       0.21480827 -0.10260175 0.07844982 0.06389698
000130 05 71 38 3e 39 98 93 be 1c cd 1c be 4d 6e c2 3d
       0.18011864 -0.28827074 -0.15312618 0.094936945
000140 05 8c 4d 3d 5c b1 80 3c 55 84 5a bd fd 1b a2 3d
       0.05018236 0.015709572 -0.053348858 0.079154946
000150 34 b2 3e 3d bb bd 1f 3d 2a 75 63 be 0f 75 37 3e
       0.046556666 0.0389993 -0.22212663 0.17915748
000160 08 02 db 3e 58 fc 11 3e b8 1a 24 3d 88 68 3f bd
       0.42774987 0.14256418 0.040064543 -0.04673055
000170 51 34 d0 bd 3f 8c e0 3d 1b 9d 11 3e 03 37 7f be
       -0.101662286 0.1096425 0.14220087 -0.24923329
000180 82 d2 bb be 64 5e 5e 3e ad 17 74 3e 7a a1 ea be
       -0.36684042 0.21715695 0.23837157 -0.45826322
000190 28 07 60 be c6 b1 3f bc 32 fb 8f be e1 fc d8 bd
       -0.2187773 -0.011700099 -0.28121334 -0.10595108
0001a0 d5 83 ea bd 13 6f 1a be f5 08 76 3b c4 9f 11 3d
       -0.11450926 -0.15081434 0.003754196 0.035552755
0001b0 35 f3 4c be 97 a3 e0 3d 2c 37 4e 3c b6 a5 0a 3e
       -0.20014651 0.10968702 0.012586396 0.13539776
0001c0 fd 04 43 be 3d 82 84 3e f9 0d 2f 3b 21 69 9f be
       -0.19044872 0.25880614 0.002671121 -0.31134894
0001d0 96 26 7a be 1c d6 a2 3d 07 26 96 3d 20 44 9e be
       -0.24428782 0.07950994 0.07331472 -0.3091135
0001e0 a6 0e 3a 3d 3a ca 22 3d 9c 0d f3 3b 9b 30 2f bd
       0.045424126 0.03974364 0.007417394 -0.042770963
0001f0 dc a0 c2 3d d4 f3 12 3e 0d 82 d1 be bb 69 6b 3d
       0.09503338 0.14350826 -0.40919533 0.05747388
000200 79 83 b8 be ba d0 a1 3c be 1e 4b bd f7 7f b6 3a
       -0.36037806 0.019752849 -0.049589865 0.0013923635
000210 76 0a 13 be f6 f7 b9 3d 2a 09 13 be 99 2c 7c 3d
       -0.1435946 0.09080498 -0.14358965 0.06156597
000220 c8 84 f0 bc e8 ab 00 be 7f 7f bb 3c f8 41 a2 be
       -0.02936019 -0.12565577 0.022887943 -0.31690955
000230 d7 be ca bd 20 e3 83 be 4e b0 8f be 23 28 4a bd
       -0.09899681 -0.2575922 -0.28064197 -0.049354684
000240 05 47 c9 bd e2 e0 ee bd cd 5e 9e 3e 4f 56 c5 bd
       -0.09827999 -0.11663987 0.30931702 -0.09635603
000250 cc 8c 33 bd 52 75 5f 3b fb 22 20 3d 3f a2 4b be
       -0.043835446 0.0034097028 0.03909586 -0.1988611
000260 85 3d af bc b4 a9 b1 bd 20 aa aa 3d 74 04 cc 3d
       -0.02139164 -0.086749464 0.0833323 0.09961787
000270 c1 83 a9 bc 9b 86 56 3d c1 1c a9 3e 17 fd 42 be
       -0.020692708 0.052374464 0.3302975 -0.19041859
000280 f7 01 10 3e 72 40 6a be ea 59 6d be ff 5d c4 bd
       0.1406325 -0.22876146 -0.2317883 -0.09588241
000290 58 37 fc bd 9a 41 b4 bc 00 ba e8 be c2 b5 1a be
       -0.123152435 -0.022003938 -0.45454407 -0.15108398
0002a0 58 d3 27 bb 03 58 d7 3d e8 26 40 be 40 ab 17 3e
       -0.0025608148 0.10514834 -0.18764842 0.1481142
0002b0 bc 96 66 be e6 91 21 3e e7 67 0f 3e ac 82 36 bd
       -0.22518438 0.15778312 0.1400448 -0.044558212
0002c0 8c 2a c5 3e e8 e6 81 bd f6 ae 08 3d d9 c0 72 be
       0.38509023 -0.0634287 0.03336998 -0.23706378
0002d0 60 10 1c be d9 f4 93 3e 1c 4e 60 3d 26 ae 61 bd
       -0.15240622 0.2889774 0.05476199 -0.05509772
0002e0 a0 4e 3e be 0a ae e3 3d c7 83 6f bc e0 e7 bf bd
       -0.1858468 0.1111718 -0.0146188205 -0.093703985
0002f0 14 4a 88 bd 18 9f 07 3d 1d de 5f bd 50 9d 95 3e
       -0.06654754 0.033110708 -0.054655183 0.29221582
000300 a8 7f dc bd 57 a7 1f 3e c0 c7 ab 3b 36 6b d6 3e
       -0.10766536 0.15591179 0.005242318 0.4187867
000310 36 30 95 be 7e 32 95 be f1 96 8f bd 65 0c 36 3d
       -0.29138345 -0.29140085 -0.07011212 0.044445414
000320 72 f0 4f 3d 71 6d 23 3d 00 21 f1 bd 47 0d 07 be
       0.050766416 0.039899293 -0.117738724 -0.13188659
000330 40 44 d9 bd 6d 49 a2 3e 8f 10 b5 3d 71 35 4b 3e
       -0.10608721 0.31696644 0.08841049 0.19844605
000340 48 3d d7 3d 20 4e b0 3e 6c 10 9a 3d 04 1b 5c 3d
       0.10509735 0.34434605 0.075226635 0.0537367
000350 2d 90 8d 3e 4b af 58 be 4c 1d a1 bd 77 7f 42 bd
       0.2764906 -0.21160619 -0.07866916 -0.04748484
000360 6f 6b 21 bc 4b a2 ce 3b ae 39 6a bd 22 90 5b be
       -0.009852274 0.006305968 -0.057183914 -0.21441701
000370 b9 d8 41 bf 24 9c fe 3d 3f 65 4e 3e 43 8a 6d 3e
       -0.7572132 0.12432125 0.2015581 0.23197274
000380 02 07 7f 3e 5f 49 7b be dc 6e 8f 3c 60 b1 25 3e
       0.24905017 -0.24539708 0.017508917 0.16180944
000390 74 53 a6 be dc 23 e1 3e f2 c0 18 3e 0e 45 08 be
       -0.32485545 0.4397267 0.14917353 -0.13307592
0003a0 00 a6 44 3e 0a 25 e5 bd 5d 56 fc 3c e2 b7 21 3e
       0.19203949 -0.11188705 0.0308029 0.15792802
0003b0 b4 78 18 be e4 d1 96 bd 83 98 84 3d cf 81 82 3c
       -0.14889795 -0.07364252 0.06474402 0.015931038
0003c0 e1 2a 0d bd 88 59 36 3e 5d 2d 92 3e 6f ed 00 3f
       -0.03446472 0.17807591 0.28550234 0.50362295
0003d0 26 9b 2f 3e 6a c1 5f be d8 97 33 be 23 20 9d 3c
       0.17149028 -0.21851125 -0.17538393 0.019180363
0003e0 97 1d 94 3e d6 92 92 bd 3c 9b a3 bd c0 a9 55 3c
       0.28928825 -0.07156913 -0.07988593 0.01304096
0003f0 5e 4a 04 be f4 1c 8f be 42 4c ba 3c 61 c5 d9 3d
       -0.12918994 -0.27951777 0.02274144 0.1063335

mlp_1/MLP_0_1/hidden_1_1/BiasAdd/ReadVariableOp:0 f4 [256]
000000 f9 05 ba be e7 8d 89 be d4 5f ea be 48 99 c0 bd
       -0.36332682 -0.26866075 -0.45776236 -0.09404236
000010 a6 6f 50 be 5b f0 5e be 77 f0 2f be ee 20 ee be
       -0.2035509 -0.21771376 -0.17181574 -0.46509498
000020 d7 1d 14 be 05 a7 ac be 66 75 b0 be 4a d8 8a be
       -0.14464508 -0.33721176 -0.34464568 -0.2711814
000030 dd 82 5f bd 91 37 d6 be 9a 59 ec be b5 d0 2b be
       -0.05456816 -0.4183927 -0.4616211 -0.16778834
000040 94 a0 91 be 3f 8b c0 be ad ac 13 bf 7b 30 c5 bd
       -0.28442824 -0.37606236 -0.5768536 -0.096283875
000050 5c 7f d2 be fe c1 d8 be 46 7b a6 be 6f 94 9b be
       -0.41112792 -0.42335504 -0.32515925 -0.30386683
000060 71 09 44 be 39 a8 7e be 4f 8f 0a bf 1e 8e d8 be
       -0.19144227 -0.2486886 -0.5412492 -0.42295927
000070 5f e6 9e bd 97 8a 11 be 84 d1 2d be e5 a4 ca be
       -0.077587835 -0.14213024 -0.16974455 -0.3957893
000080 76 71 23 bf 35 5b ef be 09 b5 14 bf 47 47 2d bf
       -0.63845 -0.46749273 -0.5808874 -0.67686886
000090 cf 8a 8c be 60 6b 9b be 1c b7 04 bf 83 ec 54 be
       -0.27449653 -0.30355358 -0.518419 -0.20793347
0000a0 a9 85 0e bf 90 02 2e bf 87 e4 43 be 72 cb a3 3d
       -0.556727 -0.6797266 -0.19130145 0.079977885
0000b0 58 e9 42 bc 4f 50 ad be d9 fa fb be 4d 43 14 bf
       -0.011896454 -0.33850333 -0.4921482 -0.5791519
0000c0 fe 33 10 bf 53 7b 85 bc ea 98 37 be ab 40 a3 be
       -0.56329334 -0.016294157 -0.17929426 -0.31885275
0000d0 75 86 49 be 73 b3 c7 be 3e 84 31 bf c4 ba 1f bf
       -0.19680198 -0.39004096 -0.6934241 -0.62394357
0000e0 ed fd 47 3e 4e 9e 0f bf a4 13 6a be 35 d1 0d bf
       0.19530459 -0.5610093 -0.22859055 -0.5539735
0000f0 6d 73 38 be 59 9e af be e7 b5 d2 be 1d 78 56 3d
       -0.18012781 -0.34300497 -0.41154405 0.052360643
000100 51 75 1b 3e 91 5b fd 3d 57 dd 0e bf 61 1e a1 be
       0.15181471 0.123709805 -0.5580649 -0.3146849
000110 eb 1c 63 be 45 2f 9d be f0 02 45 be 65 96 95 3c
       -0.22179 -0.30700126 -0.19239402 0.01826019
000120 6d c5 04 bf 8d 7a 11 bf e1 68 4d be 1a 65 e5 bd
       -0.5186375 -0.5682762 -0.2005954 -0.11200924
000130 33 5e 04 bf cb 3d a2 be 01 97 8b be 13 7f e9 be
       -0.51706237 -0.3168777 -0.27263644 -0.45604762
000140 29 2a 10 bf 1d fe 06 bf 92 db 04 bf 5c ef 48 be
       -0.5631433 -0.52731496 -0.5189754 -0.19622558
000150 c1 63 a6 be 98 bc e2 be ce 98 fd be 74 20 5e be
       -0.3249798 -0.4428451 -0.49530643 -0.21692067
000160 d6 dd cf be 3e 79 3f bf a9 19 28 be 48 f8 4d be
       -0.40598935 -0.74794376 -0.16416039 -0.20114243
000170 2b a9 b9 be 98 a1 c8 bd 84 4c 16 bf ba 52 98 bd
       -0.36261877 -0.097964466 -0.58710504 -0.07437654
000180 a1 89 8b be 4b 05 e0 be 22 ba e0 bf 03 ee 2e bf
       -0.2725344 -0.43754038 -1.7556803 -0.6833193
000190 f1 ba 22 bf 39 92 e1 bd 45 5e e0 be 82 87 6a be
       -0.635665 -0.11014218 -0.43821922 -0.22903255
0001a0 92 19 40 be 82 df 04 bf 72 ef 45 be 94 bb a5 be
       -0.18759754 -0.51903546 -0.19329622 -0.32369673
0001b0 39 a9 b6 be 1d 81 b2 be ff aa 2f be 7e a3 a4 be
       -0.35675982 -0.3486413 -0.17155074 -0.32155985
0001c0 08 8f 11 bf 2b 3a b5 be db 48 46 be c3 19 1d bf
       -0.56858873 -0.3539594 -0.1936373 -0.61367434
0001d0 2c 22 b0 be a0 48 f7 be 93 24 27 be 58 0a 86 be
       -0.3440107 -0.48297596 -0.16322546 -0.26179767
0001e0 98 a6 9f be df f6 36 bf 89 7b f3 bd da bb 88 be
       -0.31181788 -0.71470445 -0.11888797 -0.2670582
0001f0 6e 6c d1 be 6f e1 fa be e8 ee 8e be eb aa ce be
       -0.40903038 -0.49000117 -0.27916646 -0.40364775
000200 6c af 25 bf 65 39 78 be 33 72 de be ee 21 85 be
       -0.647208 -0.24240644 -0.43446502 -0.2600245
000210 af 74 a9 be 2f 11 f3 be f8 ce 76 be bd d5 e3 be
       -0.33096835 -0.47474048 -0.2410239 -0.44499007
000220 8d 05 1b be a2 87 16 bf 6e 13 33 be da 22 7d be
       -0.15138836 -0.5880071 -0.1748788 -0.24720326
000230 26 82 28 be 7d 44 25 be 75 d8 13 bf 11 af 5c be
       -0.16455898 -0.16139407 -0.5775216 -0.21551158
000240 37 42 b7 be c5 5b 1a bf 8d 37 3e bf ec 79 98 be
       -0.35792705 -0.6029628 -0.74303514 -0.2978052
000250 99 32 e5 be 2e e1 dc be fe 4b a1 be ab 97 d4 be
       -0.44765165 -0.43140548 -0.3150329 -0.41521963
000260 48 0e f3 be 22 69 ea bb 57 f3 36 bf 90 29 e7 bd
       -0.47471833 -0.007153646 -0.7146506 -0.11287224
000270 d4 f7 eb be b1 2a f6 be e9 d0 44 be 9f 68 2e bf
       -0.46087515 -0.48079446 -0.19220318 -0.6812839
000280 db cf bb be 50 2b 08 bf 89 50 07 bf 3b ef 1b bf
       -0.3668202 -0.5319109 -0.5285726 -0.6091191
000290 3a 0b 7c bd bf 63 f5 be 05 8c 0a bf 8c 4f a6 be
       -0.061534144 -0.47927663 -0.541199 -0.32482564
0002a0 f5 bc 4c bf 71 83 20 bf d2 de bf bd f4 6f 04 bf
       -0.79975826 -0.62700564 -0.093686715 -0.51733327
0002b0 34 4e 3e be e4 98 70 be a7 86 ef bd 48 fc 02 bf
       -0.1858452 -0.23495823 -0.11695605 -0.511662
0002c0 39 8b 14 bf 75 1f e5 be b6 bf 99 be 59 68 d9 be
       -0.58024937 -0.44750562 -0.30029076 -0.42462423
0002d0 93 9e ef be 47 e5 b3 bd 34 0c bb be 3d 98 1b bf
       -0.4680067 -0.087839656 -0.36532748 -0.6077917
0002e0 28 e4 b5 bd 00 2d c6 be 6e bb 71 be 78 bb a2 be
       -0.08881408 -0.38706207 -0.23606655 -0.31783652
0002f0 b5 3f 89 be f7 0d b6 be ae bf e8 be c4 14 c7 be
       -0.26806417 -0.3555753 -0.4545874 -0.3888303
000300 e1 5d d6 be 64 28 be be 90 f4 c3 be da cc aa be
       -0.418685 -0.3714019 -0.38272524 -0.33359414
000310 72 77 40 be 50 20 ff be 55 69 64 be 47 26 e9 be
       -0.18795565 -0.4982934 -0.22305806 -0.45537016
000320 ef e4 0d bf 5c 28 a7 be 83 f9 9c be ad dd 96 be
       -0.5542745 -0.3264798 -0.30659112 -0.29466
000330 89 eb f8 be 08 90 17 bf 63 d2 e7 be 89 1c f3 be
       -0.486172 -0.5920415 -0.452777 -0.47482708
000340 7f 47 a4 bd fa 1a d2 be 72 df 27 be 0b 8f a5 be
       -0.08021449 -0.41036206 -0.16393831 -0.32335696
000350 32 b6 08 bf fd 62 8e be d9 1d 80 be 88 1d 4c be
       -0.5340301 -0.27809897 -0.25022772 -0.1993314
000360 69 e6 21 be 2d 87 7d bd 8f 19 0e bf fe de 26 bf
       -0.15810551 -0.06189649 -0.5550775 -0.6518401
000370 b1 a6 00 bf b3 47 ce be 88 ab e2 be 3e a7 ec be
       -0.5025435 -0.40289077 -0.44271493 -0.46221346
000380 94 b1 d0 be a4 42 a9 be df c9 a3 be d5 00 00 bf
       -0.4076048 -0.33058655 -0.31989953 -0.5000127
000390 ea 13 bc be 55 8e 07 bf 8a b1 74 be 62 13 aa 3c
       -0.36733943 -0.52951556 -0.23895851 0.020761196
0003a0 de 07 ad be 7f 9d 76 be 93 d7 80 3c a3 a6 e3 bd
       -0.33795065 -0.24083517 0.015727794 -0.11115768
0003b0 df 4b 53 be 69 7f a7 be 90 aa 87 be a2 d2 b3 be
       -0.20634411 -0.32714394 -0.26497316 -0.35121638
0003c0 c1 a4 81 be 06 37 b4 be 04 e6 25 bf b5 7a 2f bf
       -0.2532101 -0.3519823 -0.648041 -0.6854661
0003d0 6e 95 19 bf 89 ee 28 be 1d 14 8c be 74 17 5f 3d
       -0.59993637 -0.16497244 -0.27359095 0.054465726
0003e0 c0 b9 98 be f2 78 37 bf cf 5a c8 be d0 f5 2e 3d
       -0.29829216 -0.7166892 -0.3913178 0.042714894
0003f0 51 93 14 bf 35 e2 f8 be 32 ac 01 be fb 11 ab bd
       -0.58037287 -0.48610082 -0.12663344 -0.08353039

mlp_1/MLP_0_1/hidden_0_1/Cast/ReadVariableOp:0 f4 [85, 512]
000000 3e 02 92 be 86 37 c5 be 07 b4 87 bd 8c 5c 0c 3e
       -0.28517336 -0.38518924 -0.06626134 0.13707179
000010 fd de 28 bf 2c 76 b5 3e c5 01 1b 3e 16 a6 2a bd
       -0.65965253 0.3544172 0.15137394 -0.0416623
000020 e9 c3 8a bd 6a 19 24 3e a2 86 15 bf 0c 8d 99 3d
       -0.06775648 0.1602532 -0.5840856 0.07497606
000030 67 04 77 3c f5 76 38 be 69 00 75 3e 4b 0f 07 bf
       0.015076733 -0.18014129 0.23925938 -0.5275771
000040 4f fb dd 3e 03 10 62 3e b6 f1 3b 3f e4 7c 30 3d
       0.43355796 0.2207642 0.73415697 0.043087855
000050 40 51 a4 3e 21 9c d0 3d 70 71 b9 3d f1 8a 04 3d
       0.3209324 0.10186029 0.090548396 0.032359067
000060 23 71 e4 3e ea 1d b8 3d 8c 23 10 3f 1c 24 25 bf
       0.44617566 0.08990081 0.5630424 -0.64508224
000070 11 15 d4 be 32 dc fb bb ac 0f ff 3e ba a6 55 3e
       -0.41422322 -0.0076861614 0.49816644 0.20864382
000080 e8 65 28 3e 07 9b 38 3e 35 49 fd be cf 03 ae 3e
       0.16445124 0.18027888 -0.49469915 0.3398728
000090 db a1 20 be d0 fc 55 bf aa e6 b0 3c f8 b2 25 3e
       -0.15686743 -0.83588886 0.021594364 0.16181552
0000a0 ee 3e ff 3d 71 41 70 3e b5 7b 7b bf 13 f7 e1 3d
       0.12463175 0.23462464 -0.98235637 0.11033454
0000b0 3a a0 62 bf ac 2a 4c 3d 82 f1 13 bf 2f 77 75 bd
       -0.88525736 0.049845383 -0.57790387 -0.059928115
0000c0 e7 25 17 3f 92 f5 fb 3e 22 6c 8e be 35 4f a2 3e
       0.5904221 0.49210793 -0.27816874 0.31701055
0000d0 62 00 2b be 58 f9 4a be 48 d0 20 3f cd 2c 8a be
       -0.16699365 -0.1982168 0.6281781 -0.26987305
0000e0 00 23 3a 3e a4 56 2c bf f2 36 16 bf 8a c6 ad be
       0.18177414 -0.67319703 -0.5867759 -0.33940536
0000f0 c0 94 47 3e ee eb 97 be 37 61 4c 3e 04 f8 21 3e
       0.19490337 -0.29672188 0.1995896 0.15817267
000100 c7 7d 89 be 98 de 3b 3e cb d7 53 3e fa 7f 0f bf
       -0.26853773 0.18346632 0.20687787 -0.5605465
000110 35 dd 4a 3e d3 e0 d0 be 43 c4 09 3e cc a5 ab be
       0.19810946 -0.40796527 0.13453774 -0.3352493
000120 dc d0 e0 bd c8 09 9e 3d 83 09 06 bd 0c 82 5b bf
       -0.10977337 0.077167094 -0.032723915 -0.8574531
000130 46 93 07 3f 7b 21 09 3e cd 0f be 3d 2e 60 de 3e
       0.52959096 0.13391678 0.092803575 0.43432754
000140 e6 3f c7 3e b5 02 f7 be fc ec b7 bd 71 f9 9e 3e
       0.38915938 -0.48244253 -0.08980748 0.31049684
000150 29 72 ea bd d3 e9 8c 3f 1f 2f 1e 3f b7 a6 06 bf
       -0.114475556 1.1008857 0.6179065 -0.52598137
000160 0c 34 8d be 6f 2f 44 3f aa 5f c4 3e 97 1a 19 3e
       -0.2757877 0.7663488 0.38354236 0.1495155
000170 97 31 bb be f0 07 0e 3f 2b 30 1a bf a6 8f 00 bd
       -0.36561272 0.5548086 -0.6022975 -0.031386994
000180 00 35 ae be cc dd fc 3e 19 6e b7 3e 4d a9 6b bc
       -0.3402481 0.49387968 0.35826185 -0.014383626
000190 3f 14 94 be c2 5d 91 3e 5a f7 1d bf b9 44 aa be
       -0.28921697 0.28391844 -0.61705554 -0.33255556
0001a0 f8 b8 52 3e 4a 44 82 be 6e 6e 0b bf c2 3c f9 3d
       0.20578372 -0.25442725 -0.5446538 0.12169792
0001b0 d4 a5 9d be 64 b8 c4 3e de ae 66 bd cd 2e 92 3e
       -0.3079058 0.3842193 -0.05631911 0.2855133
0001c0 25 03 d9 3d c8 77 27 be 3a b2 03 be 73 ab 8a 3e
       0.10596303 -0.16354287 -0.12860957 0.2708393
0001d0 78 9f 17 bf cb 68 86 bb 13 71 92 3e 46 a2 22 be
       -0.59227705 -0.0041018478 0.28601894 -0.15882215
0001e0 b3 90 26 3e 8f 64 2a bb 38 b4 ef be ef 5f 3d 3e
       0.16266136 -0.002599988 -0.46817183 0.18493627
0001f0 be 9b 1f 3f 45 fd ce 3e 1a ab 9c be e9 80 57 3f
       0.6234702 0.40427604 -0.3059929 0.84181076
000200 e3 44 f6 bd 75 cb 17 3f d6 c8 bb 3e 68 fc 19 3d
       -0.12024858 0.59294826 0.36676663 0.03759423
000210 12 ea 52 3e 27 b2 d5 be c2 6d d4 be f4 af 27 be
       0.20597103 -0.41737482 -0.4148999 -0.16375715
000220 a5 97 25 3f 96 85 74 3e 62 78 91 3e 6a cf 96 3e
       0.64684516 0.23879084 0.28412157 0.2945512
000230 fe 07 2a be 27 64 4c bc 78 de b2 3e 51 fa 75 be
       -0.16604611 -0.01247505 0.34935355 -0.2402127
000240 4b 5c 4c 3e fd 2e 02 bc 6e 73 19 bf 32 d6 99 3c
       0.19957082 -0.007945773 -0.59941757 0.018778894
000250 ac 04 f8 3e 99 0f b0 3e 42 87 2b bf f1 cd 3d 3e
       0.48441064 0.343869 -0.6700326 0.18535592
000260 de fb f1 be 83 ff d9 3e f6 54 0b 3e 7c eb 0b bf
       -0.47262472 0.42577752 0.13606629 -0.54656196
000270 29 81 7d 3e 0e a8 ec 3e 4b 6c a4 be 46 67 07 3f
       0.24756302 0.46221966 -0.3211387 0.5289196
000280 82 c0 fc 3e 28 98 8b bf c9 d9 25 3f f6 2e ce be
       0.49365622 -1.0905809 0.6478544 -0.40270203
000290 71 02 6b 3e c2 e0 09 3f 13 bc 26 bc 0c 45 5d bd
       0.2295015 0.5385858 -0.010176676 -0.054020926
0002a0 b7 b6 7e 3e 63 70 92 be c2 67 7e 3b ff 93 8d 3d
       0.24874388 -0.2860137 0.0038819169 0.06912994
0002b0 3a 43 d2 39 ee 82 a1 be 37 8e 50 3e 0e 59 40 be
       0.0004010441 -0.31545204 0.2036675 -0.18783972
0002c0 10 c6 fd 3d c3 c6 81 bf 95 f5 62 3e ad 2a 01 3f
       0.12391293 -1.0138782 0.22163995 0.50455743
0002d0 bf 66 98 3e 26 1d 42 3e 09 0d 88 bf 32 dc 36 be
       0.2976589 0.18956432 -1.0628978 -0.17857435
0002e0 d2 8e 33 bf e4 a8 88 3d bc fd 1e 3f 66 b7 6c 3f
       -0.701398 0.06672838 0.6210592 0.92467344
0002f0 20 4c 73 3e aa 14 fb 3e 9c 99 2c bf 10 d3 25 3e
       0.23759508 0.49039203 -0.6742189 0.16193795
000300 15 06 e1 bd 1a 3e 33 bf 7f e2 01 3d 82 0f cf be
       -0.10987488 -0.70016634 0.031710144 -0.4044152
000310 14 8d b3 be d9 fd 4a 3e a9 0e 4c 3f c6 b3 6e 3d
       -0.35068572 0.19823398 0.7970987 0.058276914
000320 55 50 2d bf 95 4a 08 bf 6d 29 29 3f 08 f9 9e be
       -0.677007 -0.53238803 0.66078836 -0.3104937
000330 b1 5a bf 3d 08 4d 15 3f 06 aa cb be 8b 01 ea 3e
       0.0934347 0.58320665 -0.39778155 0.45704302
000340 42 68 7a bf 2a cd 0e bf 0f 05 30 be b1 e5 0a bf
       -0.97815335 -0.55781806 -0.1718943 -0.5425673
000350 20 c3 6c be 8e 87 18 3e 50 1a e2 be 3b cb a1 bd
       -0.2312131 0.1489546 -0.441607 -0.07900091
000360 c2 e4 16 bf 47 79 d0 be 3d b2 95 3e b1 2e e7 3c
       -0.58942807 -0.40717527 0.29237548 0.028220506
000370 9f 8b b8 3e be 2a 63 be 8c 7a 26 be fa a0 9d 3e
       0.36044022 -0.22184274 -0.16257685 0.30786878
000380 82 42 b8 3e 67 54 8d 3e 49 b3 81 be d5 78 6e 3d
       0.3598824 0.27603456 -0.25332096 0.058220703
000390 87 36 d0 3e 2a 01 12 3f 29 a8 2a bb 25 c2 19 be
       0.406666 0.57033026 -0.0026040173 -0.15015467
0003a0 6b 63 a2 3c 0e c4 ce 3e 58 4c 8a be 97 ab c6 be
       0.019822797 0.40383953 -0.2701137 -0.38802788
0003b0 a6 25 16 be 5a ab 51 be dd 39 7b 3e af e2 c4 3e
       -0.14662799 -0.20475522 0.24533792 0.38454196
0003c0 15 95 32 3d 0a a8 d1 be 67 90 1e be d1 a0 a1 3d
       0.043599207 -0.40948516 -0.15484773 0.078920014
0003d0 6c 00 d8 3e 23 fe 62 3d a6 6f a5 bc 9e 38 10 3e
       0.42187822 0.055418145 -0.02019484 0.14084098
0003e0 6d 0a 6a bd 67 4b 89 be 48 bb a0 be 7e fd b7 3e
       -0.05713885 -0.2681534 -0.31392884 0.35935587
0003f0 ad f7 cc 3d 80 c5 9a 3e 86 e4 8f be ca 68 02 bf
       0.10008178 0.30228806 -0.28104037 -0.50941145

mlp_1/MLP_0_1/hidden_0_1/BiasAdd/ReadVariableOp:0 f4 [512]
000000 b1 71 79 bf 93 c4 82 bf 1a 54 f2 be 61 ef ac bf
       -0.97439104 -1.021624 -0.4732979 -1.3510553
000010 d6 57 38 be f0 52 0f bf dc f9 a2 bf 1d 7f 69 bf
       -0.18002257 -0.5598593 -1.2732501 -0.91209584
000020 61 e1 1d bf 5e 92 12 bf 4e b1 b2 be bf 51 73 bf
       -0.61672026 -0.5725459 -0.34900898 -0.9504661
000030 cb de b7 bf 3b 47 17 bf b4 e6 7d be db e6 1b bf
       -1.4364866 -0.59093064 -0.24795038 -0.6089913
000040 37 a1 15 bf 97 bd 4c bf 11 6c 98 be 10 90 49 bf
       -0.5844912 -0.7997679 -0.29769948 -0.78735447
000050 a6 7a 21 bf 69 85 d3 bf d5 92 78 bf 15 3d 5a bf
       -0.6307777 -1.6525089 -0.9709905 -0.85249454
000060 05 e2 aa bf 4c e3 87 bf 50 01 ec be 62 ff 10 3c
       -1.3350226 -1.061624 -0.4609475 0.0088499505
000070 56 f0 41 bf 94 1d 87 be 49 54 42 bf 22 ea c6 be
       -0.7575735 -0.26389754 -0.7590986 -0.38850504
000080 91 9a 69 bf 6a 7a ac bf 6f 72 89 be a4 4a e8 be
       -0.91251475 -1.3474858 -0.26845118 -0.45369446
000090 f6 12 6a bf 1d 7a ce be 52 eb a8 bf 5e 69 6d bf
       -0.9143518 -0.4032754 -1.3196814 -0.927389
0000a0 8f e0 65 bf 79 ff 83 bf 14 c9 2e bf 00 bb 13 bf
       -0.89795774 -1.0312339 -0.6827557 -0.57707214
0000b0 4d 63 6f bf ea 83 bc bf 46 bc 26 3d da 1d 9a bf
       -0.93510896 -1.4727757 0.040706895 -1.204036
0000c0 c3 8f cc be 0b ef 87 bd a6 e0 4e bf 3a db 47 be
       -0.3995343 -0.06637391 -0.80811536 -0.19517222
0000d0 57 10 0d bf d8 38 51 bf c7 4a 98 3e c4 60 25 bf
       -0.5510306 -0.8172736 0.2974455 -0.6460078
0000e0 4a 5c 84 bf 18 67 05 bf 1e 0a 95 bf 5d b6 ea be
       -1.0340664 -0.52110434 -1.1643713 -0.45842257
0000f0 58 f1 83 bf 77 b6 84 bf 72 1c 25 bf 76 85 ad bf
       -1.0308027 -1.0368184 -0.6449653 -1.3556354
000100 f2 3f 58 bf ba a5 06 bf 72 ef 2c bf ab 22 95 3c
       -0.8447257 -0.5259663 -0.67552865 0.018205008
000110 7f 79 e5 be 30 f0 1e bf 7c 53 2d bf 30 bf 4a bf
       -0.44819257 -0.6208525 -0.6770551 -0.7919798
000120 65 1c 20 bf 41 d3 8a bf 09 ca 80 bf 4b e8 98 bb
       -0.62543327 -1.084572 -1.0061656 -0.0046663634
000130 a7 0c 11 bf c1 28 c0 bf be cc 7d bf d0 94 53 bf
       -0.5665993 -1.5012437 -0.99140537 -0.82648945
000140 09 ca e8 be 23 2f 32 bf e7 ed 36 bf 04 79 d4 bf
       -0.4546664 -0.69603175 -0.7145676 -1.6599431
000150 1d 44 c8 bf ea 5d 41 bf 8c aa 33 bf 8e 0b df be
       -1.5645787 -0.75533926 -0.7018211 -0.43563503
000160 f2 af 0d bf e6 94 19 bf 87 26 76 be 22 17 13 bf
       -0.55346596 -0.59992826 -0.24038135 -0.5745717
000170 a5 24 2c bf 21 b9 22 be 61 63 9a bf b9 6e a7 bf
       -0.67243415 -0.15890934 -1.2061578 -1.3080665
000180 ef 89 b3 bf e9 21 4c bf 4d dc 8d bc 92 06 37 be
       -1.4026469 -0.7973924 -0.017316962 -0.178736
000190 60 f2 a6 bf c5 4d 73 bf cd 2d 99 bf 49 95 31 be
       -1.3042717 -0.9504054 -1.1967102 -0.17342104
0001a0 c6 17 4e 3e 5a 55 6d bf e6 44 93 be 8a 7a 4d bf
       0.20126256 -0.9270836 -0.28763503 -0.80265105
0001b0 60 5d 21 bd 30 4b 33 bf 9d c3 6f bf b1 7f 89 bf
       -0.03939569 -0.700366 -0.9365786 -1.0742093
0001c0 68 a2 0f bf f1 83 9b bf 90 f1 c5 bf 9d 69 6d be
       -0.5610719 -1.214964 -1.5464344 -0.2318482
0001d0 09 e6 ca be c2 12 85 bf 27 97 53 be 55 00 c5 be
       -0.39628628 -1.039635 -0.20663129 -0.38476816
0001e0 02 eb 8a bf 31 ac d9 be be 7c 65 bf 8f b2 17 bf
       -1.0852969 -0.42514184 -0.89643466 -0.59256834
0001f0 71 1a 87 be 51 9d a4 be 72 1a 83 bf 80 da 4d bf
       -0.2638736 -0.32151273 -1.0242445 -0.8041153
000200 d6 4b c9 bf 4a f2 14 bf 31 5e 2a bf ef 93 68 bf
       -1.5726268 -0.58182204 -0.66549975 -0.9085073
000210 fd a4 69 bf e0 6f 0f bf f5 0a 2f be 73 0a ae bf
       -0.9126738 -0.5603008 -0.17094024 -1.3596939
000220 74 d5 76 bf c6 5e 40 bf 64 93 6d bf 1b 08 30 bf
       -0.96419454 -0.7514461 -0.92803025 -0.6876237
000230 4a 25 38 bf e7 b0 8a bf cd 4d 19 bf 63 b3 ba bf
       -0.719319 -1.0835236 -0.5988434 -1.4585994
000240 5b 38 bb be 5b 55 9b bf 07 8e 7e bf 33 cb a3 bf
       -0.36566433 -1.2135423 -0.99435467 -1.2796386
000250 bf 0e a6 be 52 15 48 bf 10 d2 32 bf 11 8e b1 bf
       -0.32433125 -0.7815753 -0.6985178 -1.387148
000260 1d a8 84 bf e8 37 7b bf ed 7a 27 bf 74 ad 86 bf
       -1.0363804 -0.9813218 -0.65421945 -1.0521684
000270 f1 f3 90 bf 74 85 46 bf c1 40 29 be 5d ca 09 bf
       -1.1324445 -0.77547383 -0.16528608 -0.53824407
000280 2b 79 66 bf b6 28 ab 3d a5 44 5e bf 03 8a 49 bf
       -0.9002864 0.08357374 -0.86823493 -0.78726214
000290 33 bc c8 be 29 7e b4 be 41 cb aa bf e9 a7 56 bf
       -0.39206085 -0.35252503 -1.3343278 -0.8384996
0002a0 64 eb aa bf a3 15 3d bf 65 ad 8f bf df 09 c6 bf
       -1.3353086 -0.7386114 -1.1224791 -1.5471762
0002b0 65 cb 28 bf e9 3e 9a bf ba ac e3 be 1d 7b 3b bf
       -0.65935355 -1.2050449 -0.44467717 -0.7323473
0002c0 bb da a4 bf 4c 06 d5 be 2a 53 24 3e 6e d2 10 bf
       -1.2879251 -0.41606367 0.1604735 -0.5657109
0002d0 97 e8 8c bf c5 5f bd bf 28 ee 95 bd 00 41 2f bf
       -1.1008481 -1.4794852 -0.07320815 -0.6845856
0002e0 31 32 03 bf b9 d0 64 bf f5 09 31 bf f3 5a 8a bf
       -0.5124846 -0.89380985 -0.6915582 -1.0809005
0002f0 8f 63 00 bf 05 b5 28 bf d5 bb 05 bf 78 0b 81 bf
       -0.50151914 -0.65901214 -0.52239734 -1.0081625
000300 a8 8c a9 bf 3d d2 58 bf cd e3 40 bf c4 1d 2d bf
       -1.324605 -0.846958 -0.75347596 -0.67623544
000310 95 91 9c bd 1e 49 50 bf b7 80 30 bf ff e4 17 bf
       -0.07644955 -0.8136157 -0.68946403 -0.59333795
000320 c4 79 ae bd e1 ac e8 be 67 aa e2 be 43 d9 9c bf
       -0.08519319 -0.45444396 -0.44270632 -1.2253803
000330 bc f5 7b bf c4 ab 28 bf 62 9e 11 bf 2a 50 87 bf
       -0.98421836 -0.65887094 -0.568823 -1.0571339
000340 6f a5 5c be 0e 78 8c bf b1 6d 83 bf f7 90 54 be
       -0.21547483 -1.0974138 -1.026785 -0.20758425
000350 77 87 89 bf 79 1d 4b bf a9 93 56 bf 25 82 9f bf
       -1.0744466 -0.79341847 -0.8381906 -1.2461592
000360 24 c8 54 be 26 aa 8d bf 9b 3b 86 bf 8e 23 2f bf
       -0.20779473 -1.106755 -1.048694 -0.6841363
000370 31 9a 17 bf 39 95 04 bf 8d b3 f1 be 19 03 3c bf
       -0.5921965 -0.51790196 -0.472073 -0.73442227
000380 57 a6 e5 be d5 09 03 be 57 8b 17 bf c0 cd 58 bf
       -0.4485347 -0.1279672 -0.5919699 -0.8468895
000390 d8 31 83 bf af 1e 57 be 40 3d 2c bf 77 ce 97 bf
       -1.0249586 -0.21007799 -0.6728096 -1.1859883
0003a0 c3 eb 08 bf c4 9b 8c bf 2d b1 2b bf 4a b0 4f be
       -0.53484744 -1.0985036 -0.67067224 -0.20282093
0003b0 38 99 8c bf 0d f1 61 bf 42 ac 3c bf 87 d8 e8 be
       -1.0984259 -0.8825844 -0.73700345 -0.45477697
0003c0 33 89 89 bf a6 32 92 bf 2b 7e de be ad 23 b2 bf
       -1.0744995 -1.1421707 -0.43455634 -1.3917137
0003d0 cc d1 7f be cd 8b 9b bf 6c 42 51 bf 59 91 75 bf
       -0.24982375 -1.2152039 -0.81741977 -0.9592491
0003e0 14 53 3b bf ab 8b 37 bf 92 c1 2e bf 57 a3 06 bf
       -0.7317364 -0.7169749 -0.68264115 -0.52592987
0003f0 13 e3 c8 3b 98 88 2c bf 17 1a 3c bf 30 ed 0a bf
       0.006130585 -0.67395926 -0.7347731 -0.5426817
